RNN_Time_series_Anomaly_Detection_LVTN/save/Kitchen_Temp/checkpoint/Kitchen_Temp.pth (torch, 214536 bytes, 35 tensors)

encoder.weight f4 [32, 1]
-0.107951455 -0.24177499 -0.19668514 0.26032254 -0.21542013 0.28725895 -0.2625027 0.12545213
-0.30942252 -0.25112408 -0.23260766 -0.24279733 -0.23322201 -0.2694125 0.2358477 0.08729873
-0.23571692 0.18583599 -0.24954498 0.2699708 -0.32541007 -0.29683733 -0.16620071 -0.110934965
0.31574368 -0.27446267 0.03096627 -0.21336995 0.29369694 0.10288631 -0.18538795 0.20519543
00000000: a715 ddbd dd93 77be d467 49be ff48 853e
00000010: 1897 5cbe 9b13 933e c166 86be 8676 003e
00000020: a16c 9ebe 5693 80be b430 6ebe dd9f 78be
00000030: c0d1 6ebe 6ff0 89be 0f82 713e adc9 b23d
00000040: c75f 71be ca4b 3e3e b888 7fbe 9d39 8a3e
00000050: 269c a6be 10fb 97be 8530 2abe df31 e3bd
00000060: 28a9 a13e 5f86 8cbe faac fd3c a77d 5abe
00000070: 725f 963e 0fb6 d23d 57d6 3dbe c01e 523e

encoder.bias f4 [32]
0.55680805 -0.86433107 0.52331066 -0.18285182 -0.22897749 -0.8823545 -0.11648053 0.3549199
0.6691291 0.052153848 0.021785725 0.57739794 0.6096777 -0.8633242 0.59892416 0.8056794
-0.84610677 0.6411938 -0.09681629 0.6234336 -0.9402857 0.106408946 -0.8004605 -0.051352672
-0.16905323 -0.0134154875 0.48938438 -0.610824 0.24698392 0.21682018 0.8444033 -0.8316465
00000000: f98a 0e3f cd44 5dbf b0f7 053f 823d 3bbe
00000010: 1379 6abe fce1 61bf 588d eebd 10b8 b53e
00000020: 0b4c 2b3f 469f 553d fa77 b23c 5ad0 133f
00000030: d613 1c3f d102 5dbf 1853 193f 0141 4e3f
00000040: 749a 58bf 4725 243f 9e47 c6bd 5899 1f3f
00000050: 90b6 70bf efec d93d fbea 4cbf 2e57 52bd
00000060: 4a1c 2dbe a2cc 5bbc 9790 fa3e f65e 1cbf
00000070: 5ae9 7c3e 1c06 5e3e d12a 583f c9e6 54bf

rnn.weight_ih_l0 f4 [128, 32]
0.047202133 0.03913871 -0.03470387 0.088806264 -0.045342207 0.14323965 -0.0434893 -0.12821837
0.19944602 0.012540071 -0.18191087 -0.06463721 0.120024934 0.11631004 0.019427668 0.046277624
-0.16555718 -0.025956322 -0.06510321 -0.04219363 0.0040757223 0.0044770255 -0.12431223 -0.06045394
0.023549203 -0.23715098 0.1445123 0.03874315 0.12920518 0.11373238 0.15911727 -0.067131154
0.19026108 0.032138165 0.117362596 -0.21069254 0.096151665 -0.11071073 0.15122055 -0.05643176
0.17258981 0.17825456 0.099983625 0.101755746 0.03853014 -0.12983663 -0.09101163 0.16463135
-0.17876935 -0.08291855 0.13806511 0.105098896 -0.025538461 0.19169964 -0.11104455 0.055255506
-0.18116674 0.15016007 0.019092618 -0.0603799 -0.12410222 0.00402696 0.22945154 -0.13235538
0.07242965 -0.15327388 0.10027324 -0.011239122 -0.09983562 0.10600134 -0.21417256 -0.015791513
-0.082208864 -0.19881637 -0.060300373 0.07838891 -0.057854082 -0.07851894 0.12798658 0.086923696
-0.20340127 -0.06868411 -0.17727076 0.09855352 -0.04094206 0.01787133 -0.08059446 -0.11242178
-0.088896655 -0.3100505 0.18440405 -0.09924804 0.27001327 0.13192324 0.12540643 -0.10466508
0.024176588 -0.16586615 0.12736504 0.026128666 0.030693023 -0.19239153 -0.15811694 0.012539487
-0.028517134 -0.0038894415 -0.1607876 -0.11561487 0.21290371 0.06223404 0.07733576 0.0806245
0.053719636 0.06854348 -0.18393813 -0.057783984 -0.11952784 -0.13296518 0.023535827 -0.03891343
0.13547021 -0.18939535 0.081525184 -0.059337396 0.05900445 0.15952203 0.18758023 0.07766036
0.010580379 0.045539804 0.13705789 -0.055604648 -0.027744303 0.02504482 0.06516262 0.0033680145
0.094046384 0.09971022 0.117851645 0.17741357 0.09550875 -0.0929417 0.06667486 0.12193245
-0.17738107 0.11165462 0.064362556 -0.082928546 -0.007345597 0.07041182 -0.13297307 -0.027220357
-0.08888659 0.13283798 0.06924464 0.05952885 0.09490466 0.052634165 -0.049354028 -0.18059205
-0.08234134 -0.077708475 -0.06829238 -0.012375235 0.015255139 -0.17020583 0.0828967 -0.026282635
-0.10143097 0.03152663 0.12168654 -0.048005294 -0.0574193 -0.10343154 -0.115644254 -0.07694508
-0.0773495 0.14287862 0.24107417 0.07677863 0.028419718 -0.009087982 0.13214718 0.043612454
-0.23434357 0.14470674 -0.06905957 0.04135053 -0.0365194 0.07430884 0.16742551 -0.0091903405
0.10066418 -0.083490446 0.114148594 -0.079569936 0.027776362 -0.034625605 -0.037322816 0.015005151
0.16979052 0.11657778 -0.004652425 -0.026817054 0.11960231 -0.031663157 0.1427673 -0.07632163
-0.03614498 0.05654063 -0.113948494 0.04594257 -0.06260258 0.03899434 -0.11792834 0.0022558246
-0.111624055 -2.4893907e-06 0.048753846 -0.15462975 0.1286589 0.03246577 0.18299785 0.073208116
0.12845786 -0.017586034 -0.011241984 -0.043211985 -0.06111007 -0.044476777 -0.042007376 0.111394316
0.12040765 -0.0963091 0.036110483 0.14408578 0.068982914 0.041235037 -0.058299273 0.1520129
0.023942493 0.119035155 -0.091561235 -0.0056774 -0.08937603 -0.08746342 -0.12005022 -0.011892741
-0.017654488 -0.00735655 -0.056829944 0.049884975 0.012080222 -0.012015136 -0.04889488 0.022722188
00000000: 0657 413d e94f 203d a525 0ebd 0fe0 b53d
00000010: c0b8 39bd 6aad 123e d621 32bd ad4b 03be
00000020: 943b 4c3e df74 4d3c d846 3abe 8360 84bd
00000030: a2cf f53d f533 ee3d c626 9f3c 9b8d 3d3d
00000040: d287 29be 5aa2 d4bc d554 85bd 3ad3 2cbd
00000050: a38d 853b 03b4 923b 6997 febd 8d9e 77bd
00000060: 42ea c03c b5d7 72be 08fb 133e 23b1 1e3d
00000070: 5d4e 043e 86ec e83d a3ef 223e 0f7c 89bd
00000080: cdd3 423e 4fa3 033d cd5b f03d c9bf 57be
00000090: 2aeb c43d 4fbc e2bd 8fd9 1a3e fd24 67bd
000000a0: 62bb 303e 5d88 363e 37c4 cc3d 5165 d03d
000000b0: c8d1 1d3d e5f3 04be 4e64 babd 1f95 283e
000000c0: 500f 37be 33d1 a9bd f160 0d3e 173e d73d
000000d0: 0936 d1bc e94c 443e 536b e3bd 9953 623d
000000e0: c683 39be 90c3 193e 1f68 9c3c ea50 77bd
000000f0: 4e29 febd 97f4 833b 58f5 6a3e 2b88 07be
00000100: ff55 943d d4f3 1cbe 0e5c cd3d 4b24 38bc
00000110: 9e76 ccbd 3b17 d93d 0d50 5bbe 345d 81bc
00000120: 1f5d a8bd 8596 4bbe 86fd 76bd 5d8a a03d
00000130: 67f8 6cbd 8ace a0bd ea0e 033e 0d05 b23d
00000140: 6c48 50be 41aa 8cbd 7786 35be 6ed6 c93d
00000150: ddb2 27bd e566 923c b50e a5bd 643d e6bd
00000160: 730f b6bd f0be 9ebe 6ad4 3c3e 8e42 cbbd
00000170: 2e3f 8a3e e316 073e 8b6a 003e a55a d6bd
00000180: fb0d c63c d1d8 29be fb6b 023e c90b d63c
00000190: ef6f fb3c 4902 45be 68e9 21be 6c72 4d3c
000001a0: c49c e9bc 00e6 7ebb 81a5 24be 7dc7 ecbd
000001b0: 6e03 5a3e 1fe9 7e3d 3662 9e3d 751e a53d
000001c0: 1f09 5c3d 8660 8c3d 475a 3cbe e6ae 6cbd
000001d0: 03cb f4bd 0628 08be 35ce c03c b063 1fbd
000001e0: b4b8 0a3e dbf0 41be adf6 a63d c50b 73bd
000001f0: a6ae 713d be59 233e 0815 403e 650c 9f3d
00000200: 5359 2d3c f287 3a3d e758 0c3e b3c1 63bd
00000210: 0548 e3bc cb2a cd3c fb73 853d e8b9 5c3b
00000220: 649b c03d df34 cc3d 345c f13d e7ab 353e
00000230: 179a c33d 3858 bebd d48c 883d b8b7 f93d
00000240: 62a3 35be 2dab e43d 84d0 833d 71d6 a9bd
00000250: 55b3 f0bb 1334 903d 182a 08be 3afd debc
00000260: 2c0a b6bd ae06 083e 22d0 8d3d 86d4 733d
00000270: 605d c23d ec96 573d 7327 4abd 1fed 38be
00000280: 94a2 a8bd 9f25 9fbd e0dc 8bbd 7fc1 4abc
00000290: b1f0 793c 704a 2ebe bfc5 a93d ae4e d7bc
000002a0: 0abb cfbd 1122 013d cb36 f93d 33a1 44bd
000002b0: 8030 6bbd ead3 d3bd e5d6 ecbd 6295 9dbd
000002c0: 6a69 9ebd c64e 123e 26dc 763e 1d3e 9d3d
000002d0: 78d0 e83c c2e5 14bc 9751 073e f9a2 323d
000002e0: c3f7 6fbe 012e 143e 1b6f 8dbd 2c5f 293d
000002f0: 5e95 15bd 3c2f 983d 9871 2b3e 1593 16bc
00000300: 0629 ce3d 0afd aabd bdc6 e93d 90f5 a2bd
00000310: 418b e33c 94d3 0dbd cfdf 18bd 2ad8 753c
00000320: 91dd 2d3e 55c0 ee3d 5f73 98bb 70af dbbc
00000330: 0ef2 f43d 3ab1 01bd 9731 123e 844e 9cbd
00000340: c20c 14bd 2697 673d d45d e9bd 472e 3c3d
00000350: c835 80bd 87b8 1f3d 6a84 f1bd 75d6 133b
00000360: 279b e4bd 680f 27b6 1db2 473d 4357 1ebe
00000370: 29bf 033e d4fa 043d ca63 3b3e 23ee 953d
00000380: 758a 033e 9610 90bc 4c30 38bc 0dff 30bd
00000390: 8e4e 7abd 482d 36bd ed0f 2cbd b422 e43d
000003a0: 4998 f63d b53d c5bd 96e8 133d 398b 133e
000003b0: ea46 8d3d 12e6 283d 38cb 6ebd 45a9 1b3e
000003c0: 0c23 c43c b4c8 f33d 7584 bbbd 7c09 babb
000003d0: c80a b7bd 0620 b3bd e4dc f5bd c5d9 42bc
000003e0: 25a0 90bc 370f f1bb 84c6 68bd 3054 4c3d
000003f0: 20ec 453c 22db 44bc ff45 48bd e223 ba3c

rnn.weight_hh_l0 f4 [128, 32]
0.11038607 -0.104999535 0.045693908 0.12000844 -0.12020225 0.017257513 0.0172647 0.06976245
-0.12324048 0.0146414405 0.09202131 -0.04875949 0.08267201 -0.03347585 0.030868031 0.11161952
0.037458327 0.00863401 -0.07361478 -0.004579399 0.08661859 -0.0634761 -0.03423408 -0.013480139
0.012638391 0.14824934 0.0726524 0.017168585 -0.16176948 0.019962363 -0.017512059 0.03864945
-0.03281607 -0.026063237 0.08899645 -0.0095967585 0.09908475 -0.12309893 -0.035794225 -0.06837296
-0.14539705 0.12944685 -0.03116821 -0.05005067 0.10803111 -0.061900906 0.085553475 0.13765278
0.051048864 -0.08859929 0.092002966 -0.07883968 0.0018533315 0.05365668 0.06162205 -0.071648866
-0.09669317 -0.15017173 -0.08446425 -0.004749471 -0.018809592 -0.060925256 -0.12193934 -0.09132783
0.049549025 -0.06568479 -0.04970646 0.08239155 -0.07333492 0.11251599 -0.0066684554 0.12522432
-0.07668213 -0.012639038 -0.0003809074 -0.008017756 -0.13722995 0.097488694 -0.12676424 -0.011751662
0.016430965 0.080997586 -0.07534158 -0.0882703 -0.12907042 0.0048232772 -0.02709162 -0.010256733
-0.057499394 0.05067988 -0.022163639 -0.0019285866 0.008667159 0.0037061563 0.018979292 -0.035305902
0.061388094 -0.1881713 -0.09432995 -0.06388104 0.0715139 -0.057365727 -0.084435664 0.03147823
0.008342325 0.030799173 -0.0065552755 -0.07164774 -0.10092833 0.1533934 -0.040005445 -0.08607223
0.11518693 0.03919904 -0.06113313 0.05323752 -0.09367588 0.06420711 0.002373408 -0.1421247
0.10170155 -0.056036457 0.059547145 0.037540365 0.027738158 -0.08078901 0.1138242 -0.033900898
0.003080568 0.0861059 0.07695551 -0.040637475 0.0218536 -0.07591449 0.13407932 -0.12118515
-0.10641859 0.06542954 0.00078046496 0.08603036 0.000116954514 -0.01974944 -0.053367898 0.1571516
0.15133023 -0.08656391 0.06941326 -0.0059335195 -0.12554218 0.009762235 0.03169908 -0.016852517
0.08345792 -0.11418587 -0.15171446 -0.0035546185 0.03862971 0.0036458077 -0.030471643 -0.1732441
0.05320097 -0.09010279 0.017753564 0.03323217 0.005220037 0.0011878009 0.08377556 0.041274812
-0.14371607 0.036672942 0.009940283 -0.1310701 -0.11330524 -0.011883755 -0.084346436 0.047539443
0.09015213 0.027505815 0.10813103 -0.09377449 0.12945905 -0.10020764 -0.058621455 -0.019481871
0.07296493 -0.14436641 -0.029037884 -0.13219064 -0.06315079 0.017244192 0.07385411 0.05741473
-0.06923609 0.04737129 -0.027575709 0.0023243432 0.100996025 -0.015920442 -0.03336019 -0.038691275
0.03192251 0.011333739 -0.0026927849 -0.014377446 0.08776219 -0.0708838 -0.041660227 0.15413147
0.062411387 0.016186344 -0.081416234 -0.004966004 0.06856396 -0.06261325 -0.05556885 -0.033211626
0.051130343 -0.08104377 -0.10194808 -0.015978742 -0.08792873 0.046490222 0.050530892 0.115221225
0.009946897 -0.089412294 -0.014609274 -0.02862397 -0.17605394 -0.045753125 -0.046755243 0.032248966
-0.05661756 0.048133522 0.090700805 -0.0768324 -0.054781564 -0.018476937 0.05424508 -0.112030506
-0.03325896 0.04334188 -0.061462257 -0.18331963 -0.06532205 0.08959507 -0.045521144 0.03925064
0.037816647 0.09956033 0.068325646 -0.06823799 0.0014578634 -0.046517186 -0.06537335 0.045048058
00000000: 1812 e23d ff09 d7bd 8929 3b3d fcc6 f53d
00000010: 992c f6bd a15f 8d3c b36e 8d3c 9edf 8e3d
00000020: 8165 fcbd a7e2 6f3c ab75 bc3d 08b8 47bd
00000030: f14f a93d f91d 09bd f4de fc3c c698 e43d
00000040: e76d 193d aa75 0d3c 59c3 96bd c80e 96bb
00000050: 1665 b13d c2ff 81bd 0939 0cbd cddb 5cbc
00000060: 4111 4f3c adce 173e c8ca 943d 22a5 8c3c
00000070: e6a6 25be 1c88 a33c 7375 8fbc e34e 1e3d
00000080: 256a 06bd 9282 d5bc c543 b63d b93b 1dbc
00000090: f2ec ca3d 4b1b fcbd f79c 12bd 1f07 8cbd
000000a0: f7e2 14be b78d 043e 7954 ffbc ee01 4dbd
000000b0: 6a3f dd3d ce8b 7dbd a936 af3d daf4 0c3e
000000c0: 9d18 513d 8b73 b5bd 0d6c bc3d b376 a1bd
000000d0: 7ceb f23a 1bc7 5b3d 6767 7c3d a4bc 92bd
000000e0: 1207 c6bd 9ec6 19be 98fb acbd 73a1 9bbb
000000f0: 9316 9abc c38c 79bd 55bb f9bd 160a bbbd
00000100: ebf3 4a3d bf85 86bd 0099 4bbd e7bc a83d
00000110: 9e30 96bd c96e e63d 0f83 dabb ce3a 003e
00000120: 850b 9dbd f813 4fbc 87b4 c7b9 e85c 03bc
00000130: 0286 0cbe 27a8 c73d 7cce 01be 0b8a 40bc
00000140: 3b9a 863c 10e2 a53d b04c 9abd 0fc7 b4bd
00000150: 092b 04be 950c 9e3b 3fef ddbc db0b 28bc
00000160: 7c84 6bbd b595 4f3d 8590 b5bc a1c8 fcba
00000170: b300 0e3c fce2 723b 767a 9b3c ec9c 10bd
00000180: 1572 7b3d faaf 40be 1030 c1bd 10d4 82bd
00000190: e175 923d 53f8 6abd 9bec acbd 51ef 003d
000001a0: 3fae 083c 8c4e fc3c a3cd d6bb 0dbc 92bd
000001b0: 83b3 cebd 2913 1d3e c0dc 23bd a346 b0bd
000001c0: 20e7 eb3d 2c8f 203d bc66 7abd 960f 5a3d
000001d0: 24d9 bfbd 047f 833d 2e8b 1b3b 2389 11be
000001e0: e748 d03d 7c86 65bd b5e7 733d edc3 193d
000001f0: 223b e33c b574 a5bd aa1c e93d abdb 0abd
00000200: 5be3 493b 4a58 b03d da9a 9d3d 7b73 26bd
00000210: 5206 b33c 0e79 9bbd 174c 093e ec2f f8bd
00000220: fdf1 d9bd ecff 853d 1e98 4c3a af30 b03d
00000230: 7a45 f538 94c9 a1bc 4c98 5abd 59ec 203e
00000240: 50f6 1a3e 6b48 b1bd 8a28 8e3d f86d c2bb
00000250: 218e 00be c8f1 1f3c e5d6 013d 4a0e 8abc
00000260: fceb aa3d 48da e9bd 095b 1bbe 9af4 68bb
00000270: 303a 1e3d 81ee 6e3b ab9f f9bc e766 31be
00000280: 43e9 593d d087 b8bd ec6f 913c 751e 083d
00000290: d80c ab3b fcaf 9b3a 8592 ab3d c70f 293d
000002a0: 4e2a 13be 5e36 163d 92dc 223c 3e37 06be
000002b0: 940c e8bd 15b4 42bc d3bd acbd b8b8 423d
000002c0: aea1 b83d e053 e13c cd73 dd3d d70c c0bd
000002d0: ea90 043e aa39 cdbd 0d1d 70bd 7298 9fbc
000002e0: a36e 953d cad4 13be dbe0 edbc fc5c 07be
000002f0: 3455 81bd b143 8d3c d340 973d b52b 6b3d
00000300: a7cb 8dbd 6608 423d 74e6 e1bc 0254 183b
00000310: 01d7 ce3d 966b 82bc b2a4 08bd be7a 1ebd
00000320: 2ec1 023d 26b1 393c 6f79 30bb 618f 6bbc
00000330: aabc b33d 872b 91bd eaa3 2abd a4d4 1d3e
00000340: 15a3 7f3d 3999 843c 8ebd a6bd dcb9 a2bb
00000350: 436b 8c3d 603b 80bd 2a9c 63bd ea08 08bd
00000360: 0d6e 513d 47fa a5bd 28ca d0bd dae5 82bc
00000370: fa13 b4bd 886c 3e3d 7bf9 4e3d 1bf9 eb3d
00000380: 4ff8 223c cb1d b7bd bd5b 6fbc d17c eabc
00000390: 7c47 34be a167 3bbd 6d82 3fbd 7e17 043d
000003a0: d1e7 67bd a827 453d 58c1 b93d 4e5a 9dbd
000003b0: a262 60bd f25c 97bc 1730 5e3d 4070 e5bd
000003c0: 8c3a 08bd 4187 313d d9bf 7bbd 24b8 3bbe
000003d0: 91c7 85bd 9f7d b73d 6174 3abd 47c5 203d
000003e0: a1e5 1a3d 49e6 cb3d 51ee 8b3d 5cc0 8bbd
000003f0: c715 bf3a ce88 3ebd 77e2 85bd 5084 383d

rnn.bias_ih_l0 f4 [128]
-0.042868536 0.048276246 0.05996758 0.18977584 0.066194996 0.11117165 -0.027862463 -0.09449291
-0.15988454 0.05997927 -0.121049814 -0.07296481 -0.032331713 -0.082320586 -0.09760939 0.037443772
-0.019816559 0.065675534 -0.030741913 0.082975015 0.19426921 -0.048360575 0.11926345 0.008805463
0.16741022 -0.05648129 0.06460206 0.026186615 -0.109724835 -0.04373811 -0.09634137 -0.03321181
-0.16983503 0.08852895 -0.043537326 -0.112705894 0.1912018 -0.11203111 0.16446224 -0.012360269
-0.02677408 -0.11228657 -0.10049159 -0.12906852 0.04170163 -0.05433809 -0.1598775 0.061173506
0.078802615 -0.10612636 -0.12188009 0.14620952 -0.04113771 -0.0010938859 0.14135028 -0.13190925
0.15294 -0.07555095 0.0077647218 -0.0078395335 0.1421185 0.13525277 0.11300733 0.12720591
0.10808842 -0.013977042 0.1613217 0.10801505 0.0031287593 -0.12943794 -0.08558278 -0.13925667
-0.10841849 -0.099103086 0.159662 -0.08199007 0.030942487 0.058775183 0.056100458 -0.10478123
-0.023872882 -0.05905451 -0.105960704 0.12266607 0.051049095 -0.016578935 0.11828826 -0.0023664173
-0.133037 0.107773334 0.06214858 -0.04942548 0.10861672 0.15994988 -0.12005158 0.0068637053
0.12657972 0.091109 0.022322189 0.069015674 0.036039118 0.018684743 -0.03163935 -0.09402424
-0.076662175 0.13221946 0.095713936 0.0308365 0.19403027 -0.045210384 -0.0064282124 -0.13252315
-0.038053486 -0.0005195289 -0.061437495 -0.0729503 0.21305668 0.17754853 0.048882276 0.023967346
0.15384355 -0.12930033 0.018498376 0.010675466 0.09798874 0.13445851 0.033535436 0.11645424
00000000: eb96 2fbd 50bd 453d 91a0 753d 9954 423e
00000010: 3e91 873d f6ad e33d d23f e4bc 8085 c1bd
00000020: c6b8 23be d3ac 753d f7e8 f7bd 936e 95bd
00000030: 426e 04bd b297 a8bd 6fe7 c7bd a45e 193d
00000040: 5656 a2bc e580 863d 77d6 fbbc ceee a93d
00000050: 82ee 463e bd15 46bd 6540 f43d ca44 103c
00000060: 966d 2b3e ed58 67bd 164e 843d 5085 d63c
00000070: 6ab7 e0bd bc26 33bd a04e c5bd 1b09 08bd
00000080: 3ce9 2dbe ab4e b53d 3254 32bd 59d2 e6bd
00000090: 68ca 433e 9170 e5bd ca68 283e ba82 4abc
000000a0: 5155 dbbc 80f6 e5bd 89ce cdbd 8a2a 04be
000000b0: 54cf 2a3d 9e91 5ebd edb6 23be 1291 7a3d
000000c0: 4463 a13d c758 d9bd 459c f9bd f3b7 153e
000000d0: 0480 28bd b860 8fba 21be 103e 3813 07be
000000e0: 4e9c 1c3e 75ba 9abd 356f fe3b 6371 00bc
000000f0: 8387 113e b47f 0a3e 6370 e73d 4442 023e
00000100: 765d dd3d f7ff 64bc 8431 253e ff36 dd3d
00000110: df0b 4d3b 618b 04be 0646 afbd 4d99 0ebe
00000120: 830a debd 8ff6 cabd 6f7e 233e 69ea a7bd
00000130: 197b fd3c 3fbe 703d 98c9 653d 8b97 d6bd
00000140: 1091 c3bc 24e3 71bd ed01 d9bd 5938 fb3d
00000150: db18 513d 8cd0 87bc 1e41 f23d e515 1bbb
00000160: da3a 08be 44b8 dc3d 828f 7e3d 5f72 4abd
00000170: 7172 de3d e7c9 233e 9add f5bd efe8 e03b
00000180: 1d9e 013e 5b97 ba3d 06dd b63c 1758 8d3d
00000190: c19d 133d bf10 993c 4398 01bd c88f c0bd
000001a0: 0f01 9dbd 8a64 073e ab05 c43d d49c fc3c
000001b0: dfaf 463e 862e 39bd c1a3 d2bb 26b4 07be
000001c0: f9dd 1bbd ff30 08ba e2a5 7bbd f866 95bd
000001d0: 882b 5a3e 48cf 353e c838 483d 2b57 c43c
000001e0: 2a89 1d3e 4e67 04be e889 973c 26e8 2e3c
000001f0: 52ae c83d 7eaf 093e 745c 093d 907f ee3d

rnn.bias_hh_l0 f4 [128]
-0.09808948 -0.010968519 0.14784427 0.054778736 -0.054541957 0.0555886 0.053925693 0.037243623
0.07568754 0.08532714 0.052545972 -0.1360003 -0.109253705 0.05750206 0.017459113 -0.061435763
0.060924456 0.03049938 0.056573763 -0.09392373 0.20812446 0.14133015 -0.0564203 0.010138947
-0.0030553339 -0.07154144 0.11235941 0.0014898172 0.14048074 -0.12531625 0.11668665 0.13127719
-0.12782604 0.06481232 0.112497024 0.04556456 0.2756994 0.047855724 0.12834328 0.09485802
0.082927406 0.043429375 0.18134318 -0.14032117 0.06269064 -0.1381094 -0.0022681002 -0.009525998
-0.020866916 -0.09326266 0.024802253 0.25718895 0.12908581 0.08080014 -0.105606586 -0.031796973
0.16305725 -0.15365124 -0.08409289 0.10104013 0.022843214 0.050094824 0.0059629 -0.024596455
-0.13868 0.1464385 -0.14665273 0.078772396 -0.01930827 0.09938473 0.14339718 0.05132382
-0.10424134 0.08708421 0.06380093 -0.07039975 0.10470421 0.17483956 0.11484385 0.13937362
-0.09985353 -0.03934494 -0.087802 0.18254566 0.14649786 -0.0068586627 -0.10079987 0.03707919
-0.032270126 0.064643 -0.18952638 0.014118333 0.119171046 -0.07035159 0.09260392 0.02189224
0.14287362 -0.02874011 -0.012185062 -0.10725387 0.1518101 0.0040562064 -0.1337775 0.051590946
0.0049696113 0.044964984 -0.09749096 0.12579069 0.095176145 0.106157094 0.07513927 -0.113895155
0.06966236 0.20560965 -0.014221835 0.007077283 -0.044801738 0.0015117904 -0.060270734 0.067632854
0.016270213 -0.077312276 0.17616907 0.06902313 0.10692243 -0.075378954 0.13680373 0.0142092565
00000000: 23e3 c8bd 4eb5 33bc 7d64 173e ab5f 603d
00000010: 6367 5fbd dfb0 633d 30e1 5c3d c58c 183d
00000020: 1202 9b3d ffbf ae3d 723a 573d aa43 0bbe
00000030: 68c0 dfbd 4887 6b3d 6a06 8f3c 11a4 7bbd
00000040: ec8b 793d d6d9 f93c e4b9 673d 165b c0bd
00000050: 941e 553e dab8 103e f918 67bd d31d 263c
00000060: ff3b 48bb 5284 92bd b11c e63d f845 c33a
00000070: 2fda 0f3e e752 00be 69f9 ee3d 876d 063e
00000080: d4e4 02be 52bc 843d d764 e63d e7a1 3a3d
00000090: 7928 8d3e 5d04 443d 6c6c 033e ec44 c23d
000000a0: d8d5 a93d 00e3 313d 07b2 393e 5ab0 0fbe
000000b0: f363 803d 8d6c 0dbe 68a4 14bb ee12 1cbc
000000c0: 18f1 aabc 7e00 bfbd 182e cb3c 45ae 833e
000000d0: 122f 043e 8b7a a53d 4448 d8bd 8b3d 02bd
000000e0: 7bf8 263e c056 1dbe e538 acbd 21ee ce3d
000000f0: b121 bb3c 3b30 4d3d 6e64 c33b 817e c9bc
00000100: 2102 0ebe f9f3 153e 222c 16be 6c53 a13d
00000110: 612c 9ebc 398a cb3d b6d6 123e ed38 523d
00000120: 7c7c d5bd 3559 b23d 10aa 823d be2d 90bd
00000130: 296f d63d 2409 333e 4133 eb3d f5b7 0e3e
00000140: 0280 ccbd 2928 21bd 89d1 b3bd 40ed 3a3e
00000150: 8903 163e a2be e0bb 2a70 cebd 59e0 173d
00000160: ae2d 04bd 8d63 843d 3413 42be 9550 673c
00000170: f30f f43d 7f14 90bd 20a7 bd3d 5b57 b33c
00000180: 764d 123e 6170 ebbc dba3 47bc eba7 dbbd
00000190: 1b74 1b3e ede9 843b f8fc 08be 0751 533d
000001a0: 1fd8 a23b 342d 383d 57a9 c7bd 46cf 003e
000001b0: b6eb c23d e468 d93d 9ee2 993d dd41 e9bd
000001c0: 24ab 8e3d 568b 523e b302 69bc 8ee8 e73b
000001d0: 0782 37bd 4527 c63a 72de 76bd 1883 8a3d
000001e0: 1c49 853c e655 9ebd aa65 343e 005c 8d3d
000001f0: 26fa da3d 4860 9abd 4716 0c3e f1cd 683c

rnn.weight_ih_l1 f4 [128, 32]
-0.034738213 0.09998707 -0.038681287 0.020353224 0.07927995 -0.061467748 0.12447036 -0.14032598
0.08251006 0.048042905 0.08041887 -0.013378976 -0.038085144 0.079151236 0.08595122 -0.027838308
0.036242504 -0.0071752844 0.009527705 0.0035493104 0.08933689 0.085228145 0.013996059 0.04410515
-0.03932993 -0.03262897 0.00239691 0.10767229 0.065870255 -0.040875502 -0.073811784 0.060073204
-0.08693919 0.041968863 0.14661425 -0.16562326 0.04282203 0.09267311 -0.11279417 -0.032066662
-0.063665345 0.11995507 -0.12896422 0.113953985 0.053844325 0.024194548 0.22520563 0.10141611
-0.00081387983 -0.0033965788 0.13048786 -0.13001637 0.16989721 0.08493942 -0.1055995 -0.052850768
-0.10992846 0.12546462 0.017300585 0.03670205 0.1422309 0.009128823 0.05356331 -0.06585312
-0.10665854 0.16929258 -0.0685262 -0.108094856 0.041857816 0.09570213 -0.057815284 -0.056477923
0.076731525 0.14950553 -0.047827445 0.038884614 0.085541844 -0.022398677 0.08849354 -0.027008146
-0.11953552 -0.09853759 0.02350792 -0.16756614 -0.086719766 -0.08455654 -0.1312344 -0.1596184
0.11559734 0.116234854 0.06762027 0.031420246 -0.05959054 0.07716126 0.111118406 0.03636138
-0.045856632 -0.018384457 0.05487455 -0.019868119 -0.017207418 -0.14838241 0.024654316 -0.03395802
0.03378469 0.13118297 0.00026406444 -0.023982806 0.05070562 -0.004027303 0.02825414 0.05659826
-0.17054571 -0.021372963 0.10926637 -0.0196021 -0.0656326 0.104921855 0.11586616 -0.076283306
-0.13125798 0.10744716 0.0026061265 0.10145918 -0.10694736 0.004048431 -0.09571807 0.06352858
0.03056118 -0.04146318 -0.0005495771 -0.023142125 0.1259025 -0.06871844 -0.1029155 -0.039310735
-0.14800437 0.011480303 -0.08994287 -0.007886237 -0.05579033 0.004141869 -0.05253584 0.07595739
-0.1356317 0.0011013794 -0.102534816 -0.13865203 -0.048669245 0.10309576 0.06361227 -0.0868641
-0.16295658 -0.09652837 -0.01579057 -0.10279954 -0.014600666 -0.084443286 0.017376328 -0.1566242
-0.08344729 -0.051034793 0.018412996 -0.035175346 0.03547656 -0.042750496 -0.09670577 -0.046146084
0.112195045 0.18574372 0.08755848 0.050663527 0.18141627 0.0356418 0.13771698 0.019167038
0.05847836 -0.104945265 -0.11231312 -0.07965914 -0.051793218 0.0057869772 0.07946801 -0.037336394
-0.10250956 0.026641306 -0.007927506 0.06385402 0.066610806 0.15470599 0.03961286 0.23740177
-0.105899945 0.116578996 0.025805062 -0.22159202 0.015026515 -0.06675281 -0.10974761 0.023405934
-0.015620104 -0.03867272 0.10479603 0.16646068 -0.032331914 0.08097459 0.22832216 -0.11774533
-0.063181646 -0.10108733 -0.14102314 -0.029995162 0.12428571 -0.06305086 -0.03134333 -0.059760988
-0.07250908 -0.07841593 0.061744113 0.048779566 0.057569876 0.16378167 0.033823464 -0.038455155
-0.17856862 -0.05895933 -0.080137864 -0.12137542 -0.15901814 -0.013381512 -0.048504483 -0.08557441
0.031561125 0.009959303 0.13473538 -0.038455486 0.03896559 -0.09102076 0.16682617 -0.045079615
0.064127095 -0.10859185 0.08467975 -0.005861825 0.05964986 0.13221666 -0.047472604 0.04679372
-0.1335743 0.05773565 -0.13814661 -0.0028848522 0.09853432 0.08526751 -0.08122517 0.091696024
00000000: a849 0ebd 05c6 cc3d 4570 1ebd cebb a63c
00000010: 875d a23d 9bc5 7bbd 51ea fe3d 9db1 0fbe
00000020: 09fb a83d a3c8 443d a6b2 a43d 7e33 5bbc
00000030: 2bff 1bbd 0b1a a23d 3107 b03d 2a0d e4bc
00000040: 0573 143d a61e ebbb 171a 1c3c 8c9b 683b
00000050: 42f6 b63d 188c ae3d ba4f 653c 9aa7 343d
00000060: 6c18 21bd f4a5 05bd 7a15 1d3b 4a83 dc3d
00000070: fce6 863d 126d 27bd a22a 97bd 520f 763d
00000080: 2d0d b2bd 8be7 2b3d 0c22 163e 2599 29be
00000090: 2766 2f3d 66cb bd3d a100 e7bd 5558 03bd
000000a0: fa62 82bd 01ab f53d 320f 04be b560 e93d
000000b0: de8b 5c3d a533 c63c 4e9c 663e 40b3 cf3d
000000c0: 8d5a 55ba 2399 5ebb 9c9e 053e 0323 05be
000000d0: 89f9 2d3e b8f4 ad3d 8d44 d8bd 0c7a 58bd
000000e0: 2c22 e1bd cc79 003e f5b9 8d3c e454 163d
000000f0: faa4 113e 0f91 153c 3465 5b3d 00de 86bd
00000100: cb6f dabd 095b 2d3e 7757 8cbd d660 ddbd
00000110: 1a73 2b3d 7aff c33d b8cf 6cbd 6555 67bd
00000120: 6b25 9d3d fa17 193e b6e6 43bd 7945 1f3d
00000130: 9030 af3d 6e7d b7bc 1a3c b53d 3040 ddbc
00000140: 0acf f4bd 13ce c9bd ae93 c03c 7596 2bbe
00000150: 229a b1bd fb2b adbd 5062 06be 0173 23be
00000160: 4cbe ec3d 8a0c ee3d 7f7c 8a3d 84b2 003d
00000170: 3615 74bd b906 9e3d 0c92 e33d acef 143d
00000180: 2ad4 3bbd 009b 96bc 23c4 603d 77c2 a2bc
00000190: 92f6 8cbc 8ff1 17be d9f7 c93c 9117 0bbd
000001a0: d161 0a3d d454 063e 2172 8a39 9777 c4bc
000001b0: b2b0 4f3d 77f7 83bb 3a75 e73c 94d3 673d
000001c0: 89a3 2ebe 5a16 afbc 0cc7 df3d 9594 a0bc
000001d0: 626a 86bd 45e1 d63d 3d4b ed3d 6c3a 9cbd
000001e0: 7e68 06be 420d dc3d 8ccb 2a3b d5c9 cf3d
000001f0: 3807 dbbd b3a8 843b d607 c4bd 461b 823d
00000200: 715b fa3c 4cd5 29bd 7f11 10ba 8e94 bdbc
00000210: 96ec 003e 41bc 8cbd 5dc5 d2bd 4b04 21bd
00000220: 758e 17be e117 3c3c f833 b8bd 4735 01bc
00000230: 6784 64bd 84b8 873b d22f 57bd 8c8f 9b3d
00000240: 09e3 0abe 295c 903a c6fd d1bd ccfa 0dbe
00000250: 6759 47bd df23 d33d 2647 823d cee5 b1bd
00000260: 17de 26be abb0 c5bd 3a5b 81bc 9188 d2bd
00000270: a237 6fbc 9af0 acbd cd58 8e3c 1862 20be
00000280: 6ae6 aabd dc09 51bd dad6 963c 0614 10bd
00000290: df4f 113d 251b 2fbd ad0d c6bd ad03 3dbd
000002a0: 84c6 e53d 9a33 3e3e dc51 b33d 8f84 4f3d
000002b0: 30c5 393e 23fd 113d ae05 0d3e 3104 9d3c
000002c0: 0187 6f3d 8bed d6bd 6c04 e6bd 5524 a3bd
000002d0: 2025 54bd afa0 bd3b 20c0 a23d 0cee 18bd
000002e0: 88f0 d1bd de3e da3c 5fe2 01bc e5c5 823d
000002f0: 3f6b 883d 3f6b 1e3e 1841 223d 7319 733e
00000300: 12e2 d8bd f8c0 ee3d 2365 d33c 05e9 62be
00000310: c631 763c b2b5 88bd 5bc3 e0bd cdbd bf3c
00000320: 77eb 7fbc 4967 1ebd 4d9f d63d ab74 2a3e
00000330: 786e 04bd 01d6 a53d 49cd 693e 7724 f1bd
00000340: 6165 81bd e006 cfbd 5f68 10be 6ab8 f5bc
00000350: 8289 fe3d cf20 81bd dd61 00bd f0c7 74bd
00000360: a47f 94bd 8898 a0bd 65e7 7c3d 15cd 473d
00000370: 64ce 6b3d 62b6 273e 798a 0a3d 2783 1dbd
00000380: b1da 36be 577f 71bd 521f a4bd ad93 f8bd
00000390: a7d5 22be 213e 5bbc a3ac 46bd a341 afbd
000003a0: 3d46 013d 582c 233c 12f8 093e 8083 1dbd
000003b0: 629a 1f3d 1869 babd 7bd4 2a3e 67a5 38bd
000003c0: 1155 833d 6765 debd 946c ad3d 8d14 c0bb
000003d0: 6953 743d ce63 073e a272 42bd c6aa 3f3d
000003e0: b4c7 08be 387c 6c3d 4e76 0dbe ca0f 3dbb
000003f0: 5dcc c93d bba0 ae3d 6259 a6bd 20cb bb3d

rnn.weight_hh_l1 f4 [128, 32]
-0.12326369 0.08703262 -0.122076884 -0.07257301 -0.00821429 -0.09062968 0.02193092 0.086504124
0.00729856 -0.06750509 0.09270081 -0.0035281214 -0.057702113 0.032950763 -0.06377879 -0.10721661
0.05155763 -0.02726906 -0.06835431 -0.055306386 -0.03877572 0.019401148 -0.021832585 0.08629513
-0.115485065 -0.029469322 -0.06941818 0.028850349 0.1669756 -0.022498554 -0.14299104 0.02708762
0.15729718 -0.026040098 -0.09705912 -0.13406011 -0.08903355 0.064431146 0.06300218 0.12654035
0.022282789 0.1641854 -0.14522538 -0.09256066 -0.1282 -0.09043658 -0.017631052 0.051798303
0.0024598748 0.065757155 0.12165409 -0.043560065 0.01200056 -0.018416328 -0.09414773 -0.11625282
0.013951777 0.12699217 -0.083331786 -0.093116105 0.008325625 0.102074064 0.044255503 0.034026816
0.16265133 -0.070234776 -0.12088723 0.04753088 0.097602285 0.05925185 0.022283755 -0.004185519
-0.033486806 0.056683064 0.0010076286 -0.04071475 -0.0767154 0.15803853 -0.053176023 -0.048661534
0.16987626 -0.047443617 0.010089853 0.050983984 0.19459423 0.021329138 0.051567953 -0.11569579
-0.10297998 0.14584307 0.05697863 -0.13531017 0.0032240825 0.13587584 0.017514668 0.14314194
0.01025046 0.08812303 -0.055358008 -0.12914437 -0.022633625 0.10716902 0.010926737 0.00869701
-0.018458549 0.0044592246 -0.051399067 0.024061585 -0.02868251 -0.0034519017 0.046916522 0.04121918
0.082169175 0.060062654 0.07305854 0.042026836 0.14853819 0.08891697 -0.077081 -0.05268873
0.039374422 -0.08600796 -0.05444977 0.06680191 0.0811483 -0.015317868 0.058031637 0.09705855
-0.07927909 0.08492342 -0.08205075 0.048452657 0.16544381 0.0028658735 -0.030727012 -0.024772959
0.0077564577 -0.05310223 0.06415305 0.00811891 0.15095659 0.027643511 -0.025850663 -0.06255024
-0.016720768 0.004716229 -0.13064194 0.07623908 -0.008768731 0.010522672 -0.057662956 0.06304483
0.15534623 -0.08088525 -0.12624505 -0.14643179 0.14575015 0.042430952 0.11625895 -0.16166689
0.22670725 0.08443432 0.04705313 -0.20181729 -0.1054409 0.07145325 0.057642173 0.0806797
-0.11777559 0.031704575 -0.0084309755 0.17144723 0.15065794 0.1191618 0.076399304 0.11802373
-0.06475884 -0.080591604 0.16639258 -0.05985189 0.075914025 0.04441885 0.024482334 0.099791154
-0.023872698 -0.102837466 -0.04785744 -0.18964557 0.034141883 0.050136287 0.17554055 0.021532785
0.1008208 0.044253252 0.038458407 0.020851692 -0.016584141 0.070918575 -0.012532779 -0.040157437
-0.027443158 0.07187104 -0.081374146 -0.01274813 0.14466937 -0.03768347 0.010743985 -0.0418353
0.07033843 0.092138186 0.16016653 -0.023689207 0.1890713 -0.056834593 -0.048362542 -0.080979355
-0.070312016 -0.030180003 0.06986553 -0.05430059 -0.055183537 0.07748224 -0.031522278 0.03691463
-0.10944904 -0.0043065166 -0.18688987 0.06389814 -0.096070446 0.13951857 -0.020630572 -0.09263772
0.103789546 0.07331736 0.12113147 -0.109230734 0.011536505 -0.08482803 0.05836935 -0.07108876
-0.0033204807 0.079010285 0.08649123 -0.006028948 0.023897443 0.08294843 0.040388152 0.1554877
-0.08802247 0.03748786 -0.05434026 -0.10875429 0.18945645 0.06456722 0.038944952 0.19185135
00000000: ac71 fcbd 293e b23d 7203 fabd 29a1 94bd
00000010: 3b95 06bc 0e9c b9bd 79a8 b33c 1329 b13d
00000020: c228 ef3b 1c40 8abd ecd9 bd3d 0e38 67bb
00000030: 0d59 6cbd 61f7 063d 749e 82bd 6294 dbbd
00000040: 182e 533d 5d63 dfbc 58fd 8bbd f388 62bd
00000050: 4ad3 1ebd 28ef 9e3c 40da b2bc 80bb b03d
00000060: 6f83 ecbd a669 f1bc 1e2b 8ebd 9157 ec3c
00000070: a7fb 2a3e e34e b8bc 3e6c 12be dbe6 dd3c
00000080: 8312 213e 0b52 d5bc efc6 c6bd 0e47 09be
00000090: 3957 b6bd 7af4 833d 4907 813d cb93 013e
000000a0: 658a b63c 3820 283e f6b5 14be 7190 bdbd
000000b0: dc46 03be d036 b9bd ff6e 90bc 752a 543d
000000c0: da35 213b b0ab 863d c825 f93d 0a6c 32bd
000000d0: ff9d 443c d7dd 96bc 86d0 c0bd f515 eebd
000000e0: fe95 643c 3c0a 023e dba9 aabd a8b3 bebd
000000f0: 3468 083c 350c d13d 4245 353d b45f 0b3d
00000100: 128e 263e 40d7 8fbd b993 f7bd bdaf 423d
00000110: b5e3 c73d 11b2 723d 6c8c b63c ae26 89bb
00000120: 7629 09bd 802c 683d 6812 843a 82c4 26bd
00000130: f71c 9dbd dad4 213e 1acf 59bd 5151 47bd
00000140: 0bf4 2d3e 3d54 42bd e94f 253c 95d4 503d
00000150: b643 473e 72ba ae3c eb38 533d eaf1 ecbd
00000160: 2be7 d2bd e357 153e 6d62 693d c08e 0abe
00000170: 214b 533b 0923 0b3e ec7a 8f3c cd93 123e
00000180: 8cf1 273c d979 b43d 14bf 62bd 6c3e 04be
00000190: 276a b9bc 6e7b db3d 0f06 333c e77d 0e3c
000001a0: 6236 97bc b01e 923b d487 52bd cd1c c53c
000001b0: 95f7 eabc 4d39 62bb 8a2b 403d 71d5 283d
000001c0: 5048 a83d 4204 763d b79f 953d 5524 2c3d
000001d0: 651a 183e 1a1a b63d a5dc 9dbd 23d0 57bd
000001e0: 1347 213d f124 b0bd b906 5fbd 71cf 883d
000001f0: 1431 a63d ccf7 7abc 95b2 6d3d a2c6 c63d
00000200: 135d a2bd 54ec ad3d 390a a8bd 4b76 463d
00000210: 1a6a 293e 61d1 3b3b 37b7 fbbc a9f0 cabc
00000220: e229 fe3b b981 59bd ad62 833d 2d05 053c
00000230: 5d94 1a3e a574 e23c c5c4 d3bc 571a 80bd
00000240: fef9 88bc 998a 9a3b 00c7 05be 3c23 9c3d
00000250: b9aa 0fbc 4967 2c3c fe2f 6cbd a61d 813d
00000260: 1513 1f3e 2aa7 a5bd 6246 01be 37f2 15be
00000270: 873f 153e 14cc 2d3d 2c19 ee3d 018c 25be
00000280: f225 683e e7eb ac3d c8ba 403d 31a9 4ebe
00000290: 66f1 d7bd 1556 923d 331a 6c3d 663b a53d
000002a0: 5434 f1bd a8dc 013d 1322 0abc dd8f 2f3e
000002b0: 1346 1a3e 1a0b f43d 3d77 9c3d 6db6 f13d
000002c0: 48a0 84bd 360d a5bd d162 2a3e 4127 75bd
000002d0: d078 9b3d 8af0 353d 2d8f c83c 4e5f cc3d
000002e0: ad90 c3bc 739c d2bd 2a06 44bd 7332 42be
000002f0: 5cd8 0b3d b55b 4d3d e7c0 333e 8665 b03c
00000300: 237b ce3d e642 353d 9086 1d3d 2bd1 aa3c
00000310: 77db 87bc c23d 913d 4956 4dbc 207c 24bd
00000320: 79d0 e0bc 2031 933d 7da7 a6bd 88dd 50bc
00000330: 3524 143e fb59 1abd 8a07 303c 7e5b 2bbd
00000340: 980d 903d f2b2 bc3d b202 243e de0f c2bc
00000350: e89b 413e 64cb 68bd cd17 46bd 81d8 a5bd
00000360: bfff 8fbd 0e3c f7bc a915 8f3d 4c6a 5ebd
00000370: 2208 62bd 02af 9e3d 811d 01bd cc33 173d
00000380: d126 e0bd ae1d 8dbb 0f60 3fbe 07dd 823d
00000390: 95c0 c4bd f5dd 0e3e 7201 a9bc d8b8 bdbd
000003a0: 9d8f d43d 6927 963d c713 f83d 5db4 dfbd
000003b0: 9c03 3d3c 51ba adbd b314 6f3d fc96 91bd
000003c0: 6c9c 59bb 25d0 a13d 5022 b13d 7b8e c5bb
000003d0: 92c4 c33c dee0 a93d 0c6e 253d 2b38 1f3e
000003e0: 2045 b4bd df8c 193d e493 5ebd 92ba debd
000003f0: df00 423e d23b 843d be84 1f3d ae74 443e

rnn.bias_ih_l1 f4 [128]
0.06284892 0.05187985 0.010602185 -0.036881473 -0.062517606 0.075531624 -0.01580559 -0.16858834
0.07917923 -0.0037559317 -0.05498509 0.0554246 0.035515573 0.02523836 0.16348913 0.14324212
0.13728033 0.094965376 -0.100950584 0.0062756864 0.1671498 -0.13308348 -0.13429289 0.0494521
0.06260277 0.04814132 -0.024509601 -0.062040918 0.07759953 -0.12961173 0.11036896 -0.09809547
0.14122686 0.0878171 -0.07605984 -0.07220607 -0.010634664 -0.04714086 0.11299643 0.01661159
-0.06640876 -0.08085327 -0.017804896 -0.15361398 -0.15899971 -0.1055908 -0.10828325 0.030208835
-0.08138166 0.15104815 -0.09544511 -0.0837769 -0.05857287 -0.14064962 -0.01724839 -0.09792047
0.07713766 -0.029199775 -0.13435715 0.012172559 0.18486272 -0.15171973 0.10147057 0.0029125505
0.03451833 0.041677084 0.04959375 -0.050443202 -0.06619301 0.0640189 -0.03169677 -0.022268765
-0.09375116 0.12498548 -0.11495175 0.09820553 0.015885487 -0.1949219 0.052188296 0.12937312
0.074498005 0.03274006 0.0006913547 0.12835033 -0.06220623 0.104589626 -0.04122924 -0.096277766
0.08135724 -0.15693924 -0.15844287 0.15245341 -0.052400414 -0.14043829 0.12985206 -0.05951026
-0.061016284 0.07108977 -0.063003555 0.0064105894 0.014773517 0.0129787 -0.0436643 -0.0026625937
0.12190376 0.10739882 -0.090877935 0.05571811 -0.12016858 -0.025217958 0.073905475 0.03959191
-0.06030195 0.02946024 0.0735341 0.014005775 0.14499722 0.030498512 -0.030373655 -0.1415036
-0.13255954 -0.071603715 -0.01640499 0.07293187 0.119041346 0.045267135 0.07298499 -0.1298026
00000000: efb6 803d f77f 543d c9b4 2d3c 0711 17bd
00000010: 3b09 80bd 53b0 9a3d ba7a 81bc 6ca2 2cbe
00000020: b828 a23d 1426 76bb 0c38 61bd e804 633d
00000030: c778 113d adc0 ce3c b269 273e 10ae 123e
00000040: 3793 0c3e 357d c23d 2ebf cebd 46a4 cd3b
00000050: 5129 2b3e 0947 08be 1384 09be 498e 4a3d
00000060: e235 803d d52f 453d 5cc8 c8bc 9e1e 7ebd
00000070: 81ec 9e3d f0b8 04be 1f09 e23d 47e6 c8bd
00000080: c69d 103e 74d9 b33d 43c5 9bbd c7e0 93bd
00000090: 043d 2ebc c616 41bd ac6a e73d 0715 883c
000000a0: 5101 88bd 6696 a5bd 93db 91bc fc4c 1dbe
000000b0: d2d0 22be fd3f d8bd 9cc3 ddbd 8578 f73c
000000c0: 6eab a6bd 5eac 1a3e ba78 c3bd 3993 abbd
000000d0: 1bea 6fbd 7406 10be 7f4c 8dbc 878a c8bd
000000e0: 59fa 9d3d 5e34 efbc ec94 09be 6a6f 473c
000000f0: a74c 3d3e 6b5c 1bbe cdcf cf3d 7de0 3e3b
00000100: 1863 0d3d 97b5 2a3d d122 4b3d 889d 4ebd
00000110: 3390 87bd 571c 833d 79d4 01bd fc6c b6bc
00000120: 9c00 c0bd 63f8 ff3d d36b ebbd fb1f c93d
00000130: 4822 823c 9b99 47be 65c3 553d 637a 043e
00000140: 6992 983d 711a 063d 073c 353a 456e 033e
00000150: f6cb 7ebd 1633 d63d fedf 28bd 472d c5bd
00000160: a09e a63d aeb4 20be d93e 22be bf1c 1c3e
00000170: d1a1 56bd 0ecf 0fbe f0f7 043e 08c1 73bd
00000180: 36ec 79bd 8397 913d 0208 81bd ec0f d23b
00000190: 9f0c 723c 9da4 543c 56d9 32bd e97e 2ebb
000001a0: aea8 f93d eaf3 db3d 361e babd ac38 643d
000001b0: f21a f6bd e495 cebc c15b 973d 202b 223d
000001c0: 2dff 76bd 9a56 f13c 0c99 963d 7a78 653c
000001d0: 277a 143e 04d8 f93c 2cd2 f8bc 52e6 10be
000001e0: b0bd 07be f8a4 92bd c263 86bc 4e5d 953d
000001f0: f3cb f33d 086a 393d 2879 953d f9ea 04be

rnn.bias_hh_l1 f4 [128]
0.062287543 -0.1348015 -0.057122488 0.12691098 -0.04557484 -0.10773081 -0.18217954 0.031561214
0.013472432 0.12838456 -0.082532845 0.11695234 -0.06731673 0.06262871 -0.062614374 -0.036868114
-0.076167315 -0.09584611 -0.021264251 0.019694697 0.10816368 -0.12242899 0.0424789 0.013653613
-0.09310576 0.027945781 -0.0685412 -0.09137594 -0.09492224 0.024256917 0.065130696 0.08626588
-0.14379123 0.11276533 0.069809414 -0.016623178 -0.15688905 0.14305575 0.13691916 0.017796056
0.07653919 0.07436014 -0.10749391 -0.045860544 -0.15975101 0.08471527 -0.08530457 -0.101215914
0.05459915 -0.15795776 0.018688366 -0.057348084 0.027247109 0.098126754 0.0024775462 -0.15133904
-0.11601833 0.04843687 0.030342573 0.13341184 0.1770323 -0.02260002 0.067495376 -0.042204686
0.03966404 0.09338572 -0.14255907 -0.06695365 -0.11889128 0.07214959 0.104737386 0.04288145
0.011137703 0.12148648 0.13549311 -0.071501814 0.07769393 0.037302207 -0.10182431 -0.11388838
0.07353494 0.03249148 0.08094504 -0.13088179 0.089021765 0.07311574 0.010568839 -0.02154802
-0.012409986 -0.12555192 -0.16480717 -0.105064124 0.19850343 -0.049135868 0.0962861 0.19196263
0.06164857 -0.14831497 0.061146293 0.17370662 0.054434717 0.1489336 0.123151265 -0.064104654
0.037947025 -0.15816091 -0.110897645 0.03815567 -0.002056015 0.032593977 0.05079893 0.017951313
-0.07001906 -0.0073596393 0.17286535 0.15450656 -0.12851842 0.1406589 -0.053384505 0.025187457
0.17032228 -0.013063732 0.09462855 0.12645501 0.017291881 0.024194613 -0.105819136 0.031777997
00000000: 3921 7f3d 6809 0abe 45f9 69bd f4f4 013e
00000010: afac 3abd f9a1 dcbd 468d 3abe 5546 013d
00000020: 7abb 5c3c 3e77 033e fb06 a9bd b584 ef3d
00000030: 5bdd 89bd 7b43 803d f73b 80bd 0503 17bd
00000040: 9cfd 9bbd f74a c4bd 5e32 aebc c656 a13c
00000050: eb84 dd3d 0dbc fabd 5bfe 2d3d 67b3 5f3c
00000060: 3cae bebd 8dee e43c 545f 8cbd 4f23 bbbd
00000070: 9766 c2bd 71b6 c63c 3e63 853d 2aac b03d
00000080: 023e 13be 82f1 e63d 3df8 8e3d 552d 88bc
00000090: 86a7 20be 357d 123e 8934 0c3e 09c9 913c
000000a0: 94c0 9c3d 214a 983d c425 dcbd 44d8 3bbd
000000b0: c595 23be 337f ad3d 2ab4 aebd 4a4a cfbd
000000c0: 5ca3 5f3d aebf 21be 5818 993c d3e5 6abd
000000d0: 5435 df3c aef6 c83d 545e 223b 9ff8 1abe
000000e0: 059b edbd bd65 463d fd90 f83c 1d9d 083e
000000f0: f547 353e ad23 b9bc 043b 8a3d d2de 2cbd
00000100: c376 223d 0341 bf3d 01fb 11be ff1e 89bd
00000110: 457d f3bd 2ac3 933d 8e80 d63d 76a4 2f3d
00000120: ea7a 363c e7cd f83d b5be 0a3e 8b6f 92bd
00000130: ff1d 9f3d 33ca 183d 4489 d0bd 503e e9bd
00000140: 7d99 963d c915 053d 83c6 a53d e005 06be
00000150: 0b51 b63d b5bd 953d ec28 2d3c 7985 b0bc
00000160: 4153 4bbc af90 00be 36c3 28be dc2b d7bd
00000170: 7c44 4b3e b142 49bd a631 c53d da91 443e
00000180: 3683 7c3d e1df 17be 8974 7a3d 26e0 313e
00000190: f0f6 5e3d 0d82 183e bb36 fc3d 4d49 83bd
000001a0: 576e 1b3d eff4 21be 4e1e e3bd 1f49 1c3d
000001b0: 35be 06bb 4381 053d 8a12 503d a20e 933c
000001c0: 2766 8fbd 2129 f1bb 9d03 313e f836 1e3e
000001d0: 559a 03be e308 103e b6a9 5abd ed55 ce3c
000001e0: f768 2e3e 4309 56bc 9dcc c13d 6c7d 013e
000001f0: b4a7 8d3c c833 c63c b4b7 d8bd a529 023d

decoder.weight f4 [1, 32]
0.14465004 -0.18767081 0.23821452 -0.21344128 0.2350774 0.2061241 -0.20953605 -0.20929997
-0.2109476 0.19511019 -0.20237072 0.22286803 0.2312505 0.25762904 0.21642911 0.17680211
0.20564589 -0.19365321 0.2236514 0.23110914 0.2002953 0.20509958 -0.2104425 -0.22792853
0.19767146 0.19119456 0.22883873 -0.2073228 -0.23313917 0.15727256 0.18601154 -0.20347974
00000000: 241f 143e c72c 40be 82ee 733e 5a90 5abe
00000010: 21b8 703e 3212 533e 9e90 56be bb52 56be
00000020: a602 58be f7ca 473e 453a 4fbe 8437 643e
00000030: eecc 6c3e f4e7 833e 989f 5d3e 9d0b 353e
00000040: d694 523e 074d 46be df04 653e e0a7 6c3e
00000050: 361a 4d3e a005 523e 3d7e 57be 1966 69be
00000060: 636a 4a3e 82c8 433e b354 6a3e 6e4c 54be
00000070: 09bc 6ebe 0f0c 213e cf79 3e3e fe5c 50be

exp_avg f4 [32, 1]
-0.0013491785 0.0035647661 0.005749534 -0.019177254 0.037632156 -0.0009106868 0.07024832 -0.007250724
0.0024191553 0.02658279 0.038153935 0.007564232 0.0013448284 0.004232854 -0.008849705 -0.0040691732
0.0059539033 -0.0077098613 0.058705162 -0.013758858 0.0068064486 0.02016606 0.0032134517 0.029718803
-0.014777723 0.04082133 0.0020526447 0.003308938 -0.053998824 -0.015591099 -0.0015314745 -0.0021491034
00000000: ebd6 b0ba da9e 693b 9666 bc3b 9e19 9dbc
00000010: 2d24 1a3d 28bb 6eba 5ade 8f3d 7b97 edbb
00000020: b18a 1e3b 27c4 d93c 4d47 1c3d 61dd f73b
00000030: f444 b03a c1b3 8a3b 5afe 10bc b356 85bb
00000040: f618 c33b 01a3 fcbb d374 703d d56c 61bc
00000050: a108 df3b 4b33 a53c c698 523b d974 f33c
00000060: 431e 72bc 4434 273d aa85 063b c4da 583b
00000070: df2d 5dbd cf71 7fbc c2bb c8ba f9d7 0cbb

exp_avg_sq f4 [32, 1]
4.004337e-05 0.00012331386 0.0003229989 0.0017341294 0.006298716 5.7005273e-05 0.028636828 0.00037103193
4.9559883e-05 0.004123242 0.007712125 0.00019542497 6.345802e-05 0.00016482521 0.00042742863 0.00012251758
0.00024967166 0.00037634643 0.021652738 0.0010220237 0.00019936619 0.0023231502 4.4702636e-05 0.003097988
0.0015296451 0.010120951 3.8578444e-05 8.5420616e-05 0.013017915 0.0011158675 4.9872757e-05 4.2988293e-05
00000000: 3ef4 2738 d04d 0139 2e58 a939 ba4b e33a
00000010: 7665 ce3b f218 6f38 c897 ea3c 1087 c239
00000020: 85de 4f38 431c 873b feb5 fc3b feea 4c39
00000030: c414 8538 eed4 2c39 8018 e039 1078 0039
00000040: 5de6 8239 5d50 c539 1561 b13c 6df5 853a
00000050: f40c 5139 fe3f 183b 177f 3b38 9d07 4b3b
00000060: 5f7e c83a 58d2 253c 4acf 2138 d823 b338
00000070: 1849 553c 4d42 923a 772e 5138 544e 3438

exp_avg f4 [32]
0.00190127 -0.002482051 -0.0058833715 0.010902224 -0.029370716 0.00072033965 -0.059572835 0.007247533
-0.00049234956 -0.019559832 -0.028293023 -0.004665112 -0.0012251658 -0.0046548876 0.0075995023 0.0030654534
-0.0050800294 0.0066376566 -0.047841318 0.0116787935 -0.0047562104 -0.012671663 -0.001670311 -0.023154324
0.010626494 -0.03053981 -0.0021032176 -0.002428522 0.041618213 0.011777634 0.0009021114 0.0013876704
00000000: 0934 f93a e8a9 22bb 4cc9 c0bb 3e9f 323c
00000010: db9a f0bc 2dd5 3c3a a502 74bd b77c ed3b
00000020: 0511 01ba f13b a0bc c5c6 e7bc ccdd 98bb
00000030: be95 a0ba 0788 98bb 3f05 f93b c6e5 483b
00000040: 6076 a6bb b380 d93b 42f5 43bd 6958 3f3c
00000050: fcd9 9bbb cf9c 4fbc 56ee daba 23ae bdbc
00000060: bf1a 2e3c a02e fabc 23d6 09bb d727 1fbb
00000070: dc77 2a3d faf6 403c ac7b 6c3a 7ee2 b53a

exp_avg_sq f4 [32]
6.0087237e-05 0.0002660804 0.0004268576 0.0036759863 0.00707231 8.2037805e-05 0.046267204 0.0004495352
0.0001604738 0.010001995 0.014960228 0.00029362584 0.00018088229 0.0003014931 0.0004825663 0.00016791072
0.00039968407 0.00042127437 0.03643439 0.0013150129 0.00024953534 0.0060123596 5.4802902e-05 0.0046295803
0.004574122 0.02402707 5.2195603e-05 0.00012367513 0.015802952 0.0013652308 0.00016641126 0.00013877504
00000000: 2e06 7c38 b580 8b39 dbcb df39 d1e8 703b
00000010: d6be e73b b60b ac38 ae82 3d3d 98af eb39
00000020: dc44 2839 68df 233c bf1b 753c cbf1 9939
00000030: 38ab 3d39 b811 9e39 f400 fd39 3111 3039
00000040: b08c d139 7dde dc39 3a3c 153d 835c ac3a
00000050: 11d4 8239 5403 c53b 2bdc 6538 bcb3 973b
00000060: 84e2 953b 6bd4 c43c 9aec 5a38 caae 0139
00000070: 3175 813c 8bf1 b23a af7e 2e39 2484 1139

exp_avg f4 [128, 32]
-6.485032e-05 5.687308e-05 -0.00013503806 0.00018854816 -8.0089616e-05 0.00040286905 -0.0001171669 -1.049755e-05
-0.00037445498 -0.00013595138 -0.00013041057 -0.00015082628 -8.088569e-05 6.28988e-06 -1.6808675e-05 -0.00011193812
5.624596e-06 -2.93784e-05 -0.00010332213 4.0958737e-05 7.686044e-05 -0.00018559856 2.5210235e-05 -4.9310096e-05
0.00017877117 -0.00015555516 -4.4668945e-05 -1.8972367e-05 9.531526e-05 3.657032e-08 -0.00042971002 0.00016957877
-9.692254e-06 4.1863266e-05 -6.66103e-05 1.5207727e-05 3.5193e-06 0.00010163877 2.535857e-07 -1.62384e-05
-3.6343597e-05 -9.418904e-06 -1.4420907e-05 -5.479548e-05 -9.5796706e-05 5.485918e-06 -2.8646647e-05 -2.928789e-05
1.7106579e-05 -5.3474905e-05 -2.467308e-07 6.3953853e-06 -5.5671258e-06 -1.613859e-05 5.648682e-05 -1.6212024e-06
2.2741813e-05 -9.040957e-06 -5.7204117e-05 3.521983e-05 -3.8499975e-06 -6.542512e-06 -7.511013e-05 3.415758e-05
-0.000549511 0.00034225814 -0.0007011319 0.00052917784 -0.00010843009 0.000947123 -0.0002959266 -0.00012733212
-0.0010123788 -0.00044717116 -0.00034526607 -0.00089496025 -0.000941218 0.0003678651 -0.00015698586 -0.00041365466
0.00030091975 -0.0002623167 -0.0002436699 -0.0001321812 0.00036040077 -0.0004899509 0.00040125466 -0.00011999846
0.0005591946 -0.00040289288 -0.00031898235 0.00015253405 0.00023675332 -2.3635363e-05 -0.00074845453 0.000749138
-0.000551643 0.00021889986 -0.0006163377 0.00044466244 -0.00013192462 0.0011703189 -0.00027321285 -5.3129083e-05
-0.0008276597 -0.00039025012 -0.00034383213 -0.0005321865 -0.0006788365 0.00019892857 -8.0588004e-05 -0.00038084266
0.00020229736 -0.00016868504 -0.00026445274 -4.3763e-05 0.00021769003 -0.00050675636 0.00035759958 -0.0001145447
0.00050784124 -0.0003783426 -0.00026025283 8.3011146e-05 0.0002288928 -5.214351e-06 -0.00096441427 0.00071014825
4.829931e-05 -7.719516e-05 5.0640578e-05 2.571461e-06 -7.0177695e-05 -7.0998154e-05 -4.0549705e-05 5.0216462e-05
5.9116624e-05 -8.1360495e-06 -7.2858315e-06 5.0249466e-05 4.7521065e-05 -0.0002214898 0.00014180466 0.00011548981
-0.00018853942 5.6083598e-05 -3.0228503e-05 4.1269108e-05 -5.2234147e-05 -2.350998e-05 -0.00013633113 -2.7602555e-05
2.3608065e-05 -2.3251014e-05 4.119258e-05 -7.0909344e-05 8.370642e-05 5.369631e-05 8.428438e-05 -7.892014e-05
-0.00096533954 0.00080329226 -0.0009552336 0.00062893867 -1.5440111e-05 0.0015244745 -0.00023463606 -0.000303299
-0.0012841496 -0.00045156735 -0.00034655948 -0.0011146996 -0.000997294 0.00077989907 -0.0004729158 -0.0010115125
0.00083021726 -0.00059033395 -0.00018234873 -0.0004791821 0.00077080005 -0.000565364 0.0009018738 -9.641499e-05
0.0006914961 -0.00034611256 -0.0006379046 0.0005180157 9.557406e-05 -0.0001485006 -0.001383628 0.0015946034
0.0006101167 -0.00043297617 0.00060300855 -0.0004661047 5.7934973e-05 -0.0011055517 0.0001928707 0.00015092183
0.0009180334 0.000338636 0.0002774681 0.00076280214 0.0007534033 -0.00044158078 0.00024358789 0.0005352358
-0.0004687224 0.0003354326 0.00017615955 0.00019810065 -0.00037904 0.00043284195 -0.00049229735 9.089177e-05
-0.00049120135 0.0003045266 0.00040096743 -0.00025673473 -0.000121873505 6.3097636e-05 0.0009419981 -0.0010073407
-0.0006709028 0.00058238226 -0.00074400083 0.0004934525 -5.3594023e-05 0.0010104302 -0.00019666075 -0.00018859164
-0.0010352265 -0.00035830596 -0.00028651 -0.0008864025 -0.00075363275 0.00052518543 -0.00029439531 -0.00065006956
0.00051617523 -0.0004380291 -0.00018709588 -0.00032359178 0.0005286521 -0.0004359894 0.0005980045 -8.119376e-05
0.0005730071 -0.00032136077 -0.00045130748 0.00035323118 0.00010221109 -0.000106588544 -0.0010141699 0.001063933
00000000: 4000 88b8 018b 6e38 0199 0db9 03b5 4539
00000010: c9f5 a7b8 2b38 d339 80b7 f5b8 a21e 30b7
00000020: 7f52 c4b9 2c8e 0eb9 d2be 08b9 1f27 1eb9
00000030: 2da1 a9b8 a80d d336 5b00 8db7 52c0 eab8
00000040: e9ba bc36 a271 f6b7 a5ae d8b8 1ccb 2b38
00000050: 2230 a138 3c9d 42b9 917a d337 50d2 4eb8
00000060: 8574 3b39 851c 23b9 ea5a 3bb8 d926 9fb7
00000070: fee3 c738 7e11 1d33 b44a e1b9 f4d0 3139
00000080: ea9b 22b7 5796 2f38 22b1 8bb8 b124 7f37
00000090: 1d2d 6c36 e626 d538 8e24 8834 b337 88b7
000000a0: a46f 18b8 e205 1eb7 53f1 71b7 33d4 65b8
000000b0: 77e6 c8b8 ad13 b836 354e f0b7 44af f5b7
000000c0: 1980 8f37 3e4a 60b8 6c76 84b4 f197 d636
000000d0: 3fcd bab6 5c61 87b7 43ec 6c38 1798 d9b5
000000e0: acc5 be37 9dae 17b7 74ee 6fb8 01b9 1338
000000f0: 3a2f 81b6 c087 dbb6 7284 9db8 6c44 0f38
00000100: 0f0d 10ba 1c71 b339 2acc 37ba 86b8 0a3a
00000110: f664 e3b8 5948 783a 9926 9bb9 7584 05b9
00000120: ccb1 84ba 4c72 eab9 d404 b5b9 c49b 6aba
00000130: 12bc 76ba 05de c039 929c 24b9 cadf d8b9
00000140: c4c4 9d39 8d87 89b9 a481 7fb9 1f9a 0ab9
00000150: 2cf4 bc39 0c70 00ba 7d5f d239 afa7 fbb8
00000160: ea96 123a 5e3b d3b9 163d a7b9 8cf1 1f39
00000170: fc40 7839 8e44 c6b7 ef33 44ba cd61 443a
00000180: 239c 10ba 7c88 6539 b991 21ba 9521 e939
00000190: 3f55 0ab9 6365 993a 023e 8fb9 ebd6 5eb8
000001a0: 4df7 58ba 7c9a ccb9 5e44 b4b9 6e82 0bba
000001b0: f2f3 31ba 7b97 5039 5b01 a9b8 d6ab c7b9
000001c0: c91f 5439 0ce1 30b9 3fa6 8ab9 2a8e 37b8
000001d0: b943 6439 d8d7 04ba 347c bb39 b837 f0b8
000001e0: a620 053a 495c c6b9 8b72 88b9 4516 ae38
000001f0: f102 7039 eff6 aeb6 bfd0 7cba 3e29 3a3a
00000200: fd94 4a38 d6e3 a1b8 e866 5438 5d91 2c36
00000210: 5d2c 93b8 d8e4 94b8 ea13 2ab8 849f 5238
00000220: fef3 7738 1180 08b7 d178 f4b6 f4c2 5238
00000230: 5b51 4738 b73f 68b9 66b1 1439 1f33 f238
00000240: aab2 45b9 4e3b 6b38 3793 fdb7 5e18 2d38
00000250: fd15 5bb8 4c37 c5b7 1cf4 0eb9 098c e7b7
00000260: ef09 c637 2c0b c3b7 32c6 2c38 2ab5 94b8
00000270: 8b8b af38 f937 6138 d5c1 b038 ed81 a5b8
00000280: d70e 7dba 0894 523a a468 7aba 5cdf 243a
00000290: 6385 81b7 e0d0 c73a a308 76b9 1a04 9fb9
000002a0: e950 a8ba 58c0 ecb9 6db2 b5b9 1d1b 92ba
000002b0: a2b7 82ba 2472 4c3a aff1 f7b9 ba94 84ba
000002c0: f0a2 593a a4c0 1aba dd34 3fb9 bc3a fbb9
000002d0: 840f 4a3a f034 14ba ba6b 6c3a 6732 cab8
000002e0: 8545 353a 7176 b5b9 0e39 27ba 72cb 073a
000002f0: ef6e c838 d4b6 1bb9 da5a b5ba 0302 d13a
00000300: 3df0 1f3a 1401 e3b9 3813 1e3a 845f f4b9
00000310: 34ff 7238 29e8 90ba 563d 4a39 c540 1e39
00000320: 2ea8 703a f48a b139 2379 9139 c9f6 473a
00000330: 0a80 453a f883 e7b9 a06b 7f39 114f 0c3a
00000340: dbbe f5b9 00dd af39 78b7 3839 3db9 4f39
00000350: e3b9 c6b9 10ef e239 840d 01ba 269d be38
00000360: f7c3 00ba dea8 9f39 f038 d239 5a9a 86b9
00000370: 5796 ffb8 4953 8438 6cf0 763a bf08 84ba
00000380: 86df 2fba 03ab 183a 0d09 43ba 095b 013a
00000390: 25ca 60b8 6970 843a b836 4eb9 afc0 45b9
000003a0: 70b0 87ba 03db bbb9 b936 96b9 775d 68ba
000003b0: 708f 45ba 99ac 093a 1259 9ab9 6e69 2aba
000003c0: ef4f 073a 45a7 e5b9 2b2f 44b9 c1a7 a9b9
000003d0: 3e95 0a3a 8295 e4b9 67c3 1c3a 9146 aab8
000003e0: db35 163a 507c a8b9 779d ecb9 e331 b939
000003f0: 295a d638 4a88 dfb8 e5ed 84ba ab73 8b3a
