RNN_Time_series_Anomaly_Detection_LVTN/save/Kitchen_Gas/checkpoint/Kitchen_Gas.pth (torch, 214536 bytes, 35 tensors)

encoder.weight f4 [32, 1]
0	0x3e487198	0.19574583
1	0x3e71bb7f	0.2360668
2	0x3e983555	0.2972819
3	0x3cbdd8df	0.023174701
4	0xbd5071fb	-0.05088995
5	0x3ea0f8db	0.31439862
6	0xbcdc168b	-0.026866218
7	0xbe2ae063	-0.16687159
8	0x3db30c00	0.08742523
9	0xbe9040dd	-0.28174487
10	0x3e67c20b	0.22632615
11	0xbe0698b7	-0.13144194
12	0x3e3eb8ce	0.18625185
13	0xbd510169	-0.051026735
14	0xbe8be6e0	-0.2732458
15	0x3e46ecbb	0.19426243
16	0x3e731f2d	0.23742361
17	0x3e332093	0.17492895
18	0xbe9a46a4	-0.3013202
19	0x3e611090	0.21978974
20	0x3e2867dc	0.16445869
21	0xbc39f618	-0.011350177
22	0xbdfb9524	-0.12284306
23	0x3ea79ac2	0.32735258
24	0x3e6deea0	0.2323556
25	0x3e8351cd	0.25648347
26	0xbe90d84a	-0.28290015
27	0x3e8e55e2	0.27799898
28	0xbe7779c8	-0.2416755
29	0xbe168a10	-0.14701104
30	0xbe01c059	-0.12671031
31	0xbe857c36	-0.26071328

encoder.bias f4 [32]
0	0x3e0feb35	0.14054568
1	0x3f1300e7	0.5742325
2	0x3f07a1b2	0.529811
3	0x3ea69036	0.325319
4	0xbf36a4c8	-0.71345186
5	0x3e81c0d1	0.2534242
6	0xbf0d368f	-0.55161375
7	0x3f18ec84	0.59735894
8	0xbf5f9532	-0.8733703
9	0xbe9a00d4	-0.30078757
10	0x3d6a5460	0.057209373
11	0xbf4cb1e9	-0.7995897
12	0x3f24a76f	0.64317983
13	0x3dd6b718	0.10484141
14	0x3e8bd4c3	0.27310762
15	0xbef9a87a	-0.4876135
16	0xbe174208	-0.14771283
17	0x3eec4e91	0.4615369
18	0xbf5c098b	-0.8595206
19	0x3d996e49	0.07491738
20	0xbf23dde7	-0.6401047
21	0xbdb3c313	-0.08777442
22	0x3d5c5c7f	0.05379915
23	0x3ee66bc0	0.45004082
24	0xbee23999	-0.4418457
25	0xbefe1c67	-0.49631044
26	0x3f033244	0.51248574
27	0x3ea92971	0.3303943
28	0x3e44e058	0.19226205
29	0x3f6e0940	0.92982864
30	0x3f5267fc	0.8218992
31	0x3ea856cb	0.32878718

rnn.weight_ih_l0 f4 [128, 32]
0	0xbc966f15	-0.018363515
1	0xbc9e69bf	-0.019337533
2	0xbdca18a4	-0.09867981
3	0xbd5e5931	-0.05428428
4	0xbd8d3b06	-0.068960235
5	0x3daad3ee	0.08341204
6	0xbe27b95d	-0.16379304
7	0x3dea9b47	0.11455398
8	0xbcfc77c0	-0.03081882
9	0xbd3f4919	-0.04670057
10	0x3e50d169	0.20392384
11	0xbd9b723d	-0.075901486
12	0x3e35562c	0.17708653
13	0x3db218ea	0.08696158
14	0xbda4a151	-0.08038581
15	0xbe18e9b6	-0.14932904
16	0x3daf1a89	0.08549983
17	0x3e0dbd82	0.13841823
18	0xbc9e9464	-0.019357868
19	0x3e436aa1	0.19083644
20	0xbd0bae28	-0.034101635
21	0xbae5d028	-0.0017533349
22	0xbcdad298	-0.026711747
23	0x3d8200a9	0.06347782
24	0xbe18facf	-0.14939426
25	0x3cc00f13	0.023444688
26	0x3d105d2a	0.0352451
27	0x3e26e519	0.16298331
28	0x3c14bd6a	0.009078363
29	0x3e171a38	0.14756095
30	0x3d918593	0.071055554
31	0x3e446b79	0.19181623
32	0x3db2d7d5	0.08732573
33	0xbdba81e2	-0.091068044
34	0x3b6c9a28	0.0036102626
35	0x3db2dce8	0.08733541
36	0xbc42a626	-0.011880433
37	0xbda84cf9	-0.08217806
38	0xbd22b2a3	-0.039721143
39	0x3d4888cc	0.048958585
40	0x3e2bf1cc	0.16791457
41	0x3d5e3894	0.054253176
42	0x3d9e901b	0.0774233
43	0xbdbefb4c	-0.09325275
44	0x3c376e27	0.011195696
45	0xbcb2b32b	-0.02181395
46	0xbe08acde	-0.13347194
47	0xbd1d6819	-0.038429353
48	0x3e22fa16	0.15915713
49	0x3d1e9230	0.038713634
50	0x3d633712	0.05547244
51	0x3d31ce9c	0.04340993
52	0xbcc2feb0	-0.023803085
53	0xba9089c9	-0.0011027391
54	0xbdaab4b0	-0.08335245
55	0x3d43c7b6	0.04779788
56	0x3dfe8e10	0.1242944
57	0xbc48a2de	-0.012245862
58	0xbd75bf70	-0.059997022
59	0x3d9a38dd	0.07530377
60	0xbdf1a91a	-0.11799832
61	0xbd5b4656	-0.053533874
62	0x3d9dd0ef	0.077058665
63	0xbe0a968e	-0.13533995
64	0xbc304160	-0.010757774
65	0x3e109ca7	0.14122258
66	0x3dafb47d	0.08579347
67	0xbdf1eebf	-0.11813115
68	0x3ddfa689	0.10920436
69	0xbda28d6a	-0.07937129
70	0x3b30d077	0.0026979723
71	0xbc1baa6d	-0.009501082
72	0x3b9264d1	0.0044675847
73	0xbdd108b5	-0.10206739
74	0x3cd11de3	0.025526946
75	0x3d469819	0.048484895
76	0x3de37274	0.111058146
77	0xbda29ff8	-0.07940668
78	0x3d105a85	0.035242576
79	0x3dfaaf71	0.12240494
80	0x3e47f5a7	0.19527303
81	0xbdf25a36	-0.118336126
82	0xbbbeb87d	-0.0058203326
83	0x3dd0c874	0.101944834
84	0xbe2fcd42	-0.17168143
85	0xbdbb24b5	-0.09137861
86	0xbce2fc76	-0.027708273
87	0x3df1775e	0.117903456
88	0xbda8d0ed	-0.082429744
89	0xbe2ec46f	-0.17067121
90	0xbdf0103f	-0.11721849
91	0x3dbe021c	0.09277746
92	0x3df1680e	0.11787425
93	0x3d0fa938	0.03507349
94	0x3df3c4e9	0.11902792
95	0xbdd9761b	-0.1061823
96	0xbd82a5b9	-0.06379265
97	0x3b9b084a	0.0047312127
98	0xbc354c40	-0.011065543
99	0x3c657246	0.014004296
100	0xbbf675e6	-0.007521379
101	0x3dd11dc8	0.102107584
102	0x3e100242	0.14063361
103	0xbe3b4bb0	-0.18290591
104	0x3bc927c5	0.006138774
105	0x3dc04502	0.09388162
106	0xbc9349c5	-0.017979512
107	0x3d893966	0.06700401
108	0x3d30fce1	0.043209914
109	0xbddbc23c	-0.10730407
110	0xbd9c9c05	-0.07646946
111	0xbdd39ba9	-0.10332424
112	0xbdceed26	-0.10103826
113	0x3e2904cc	0.16505736
114	0xbd965822	-0.07341029
115	0xbe02d16c	-0.127752
116	0x3d83aec3	0.064298175
117	0xbdf7a234	-0.12091485
118	0x3d526855	0.05136903
119	0xbd3086e9	-0.04309741
120	0x3e123186	0.14276704
121	0x3d5e087b	0.054207306
122	0xbe526f32	-0.2055023
123	0x3df2f394	0.11862865
124	0xbe49d650	-0.1971066
125	0xbd166891	-0.036720816
126	0x3d7aa782	0.061194904
127	0xbe2b14d9	-0.16707171
128	0x3a7c5408	0.0009625559
129	0xbdc05b55	-0.0939242
130	0xbdb6da29	-0.089283295
131	0xbd824ff3	-0.06362905
132	0x3d47d6ab	0.048788708
133	0xbda55882	-0.08073522
134	0xbe0f64c2	-0.1400328
135	0x3e040a51	0.1289456
136	0xbe06d7ee	-0.13168308
137	0x3dd2eb3c	0.10298774
138	0xbe344c30	-0.17607188
139	0xbd946730	-0.07246244
140	0xbe094630	-0.1340568
141	0xbd2b3554	-0.041798905
142	0x3e211082	0.15728953
143	0x3dcbd8b4	0.09953442
144	0xbd0dd9d2	-0.034631558
145	0xbd69234f	-0.05691844
146	0xbdfc97ea	-0.12333663
147	0xbd9e19b0	-0.07719743
148	0xbdf7b349	-0.12094743
149	0xbd04009b	-0.03222714
150	0xbc48bf50	-0.012252644
151	0x3d3886f8	0.04505059
152	0x3dce606f	0.10076987
153	0xbe0a5e1f	-0.13512467
154	0xbc3930e2	-0.0113031585
155	0xbe2ee2b3	-0.17078666
156	0xbd1484c8	-0.036259443
157	0xbdeeaac3	-0.11653664
158	0xbd9d54f5	-0.0768222
159	0x3e04a16e	0.12952206
160	0x3d824f5c	0.06362793
161	0xbca6da1e	-0.020367678
162	0xbddb0009	-0.10693366
163	0x3cacbeae	0.021087017
164	0x3cc0c6a9	0.023532229
165	0x3e393891	0.18087985
166	0xbd8da8b9	-0.06916947
167	0xbdb0b7bc	-0.086287946
168	0x3ba7202a	0.00510027
169	0xbd33c185	-0.043885726
170	0x3db8a4e1	0.09015823
171	0xbdfed567	-0.12443047
172	0x3e1461a8	0.14490378
173	0xbd86c5d1	-0.06580699
174	0xbe4b9645	-0.19881542
175	0xbd5f7233	-0.05455227
176	0x3e0bb9c0	0.13645077
177	0x3e32c131	0.17456509
178	0x3b915db4	0.004436219
179	0x3df3beb6	0.119016096
180	0x3d12e051	0.035858456
181	0xbcf90282	-0.030396704
182	0xbd60607f	-0.054779526
183	0x3cb43f69	0.022002893
184	0xbdddc742	-0.10829021
185	0xbde5a9cc	-0.11214027
186	0xbd7e72c9	-0.062121186
187	0xbcdaf6f4	-0.026729085
188	0xbad7d443	-0.0016466457
189	0x3de5c610	0.11219418
190	0xbd957f5e	-0.07299684
191	0x3aafbf7e	0.001340851
192	0x3dd22170	0.10260284
193	0x3d468842	0.04846979
194	0x3d7041e9	0.058656607
195	0x3dc0f48f	0.09421646
196	0x3e3166b3	0.17324333
197	0xbc0da3a2	-0.00864497
198	0xbcf289cd	-0.029606724
199	0x3de91601	0.1138115
200	0x3da7a810	0.08186352
201	0xbdad63bf	-0.08466291
202	0xbe0ddbaa	-0.13853326
203	0xbc94da1a	-0.018170405
204	0x3dc7264c	0.097241014
205	0x3dc1467f	0.09437274
206	0xbc9775f8	-0.01848887
207	0x3e1fae20	0.15593767
208	0xbe15f2cf	-0.14643405
209	0xbd9097c5	-0.07060198
210	0x3d849973	0.064745806
211	0xbcf309e0	-0.029667795
212	0xbdc77b45	-0.09740309
213	0x3d946b38	0.07247013
214	0xbde61e7a	-0.11236282
215	0xbe460bde	-0.19340464
216	0xbd181889	-0.037132774
217	0xbe0280eb	-0.12744491
218	0x3dbdaccd	0.09261475
219	0xbda06bcc	-0.078330606
220	0x3cd6c299	0.026215838
221	0x3d89d917	0.0673086
222	0xbdf0909f	-0.11746334
223	0x3dd238a0	0.102647066
224	0x3e269fd8	0.16271913
225	0x3c318903	0.010835889
226	0x3d5d4147	0.05401733
227	0xbda9e237	-0.082951
228	0xbb177f0c	-0.0023116497
229	0x3e390a65	0.18070371
230	0x3dc87e41	0.09789706
231	0x3dbd0646	0.09229712
232	0xbe216f7a	-0.15765181
233	0xbda9cdd1	-0.082912095
234	0x3dcf25e7	0.10114651
235	0xbe3d4827	-0.18484555
236	0xbd611865	-0.054954905
237	0xbdb42262	-0.087956205
238	0x3d7abaf8	0.061213464
239	0x3de3746e	0.111061916
240	0xbe0cd924	-0.13754708
241	0x3e1a163f	0.15047549
242	0x3e1416dc	0.14461845
243	0xbde6218e	-0.11236869
244	0xbd58642f	-0.052829918
245	0x3dc17b4d	0.09447346
246	0x3ce23219	0.027611779
247	0x3e30fccb	0.17283933
248	0xbdacffa6	-0.084471986
249	0xbd23b71a	-0.03996954
250	0x3b49d5ee	0.0030797678
251	0x3cab1949	0.02088608
252	0x3d98cf41	0.074614055
253	0xbda33165	-0.07968406
254	0xbd3c08fd	-0.04590701
255	0x3dcb0bfa	0.09914394

rnn.weight_hh_l0 f4 [128, 32]
0	0xbdf49272	-0.11941995
1	0x3daaaf4a	0.08334215
2	0x3df5f512	0.12009634
3	0x3e346db6	0.17619976
4	0xbd5d9196	-0.05409392
5	0x3df11d0c	0.117731184
6	0x3d59ccbc	0.053173766
7	0xbdf4556f	-0.11930358
8	0x3dda3421	0.10654474
9	0x3e106083	0.14099316
10	0x3e07dcef	0.13267873
11	0xbe0bcb1e	-0.13651702
12	0x3e28bd32	0.16478422
13	0x3dba14e2	0.09086014
14	0x3dd674aa	0.10471471
15	0x3c17a17b	0.009254809
16	0xbd4acff4	-0.049514726
17	0x3daaae15	0.08333985
18	0xbb9a7388	-0.0047134794
19	0x3d39f45f	0.045399066
20	0xbdc1c415	-0.09461228
21	0xbbbc6418	-0.005749237
22	0xbd83c3c9	-0.064338274
23	0xbda7d3b1	-0.08194674
24	0x3c9602c6	0.01831187
25	0xbd802239	-0.062565275
26	0x3cc92706	0.02455474
27	0x3db195f8	0.086711824
28	0xbdb26c1c	-0.087120265
29	0x3d0e2953	0.03470738
30	0xbdac2ae3	-0.084066175
31	0xbe191f78	-0.1495341
32	0x3b8d0a72	0.0043042237
33	0xbd56e517	-0.05246457
34	0x3ddb1e91	0.106991895
35	0x3d7ef2b7	0.06224319
36	0x3c26ab5d	0.010172692
37	0x3cd90bf7	0.026494963
38	0xbda0bbd4	-0.07848325
39	0xbdbcdc4a	-0.09221704
40	0xbdd5a35a	-0.104315475
41	0xbbc56094	-0.006023476
42	0x3dbf837e	0.09351252
43	0xbda8540d	-0.082191564
44	0x3d84a8f6	0.06477539
45	0xbd5cac23	-0.0538751
46	0xbaec40ae	-0.0018024647
47	0x3de654eb	0.112466656
48	0x3c65f6f9	0.014035934
49	0xbd80531d	-0.062658526
50	0xbd0456a9	-0.032309208
51	0x3d2cf939	0.042229865
52	0xbb6d7fec	-0.0036239577
53	0xbb2abb56	-0.0026051602
54	0xbcb2ab74	-0.02181027
55	0xbe332b98	-0.17497098
56	0xbba2b28b	-0.0049651316
57	0xbdb2fd0b	-0.0873967
58	0x3d317dff	0.04333305
59	0x3c73df53	0.014884788
60	0x3c718632	0.014741467
61	0xbc28648b	-0.010277878
62	0x3d13ca63	0.036081683
63	0xbe3138c7	-0.17306815
64	0xbdc35c6c	-0.095391124
65	0x3de46a11	0.11153043
66	0x3d9d2a53	0.07674088
67	0x3e402173	0.1876276
68	0x3cb9efb8	0.022697315
69	0x3e0772a7	0.1322733
70	0xbe0cd758	-0.13754022
71	0xbd8fee37	-0.07027858
72	0x3d136366	0.035983466
73	0xbcea7c91	-0.028623851
74	0x3e15208c	0.14563197
75	0xbdc96eaa	-0.098355606
76	0xbd7be8ff	-0.0615015
77	0x3da537bb	0.0806727
78	0x3d5da72a	0.0541145
79	0x3c563493	0.013074058
80	0xbe049537	-0.12947546
81	0xba1db448	-0.00060159387
82	0xbda1552f	-0.078775756
83	0x3e475cc6	0.19468984
84	0x3d49365c	0.049124107
85	0x3cddc883	0.02707315
86	0xbe132ffd	-0.14373775
87	0xbdf36b9f	-0.118857615
88	0xbdd5d3e2	-0.10440804
89	0xbe10df11	-0.14147593
90	0x3d49f313	0.04930408
91	0x3d8a1342	0.067419544
92	0x3dad3c1e	0.08458732
93	0xbdaedcd9	-0.08538217
94	0x3cbc8039	0.02301036
95	0xbd78cb4d	-0.060740758
96	0xbdbc0d01	-0.09182168
97	0xbdcd0923	-0.10011508
98	0x3e42c692	0.19021061
99	0x3e573d09	0.21019377
100	0xbdc97f0e	-0.09838687
101	0xbe405bbf	-0.18784998
102	0x3db62732	0.08894195
103	0x3da9f2b3	0.08298244
104	0xbe3c88a2	-0.18411496
105	0xbe174d9e	-0.14775702
106	0x3df4dcbe	0.11956166
107	0x3e00ad34	0.12566072
108	0xbda94c5d	-0.08266518
109	0xbe1381ab	-0.14404933
110	0x3e07198c	0.13193339
111	0xbe2fe629	-0.17177643
112	0xbe42d013	-0.19024687
113	0xbdbb608b	-0.091492735
114	0x3e3dad5c	0.18523163
115	0x3c2bcb2a	0.01048545
116	0x3d596eb1	0.05308408
117	0x3db04615	0.08607117
118	0xbdbd8f70	-0.09255874
119	0xbd119bf1	-0.035549108
120	0xbd189169	-0.03724805
121	0x3d84bd9f	0.0648148
122	0x3e190818	0.14944494
123	0xbd9bfbff	-0.07616424
124	0x3dafdd0b	0.085870825
125	0x3cda0944	0.026615746
126	0x3dc8c88a	0.09803875
127	0xbe359224	-0.1773153
128	0xbde5ea47	-0.112263255
129	0xbdeb5e36	-0.11492579
130	0xbd1d189d	-0.03835355
131	0xbdfa0368	-0.12207681
132	0xbd275076	-0.040848218
133	0xbd923186	-0.07138352
134	0xbd900c58	-0.070336044
135	0x3d6a501c	0.057205305
136	0xbde5be28	-0.1121791
137	0x3c637b4f	0.0138843795
138	0x3d98e0df	0.07464766
139	0x3da06fb6	0.07833807
140	0x3d14a654	0.036291435
141	0xbdfe6fdc	-0.12423679
142	0x3d878b2d	0.066183425
143	0xbdf17372	-0.117895976
144	0xba13b7f1	-0.00056350144
145	0xbbc54524	-0.006020205
146	0xbc8042b0	-0.0156568
147	0x3de35cf1	0.111017115
148	0xbd16f58b	-0.03685526
149	0x3cfa0b01	0.030522825
150	0x3dd9da23	0.106373094
151	0xbcdf2a80	-0.027241945
152	0xbdac5872	-0.08415307
153	0x3bc36ad5	0.005963663
154	0xbcb03a1f	-0.02151209
155	0xbe2c0b84	-0.16801268
156	0x3d8af702	0.06785394
157	0xbe05d4d8	-0.13069475
158	0xbc16b4f2	-0.009198414
159	0x3dacb14f	0.084322564
160	0x3dcb515a	0.09927626
161	0xbd15be81	-0.03655863
162	0xbd85ff5c	-0.065428466
163	0x3e41d65a	0.18929425
164	0xbd192a53	-0.03739388
165	0x3db179e2	0.086658254
166	0x3d6b069a	0.057379343
167	0xbdffd996	-0.12492673
168	0xbe139b5a	-0.1441473
169	0x3deca82b	0.11555513
170	0xbdae160e	-0.085003
171	0xbd437ef2	-0.047728486
172	0x3de92c00	0.113853455
173	0x3d5b750f	0.053578433
174	0xbcf7e065	-0.030258367
175	0xbc9bf548	-0.019037858
176	0xbdb81fca	-0.08990438
177	0x3d6b5b4d	0.057460118
178	0xbd649d6a	-0.055814184
179	0x3e29f232	0.16596296
180	0x3c9ed90f	0.019390611
181	0x3cd2eb19	0.025746869
182	0xbd04a21d	-0.032381166
183	0xbdc767b3	-0.09736576
184	0xbdbf03f2	-0.093269244
185	0x3b7d21c5	0.0038624865
186	0x3e0bfc66	0.13670501
187	0xbbb32192	-0.0054666484
188	0xbd1671a7	-0.03672948
189	0xbc3f0ce6	-0.01166079
190	0x3b36aa1f	0.0027872396
191	0xbcc6a183	-0.024246937
192	0xbbae43cc	-0.0053181406
193	0x3e0d39c3	0.13791566
194	0x3e4399e5	0.19101675
195	0xbdb14d02	-0.08657266
196	0x3e3bf93e	0.18356797
197	0xbe014f83	-0.12627988
198	0xbd88db00	-0.06682396
199	0x3dd44914	0.10365501
200	0x3a22c1dc	0.0006208697
201	0xbdcd1d48	-0.100153506
202	0xbb673096	-0.0035276762
203	0x3d56c692	0.052435465
204	0xbd9736e2	-0.07383515
205	0xbdd30f13	-0.103056096
206	0xbd387ae4	-0.045039073
207	0x3e07e3a4	0.13270432
208	0xbd785fc3	-0.0606382
209	0xbcb425d3	-0.021990692
210	0xbd574dab	-0.052564304
211	0x3b286c53	0.0025699332
212	0xbcad36f2	-0.021144364
213	0x3dfe5bef	0.12419879
214	0xbdb7465b	-0.08948966
215	0xbe201cdc	-0.15636009
216	0x3d75fa1c	0.060052976
217	0x3d9e7128	0.077364266
218	0x3dfb2613	0.122631215
219	0x3e42dc62	0.19029382
220	0x3dd5f2db	0.10446712
221	0x3d8b89c3	0.06813385
222	0xbe0392c1	-0.12848951
223	0xbe446066	-0.19177398
224	0x3d8f8e96	0.07009618
225	0xbe06267a	-0.13100615
226	0x3d57a974	0.052651837
227	0x3d1c30f1	0.03813261
228	0xbd8fac4e	-0.070152864
229	0xbba646c1	-0.0050743525
230	0x3e12e0f0	0.1434362
231	0xbe276bf9	-0.16349782
232	0x3db0b9cc	0.08629188
233	0x3dc4f14a	0.09616335
234	0xbceef8d0	-0.029171377
235	0x3d9184fd	0.071054436
236	0xbce73866	-0.028225135
237	0xbd4fe446	-0.050754808
238	0x3df4dbd2	0.1195599
239	0xbd095837	-0.033531394
240	0x3def3e2c	0.1168178
241	0xbd4a4e7e	-0.049391262
242	0xbd8e2d72	-0.06942262
243	0xbe22307f	-0.15838812
244	0x3bb15ecc	0.005412912
245	0xbd278d56	-0.040906273
246	0xbe1fbb50	-0.15598798
247	0x3d8c53aa	0.06851895
248	0x3e25b26a	0.16181341
249	0x3c58c212	0.013229864
250	0xbb456271	-0.003011849
251	0x3daf393c	0.085558385
252	0x3df375f4	0.11887732
253	0xbd8a50e8	-0.06753713
254	0x3e2237b9	0.15841569
255	0xbcf65b69	-0.030072885

rnn.bias_ih_l0 f4 [128]
0	0xbdeeef0b	-0.116666876
1	0xbd34e253	-0.044161152
2	0xbe0328a6	-0.12808475
3	0x3dd6e38d	0.104926206
4	0x3dc8d636	0.098064825
5	0xbc880449	-0.016603606
6	0xbd7b0b34	-0.06128998
7	0xbd0087ca	-0.0313795
8	0x3d300ce9	0.042981062
9	0xbc2657c0	-0.010152757
10	0x3deb4b05	0.11488918
11	0xbd7ee0ff	-0.06222629
12	0xbd41afcc	-0.047286794
13	0xbdff82da	-0.1247613
14	0xbe133c91	-0.14378573
15	0xbe2d83f6	-0.1694487
16	0xbd54bdff	-0.051939007
17	0xbda56004	-0.08074954
18	0x3e203967	0.15646897
19	0x3e2a44d6	0.16627821
20	0xbd4d8d9d	-0.05018388
21	0xbe214997	-0.15750729
22	0x3dc8e9f9	0.09810252
23	0xbda01efa	-0.07818408
24	0xbd21d759	-0.039512012
25	0x3c67bc9d	0.01414409
26	0x3dba1212	0.09085478
27	0xbd62bcbe	-0.05535578
28	0xbe149ff8	-0.14514148
29	0x3d0beb7e	0.03416013
30	0xbbcbed60	-0.0062233657
31	0x3c1c4547	0.009538001
32	0xbd57c5fc	-0.052679047
33	0x3db56191	0.088565
34	0x3db92d00	0.09041786
35	0x3e4ccc4a	0.19999805
36	0xbe16eccc	-0.14738768
37	0xbdac35c9	-0.08408696
38	0xbdc59038	-0.09646648
39	0x3e0c3ab6	0.13694271
40	0x3e13e217	0.14441715
41	0x3e1982ba	0.14991274
42	0xbdc73f4f	-0.09728872
43	0xbdd65305	-0.104650535
44	0xbdf542d9	-0.11975641
45	0xbdc6c98b	-0.0970641
46	0x3e18a2d8	0.1490587
47	0x3c895f62	0.016769115
48	0x3dfdcc0b	0.12392434
49	0xbe1a9b58	-0.15098321
50	0xbd876713	-0.06611457
51	0xbdf62861	-0.120194204
52	0x3d7e2215	0.062044222
53	0xbd92fbaf	-0.07176911
54	0x3e349701	0.17635728
55	0x3e3886d7	0.18020187
56	0xbc18f66c	-0.009336095
57	0x3e1a9e34	0.15099412
58	0x3c0e9e2d	0.008704704
59	0xbdb30f90	-0.08743203
60	0x3d68d2fc	0.056841835
61	0x3da74e33	0.08169212
62	0x3d7c9f66	0.06167545
63	0x3e24949d	0.16072316
64	0xbe1aee88	-0.15130055
65	0x3e04c75c	0.12966675
66	0x3caa8bcc	0.020818613
67	0xbd112c5e	-0.035442702
68	0xbde3bc1b	-0.11119863
69	0xbbf94fea	-0.0076084035
70	0xbdfdda0d	-0.123951055
71	0x3d920464	0.07129744
72	0xbd6fa90f	-0.058510836
73	0x3deaa137	0.114565305
74	0x3bf63e6c	0.0075147655
75	0x3ddd8a56	0.10817401
76	0xbd8e8e8a	-0.06960781
77	0x3d5dac3b	0.05411933
78	0x3df6f455	0.120583214
79	0x3d70f9fe	0.05883216
80	0x3d9f65d2	0.077830926
81	0x3e1545c5	0.14577396
82	0x3d318285	0.043337364
83	0xbd7bf026	-0.06150832
84	0xbc619065	-0.0137673365
85	0xbdb633e6	-0.088966176
86	0x3d80afc1	0.062835224
87	0xbd53acc6	-0.05167844
88	0x3da4c259	0.080448814
89	0x3db19660	0.0867126
90	0x3db3eda9	0.087855645
91	0x3dea4293	0.11438479
92	0xbd512617	-0.051061716
93	0x3d9b37b0	0.07578981
94	0xbe283be8	-0.16429102
95	0xbb6f00e7	-0.0036469044
96	0xbd80189a	-0.062546924
97	0x3b1259df	0.00223314
98	0x3e41face	0.1894333
99	0x3dde5f34	0.10858002
100	0xbdd1eb7c	-0.10249993
101	0x3d6604a4	0.05615677
102	0x3de6e432	0.112739936
103	0x3e2b8697	0.1675056
104	0x3e2ba5a8	0.16762412
105	0xbd2362db	-0.039889198
106	0xbdaf703d	-0.0856633
107	0x3d8bdb12	0.06828894
108	0x3d16efa5	0.036849637
109	0x3e34c224	0.17652184
110	0x3c0a59ce	0.008444263
111	0xbdb2457c	-0.08704659
112	0xbbd86e5f	-0.006604954
113	0x3b67008f	0.0035248136
114	0xbd3c1dc1	-0.045926813
115	0x3debcefc	0.115140885
116	0x3d80dac0	0.06291723
117	0x3c52c886	0.012865191
118	0xbd7eb2cc	-0.062182233
119	0x3e49056c	0.19630975
120	0xbdc44d1a	-0.095850185
121	0xbde190a9	-0.1101392
122	0xbda20f56	-0.07913081
123	0x3d53d998	0.051721185
124	0x3d13ddde	0.03610026
125	0xbdfd1089	-0.123566695
126	0x3d317c54	0.04333146
127	0xbdb686e8	-0.0891245

rnn.bias_hh_l0 f4 [128]
0	0x3d4bd8ec	0.04976742
1	0x3d7f488a	0.062325038
2	0xbd1dbe26	-0.038511418
3	0x3c4de326	0.012566363
4	0xbe07af07	-0.13250361
5	0xbd3dadbb	-0.04630826
6	0x3dd2eb52	0.1029879
7	0xbdfb248a	-0.12262829
8	0x3e10da30	0.14145732
9	0xbdb12b38	-0.086508214
10	0xbde53e99	-0.1119358
11	0xbe19a819	-0.1500553
12	0x3c0b045a	0.008484924
13	0xbc68e967	-0.014215804
14	0x3e239b69	0.15977253
15	0x3c127d8b	0.008941065
16	0xbcd191c1	-0.025582196
17	0xbd1c7665	-0.038198847
18	0x3e216496	0.15761027
19	0x3e27a59c	0.16371769
20	0xbdc03de1	-0.093868025
21	0xbe17d664	-0.14827877
22	0xbdcc0ca5	-0.09963349
23	0xbd8d9b47	-0.069143824
24	0x3dc8a758	0.09797543
25	0xbe0e3296	-0.13886485
26	0x3d70414e	0.05865603
27	0xbdab5a67	-0.08366852
28	0xbd08caea	-0.03339664
29	0xbd8a4569	-0.0675152
30	0x3dbbdc67	0.09172898
31	0x3d831579	0.0640058
32	0x3ddd68b6	0.10810988
33	0x3e1f89f2	0.15579966
34	0xbd672101	-0.05642796
35	0x3e2c30c5	0.16815479
36	0xbd34dc9e	-0.04415571
37	0xbd5255d9	-0.051351402
38	0xbbb38c4a	-0.0054793702
39	0x3e167103	0.14691548
40	0x3e0554e7	0.13020669
41	0xbbcefd88	-0.0063168444
42	0x3e4c758c	0.19966716
43	0xbde92cc7	-0.11385494
44	0x3e0d6cee	0.13811085
45	0xbdb64345	-0.088995494
46	0x3e252b03	0.16129689
47	0x3daf72c9	0.085668154
48	0xbd845bd7	-0.064628296
49	0xbbf76c03	-0.007550718
50	0x3e1ce838	0.1532296
51	0xbdb817bd	-0.08988903
52	0xbd73fdaa	-0.059568085
53	0xbe201f43	-0.15636925
54	0x3dcc3fa5	0.09973077
55	0xbdc19fe7	-0.09454327
56	0xbd430124	-0.04760851
57	0x3d4663bc	0.048434958
58	0xbd922d15	-0.07137505
59	0xbcdf7867	-0.027279092
60	0x3d73a132	0.0594799
61	0x3dad3440	0.084572315
62	0xbd112a60	-0.035440803
63	0x3cabd982	0.02097774
64	0xbdb3d14b	-0.08780154
65	0x3da230cc	0.079194635
66	0x3e0a053d	0.13478561
67	0x3e174a13	0.14774351
68	0x3c6a3d2e	0.014296813
69	0xbd2e3c8c	-0.04253821
70	0x3b3e73ee	0.0029060799
71	0x3bc29b8a	0.005938952
72	0xbd9500ec	-0.072755665
73	0xbdadaee4	-0.08480623
74	0xbe2f3c58	-0.17112863
75	0x3e07e2a9	0.13270058
76	0x3d8ce590	0.06879723
77	0x3d4ed530	0.05049628
78	0xbd7a0a4a	-0.06104497
79	0x3d6baa50	0.05753547
80	0x3ca7fc48	0.02050604
81	0x3c8ca125	0.017166683
82	0xbe0e0c31	-0.13871838
83	0x3dfb00ae	0.12255989
84	0x3e178d08	0.14799893
85	0xbe231496	-0.15925822
86	0x3d9ffdd2	0.07812084
87	0xbd2c9685	-0.042135734
88	0xbe2b4f4e	-0.16729471
89	0x3dbaee19	0.09127445
90	0xbd2a820c	-0.04162793
91	0x3dac1432	0.084022895
92	0xbdc0cf2c	-0.09414515
93	0xbdfbc72a	-0.12293847
94	0x3e1bbf83	0.15209775
95	0x3be1e18f	0.0068933438
96	0x3d26f2d4	0.040758923
97	0xbdd233ef	-0.10263812
98	0x3c56c609	0.013108739
99	0x3d928e3a	0.07156034
100	0xbd789195	-0.060685713
101	0x3daa2772	0.08308305
102	0x3dde7d07	0.10863691
103	0x3e189f11	0.14904429
104	0xbdc995eb	-0.09843048
105	0x3e13fb2c	0.14451283
106	0x3da18b1a	0.0788786
107	0x3e2fa3ae	0.17152283
108	0x3d543105	0.05180456
109	0x3e2012ca	0.15632167
110	0x3d92972e	0.071577415
111	0x3e00994f	0.12558483
112	0x3e209149	0.15680422
113	0x3b697885	0.0035624814
114	0x3c74051f	0.014893799
115	0x3e27a2b2	0.16370657
116	0xbdb0fcba	-0.08641954
117	0x3c0de092	0.008659499
118	0xbc9f0b7d	-0.019414658
119	0x3e0c2f50	0.13689923
120	0xbd80b8be	-0.06285237
121	0x3e306a80	0.17228127
122	0x3e23e10e	0.1600382
123	0x3e3c365b	0.1838011
124	0xbda06040	-0.07830858
125	0x3db53193	0.08847346
126	0xbd2944d6	-0.041325413
127	0x3e4ccd3c	0.20000166

rnn.weight_ih_l1 f4 [128, 32]
0	0x3d56cbb2	0.052440353
1	0x3d8ebfc0	0.06970167
2	0x3dae5268	0.085118115
3	0x3d8aefad	0.06783996
4	0x3cb6fe20	0.022337973
5	0x3d9812b4	0.07425442
6	0x3db40a93	0.08791079
7	0xbdf522d8	-0.119695365
8	0xbd530d3c	-0.051526293
9	0xbd949a52	-0.07255997
10	0x3e003e34	0.12523729
11	0xbce67340	-0.028131127
12	0x3e56870d	0.20949955
13	0x3de7c1d1	0.113162644
14	0xbd8ac5ea	-0.0677603
15	0x3dcc8aa3	0.0998738
16	0x3d90161f	0.07035469
17	0x3dd2351d	0.10264037
18	0x3db36b42	0.08760692
19	0x3e50be4f	0.20385097
20	0x3e130d04	0.14360434
21	0x3d3273e7	0.043567564
22	0xbcd7a4a5	-0.026323626
23	0x3e1e3446	0.15449628
24	0x3be00b44	0.0068372805
25	0x3dcdf498	0.10056418
26	0x3df9a2f9	0.12189288
27	0x3e4d93f0	0.20075965
28	0x3db9a7a2	0.090651765
29	0xbe05bf66	-0.13061294
30	0xbda7e345	-0.08197645
31	0x3dd0af87	0.10189729
32	0xbd8e4268	-0.0694626
33	0xbae6095f	-0.00175504
34	0x3e06c754	0.13161975
35	0xbd8fd645	-0.070232905
36	0x3d89a672	0.067212
37	0x3e42e9f6	0.19034562
38	0x3d10ef16	0.03538426
39	0xbccc2ceb	-0.024923762
40	0xbdfc2a48	-0.12312752
41	0x3c64f20d	0.013973725
42	0x3dd232a3	0.102635644
43	0xbd988546	-0.07447295
44	0x3d15155b	0.03639732
45	0xbd84abf2	-0.064781085
46	0x3d69a0a9	0.057037983
47	0xbd3ee031	-0.046600524
48	0x3d1d4445	0.038395185
49	0x3dc8adf7	0.09798806
50	0xbd6cd953	-0.057824444
51	0x3e156789	0.14590277
52	0x3daf3bb9	0.08556313
53	0xbce77b14	-0.02825693
54	0x3c3e3434	0.011609126
55	0xbe026868	-0.1273514
56	0xbdbec07c	-0.09314057
57	0x3d02e90e	0.03196054
58	0xbd169241	-0.036760572
59	0xbd9dd777	-0.07707112
60	0xbe180bc1	-0.14848234
61	0x3c2361af	0.00997202
62	0x3c0f403f	0.008743345
63	0xbd9e5685	-0.07731346
64	0xbe0fccea	-0.14043012
65	0x3e1553f9	0.14582814
66	0x3c74fd8e	0.01495303
67	0xbd1f5c52	-0.038906403
68	0x3ddb02f1	0.106939204
69	0xbda0c383	-0.07849791
70	0x3dea790e	0.114488706
71	0xbdfc480c	-0.12318429
72	0xbcf54814	-0.029941596
73	0xbd8c10c0	-0.06839132
74	0x3df593fa	0.11991115
75	0xbda4b63a	-0.080425695
76	0x3e3ce0f5	0.1844519
77	0xbd07c67b	-0.03314827
78	0xbd8248e3	-0.06361558
79	0x3dfe6b14	0.12422767
80	0x3dc3727f	0.09543323
81	0x3d02925d	0.031877864
82	0xbbb7cd5e	-0.0056091985
83	0x3c017e0a	0.007903585
84	0x3d1a5365	0.037677187
85	0x3d9efb9b	0.07762834
86	0xbce1c1a0	-0.027558148
87	0xbd44bc1c	-0.048030958
88	0xbcaed4f4	-0.021341778
89	0xbe272de3	-0.16326098
90	0x3de87f53	0.1135241
91	0x3ddacb41	0.10683299
92	0xbdb36b9c	-0.08760759
93	0xbd4fca3f	-0.050729986
94	0x3def25ba	0.11677118
95	0x3df493af	0.11942231
96	0x3c502dbb	0.0127062155
97	0xbc9f6c01	-0.01946068
98	0xbb353280	-0.0027648509
99	0x3c70d4d0	0.014699176
100	0xbd789efb	-0.06069849
101	0x3d476bdb	0.048686843
102	0xbc25b0e3	-0.010112974
103	0xbce51936	-0.027966123
104	0xbd0d010a	-0.03442482
105	0x3d2de7ab	0.042457264
106	0xbd0c2447	-0.034214284
107	0xbcc23973	-0.023709035
108	0x3b903e25	0.0044019395
109	0x3d1ec45f	0.038761493
110	0xbcdaba27	-0.026700092
111	0x3d25fd96	0.04052504
112	0xbdb840d2	-0.089967385
113	0x3cd18110	0.025574237
114	0xbcb1b4ba	-0.021692622
115	0xbd216772	-0.039405294
116	0xbd9b5588	-0.07584673
117	0xbcef6351	-0.029222162
118	0xbd6696fd	-0.056296337
119	0xbd0bd35f	-0.034137126
120	0xbc969b35	-0.018384555
121	0xbcf6e574	-0.030138709
122	0xbd725498	-0.059162706
123	0xbc8ab898	-0.016933724
124	0xbd35dca2	-0.044399865
125	0xbc87dfb4	-0.016586162
126	0xbcba53be	-0.02274501
127	0xbda6efa7	-0.08151179
128	0x3d618c6b	0.055065554
129	0x3cca0e59	0.024665045
130	0x3e1d4fdd	0.15362497
131	0xbc903540	-0.017603517
132	0x3d3e76ea	0.046500124
133	0x3dbafd7e	0.09130381
134	0xbcc83522	-0.024439398
135	0x3e006fdb	0.1254267
136	0xbcb739cd	-0.022366429
137	0x3d3a68c3	0.045510065
138	0x3e0cabf5	0.13737471
139	0xbdcebb32	-0.100942984
140	0x3dbd7ae9	0.09251959
141	0xbdddeb0b	-0.108358465
142	0x3cf793ec	0.030221902
143	0x3d524438	0.05133459
144	0xbe288c50	-0.16459775
145	0x3e14a6bc	0.14516729
146	0xbd9a60c1	-0.075379856
147	0x3e10e33b	0.14149182
148	0x3dfdbce1	0.123895414
149	0xbccb8428	-0.02484329
150	0xbdab5d49	-0.08367402
151	0xbdf7f2ba	-0.12106843
152	0xbd116141	-0.03549314
153	0xbdafe15a	-0.08587904
154	0xbc61a74e	-0.013772799
155	0xbcd43f36	-0.025909048
156	0xbcd16b3e	-0.025563832
157	0xbdc8b256	-0.0979964
158	0x3df7e627	0.12104445
159	0xbe0a4b5d	-0.13505311
160	0xbe3ca0c6	-0.18420705
161	0x3e343e23	0.17601828
162	0x3dea0d06	0.11428265
163	0x3e1c72e5	0.15278204
164	0xbd473546	-0.04863479
165	0xbdd1ac36	-0.10237925
166	0x3d469082	0.048477657
167	0x3dd27018	0.102752864
168	0x3d18282e	0.037147693
169	0x3c9a3d05	0.018827925
170	0xbb2b98ef	-0.0026183685
171	0xbdb6a2a8	-0.08917743
172	0x3db1db40	0.08684397
173	0x3d1ff48c	0.039051577
174	0xbd144416	-0.036197744
175	0x3db4522e	0.08804737
176	0xbd4f6c9a	-0.05064068
177	0xbc85c3e7	-0.016328765
178	0xbdc87782	-0.09788419
179	0xbc70e903	-0.014703992
180	0x3dcad4a1	0.09903837
181	0x3d327e9b	0.04357777
182	0xbd96f0a6	-0.07370119
183	0xbd3bf6e9	-0.04588977
184	0xbdeaed3a	-0.114710286
185	0x3a094ec3	0.00052378717
186	0xbdea2d82	-0.11434461
187	0x3d308292	0.04309327
188	0xbe1afa4a	-0.1513454
189	0x3d8279a8	0.0637086
190	0xbcb17e91	-0.021666797
191	0x3d143a24	0.03618826
192	0xbdb91bb0	-0.09038484
193	0x3d8cb2f7	0.06870072
194	0x3e44796c	0.19186944
195	0xbc994bb5	-0.018712858
196	0xbccd1321	-0.025033535
197	0x3dc45713	0.095869206
198	0x3e105b17	0.14097248
199	0xbe2b22bb	-0.16712467
200	0x3d93d5fe	0.0721855
201	0xbcd3fdad	-0.025877798
202	0xbca17f93	-0.019714152
203	0x3b75092e	0.0037389505
204	0x3dd185b1	0.10230578
205	0xbd34b970	-0.04412216
206	0x3c827080	0.015922785
207	0xba619276	-0.0008604893
208	0xbbd925f5	-0.0066268393
209	0x3df47e6f	0.11938178
210	0xbd174e3f	-0.036939856
211	0xbb534d8d	-0.0032242269
212	0x3e3bbd11	0.18333842
213	0xbd4ef7eb	-0.0505294
214	0xbe0d3715	-0.13790543
215	0x3df732da	0.12070246
216	0xbdc616ae	-0.096722946
217	0x3dd1cbcb	0.102439485
218	0x3e32e9a1	0.17471935
219	0xbcfb1e94	-0.03065423
220	0xbda100f9	-0.07861514
221	0x3d58ad71	0.05289978
222	0x3e1cd208	0.15314496
223	0xbe03dcaf	-0.12877153
224	0xbd0a0397	-0.03369483
225	0x3e3a1670	0.18172622
226	0x3e527c4f	0.20555232
227	0x3e0a119e	0.13483283
228	0x3d79cc38	0.060985774
229	0x3d08bf12	0.033385344
230	0xbb9f84c5	-0.0048681223
231	0xbcf229a6	-0.029560875
232	0xbd145c07	-0.036220577
233	0xbc9da807	-0.01924516
234	0x3e499f1a	0.19689599
235	0xbc319a6e	-0.010840042
236	0x3e68bebf	0.22729014
237	0x3e038b13	0.12846021
238	0xbcdff42a	-0.027338106
239	0x3dbd8794	0.09254375
240	0xbe821506	-0.25406665
241	0x3dbfe1dc	0.09369251
242	0x3d69d05e	0.05708348
243	0x3cfb27af	0.030658571
244	0xbd82bcb0	-0.063836455
245	0xbda503f7	-0.08057397
246	0x3cb5ad01	0.022177221
247	0x3d7ad113	0.061234545
248	0xbd980358	-0.07422513
249	0x3e1b01e1	0.15137435
250	0x3dd30156	0.10302989
251	0x3dcf804b	0.10131892
252	0xbd350048	-0.04418972
253	0xbe5c67ce	-0.21523973
254	0x3d36139e	0.044452302
255	0xbe23e759	-0.16006221

rnn.weight_hh_l1 f4 [128, 32]
0	0xbcf32f14	-0.029685535
1	0xbe3bb296	-0.18329844
2	0x3e21404e	0.15747187
3	0x3dca1989	0.09868152
4	0xbd9530f5	-0.072847284
5	0x3df6007f	0.12011813
6	0x3ddd4977	0.10805028
7	0xbe178c7a	-0.14799681
8	0x3e42b48f	0.1901419
9	0xbd65e0f9	-0.056122754
10	0x3e52620d	0.20545216
11	0xb9ef79ee	-0.00045676477
12	0xbe6bda6b	-0.23032539
13	0x3d452f1a	0.048140623
14	0x3d9eac42	0.07747699
15	0xbd0c3cff	-0.034237858
16	0x3d8512a3	0.06497695
17	0x3d693ec5	0.056944627
18	0xbe56bd97	-0.2097076
19	0x3e2a7f52	0.16650131
20	0xbdc62733	-0.096754454
21	0x3e7ceda1	0.24700023
22	0x3d8a3d43	0.06749966
23	0x3d7b9c3a	0.061428286
24	0xbc377dd5	-0.011199434
25	0xbe2faec5	-0.17156513
26	0x3e467bca	0.1938316
27	0xbdd29598	-0.10282439
28	0xbd621938	-0.05519983
29	0x3d66f871	0.056389276
30	0xbe0227b9	-0.12710465
31	0x3d57fcf4	0.05273147
32	0x3da98739	0.08277745
33	0x3cf62e6a	0.030051429
34	0x3dab64c2	0.083688274
35	0x3d9bb295	0.07602421
36	0x3e010137	0.1259812
37	0xbcbd7746	-0.023128163
38	0xbdf6ca78	-0.120503366
39	0x3df2012d	0.118166305
40	0xbd60da4e	-0.05489569
41	0x3d62fa86	0.0554147
42	0x3c0303f5	0.007996549
43	0x3e0073b5	0.12544139
44	0xbd8a81f0	-0.06763065
45	0xbd290984	-0.04126884
46	0x3cc52168	0.02406378
47	0x3e09a891	0.13443209
48	0xbdd14ad5	-0.10219351
49	0xbe110c3d	-0.14164825
50	0x3d3496ba	0.044089057
51	0x3d3bafcc	0.04582195
52	0x3d993316	0.07480447
53	0x3c6da343	0.014504257
54	0x3ce76758	0.02824752
55	0xbd64b8a3	-0.055840146
56	0xbc0313e7	-0.008000351
57	0xbd4afc89	-0.049557243
58	0xbdeec5f3	-0.116588496
59	0xbc0c2b8f	-0.008555307
60	0xbc071b34	-0.008246232
61	0x3d2b4f70	0.041823804
62	0xbd24fcc0	-0.040280104
63	0xbd2ab474	-0.041676
64	0x3e1122c0	0.14173412
65	0x3d360648	0.044439584
66	0xbd9e7e1f	-0.077388994
67	0x3dc74c9e	0.097314104
68	0x3dcdbca0	0.10045743
69	0x3ddfeab5	0.10933439
70	0x3d2b6def	0.041852888
71	0xbd9e910e	-0.07742511
72	0xbe0430be	-0.12909219
73	0x3df98dfd	0.12185285
74	0x3d8509f1	0.06496037
75	0xbda84547	-0.082163386
76	0xbe05d676	-0.13070092
77	0x3c8f1679	0.01746677
78	0x3e087fcb	0.13329999
79	0xbd3ca9ab	-0.046060245
80	0x3bfd5fa3	0.007732348
81	0x3d1c93d6	0.038226925
82	0xbe15568a	-0.14583793
83	0x3d9127ad	0.07087646
84	0x3d1f98e0	0.038964152
85	0x3d36dee9	0.044646177
86	0xbd935fbb	-0.071959935
87	0xbd88f080	-0.06686497
88	0xbddea873	-0.10871973
89	0x3d2cd878	0.04219863
90	0xbca8e562	-0.02061719
91	0xbd3c740f	-0.04600912
92	0x3bc068e7	0.0058718803
93	0x3d8fe858	0.07026738
94	0xbc3aa1a2	-0.011391075
95	0x3d5f748a	0.0545545
96	0x3d0c274d	0.034217168
97	0x3c5fa91a	0.013651157
98	0xbd10eb5e	-0.035380714
99	0x3b07a641	0.002069846
100	0xbc4e266f	-0.0125824055
101	0xbc0aab00	-0.008463621
102	0xbd6f8244	-0.05847384
103	0xbc006053	-0.0078354655
104	0xbbf4bf8e	-0.007469124
105	0x3d0a6c08	0.033794433
106	0xbc191770	-0.009343967
107	0x3d3b6eb6	0.04575988
108	0x3cd50b28	0.026006296
109	0x3bde0f74	0.0067767445
110	0xbd4c93c4	-0.049945608
111	0x3cae1415	0.02124981
112	0xbc7bdf34	-0.01537304
113	0x3ca5390f	0.02016881
114	0x3b05df07	0.0020427124
115	0x3a6926aa	0.0008894006
116	0x3d0e7ef8	0.034789056
117	0xbcc26d02	-0.02373362
118	0x3cad01bc	0.021118991
119	0xbb8e30fa	-0.0043393346
120	0xbd87ab72	-0.066244975
121	0x3d849ab3	0.06474819
122	0x3b030ea5	0.0019997742
123	0xbc06c789	-0.008226284
124	0x3bf3aa33	0.007436061
125	0xbbed9e81	-0.007251561
126	0x3cdeba5e	0.027188476
127	0x3c942720	0.018085063
128	0x3d98eb83	0.07466795
129	0xbde8d15e	-0.113680586
130	0xbe02682f	-0.12735055
131	0xbd43c2d9	-0.047793243
132	0x3df8b336	0.12143557
133	0x3df74b7f	0.120749466
134	0x3cf990b1	0.030464502
135	0x3df4217d	0.1192045
136	0xbdd08f79	-0.10183615
137	0x3dbbf1ee	0.09177004
138	0x3e038549	0.12843813
139	0xbdd7d879	-0.10539336
140	0xbd41e5a1	-0.04733813
141	0xbde383d9	-0.11109132
142	0x3b914250	0.004432954
143	0xbcef4b18	-0.029210612
144	0xbd8cdb61	-0.06877781
145	0xbda6478b	-0.081191145
146	0xbd8717e1	-0.065963514
147	0xbcac3326	-0.021020483
148	0x3d7295f6	0.059225045
149	0x3e20b97b	0.15695755
150	0x3cd4e01c	0.02598577
151	0xbd7e899c	-0.062142953
152	0xbde0793b	-0.10960623
153	0x3e043e61	0.1291442
154	0x3dd66730	0.104689
155	0xbdec4a9d	-0.11537669
156	0xbde422b2	-0.1113943
157	0x3c86f299	0.016473101
158	0x3d49a0d2	0.049225636
159	0x3d844de0	0.06460166
160	0xbcd2ae1d	-0.02571779
161	0xbe01ce26	-0.12676296
162	0xbb58672c	-0.003302048
163	0x3d852c4e	0.06502591
164	0x3c57d957	0.013174376
165	0xbd7ecd2e	-0.062207393
166	0xbd0cdef4	-0.034392312
167	0xbdb49383	-0.08817198
168	0x3d738db8	0.059461325
169	0x3da81c10	0.082084775
170	0xbd555179	-0.05207965
171	0xbd679256	-0.05653604
172	0xbe3239d1	-0.17404868
173	0xbe02e16f	-0.12781309
174	0x3dfe6274	0.12421122
175	0xbd839ea8	-0.06426746
176	0xbd577023	-0.052597176
177	0x3d1a03d4	0.037601307
178	0xbd702c16	-0.058635794
179	0x3defbab4	0.11705533
180	0x3d815fea	0.06317122
181	0xbd54bce6	-0.05193796
182	0x3d41dafc	0.04732798
183	0xbd30bc45	-0.043148298
184	0xbd1132b3	-0.03544874
185	0xbd996cf9	-0.07491488
186	0xbd88ab3c	-0.06673285
187	0x3d486c76	0.04893156
188	0xbe26d0a9	-0.16290535
189	0xbda23a45	-0.0792127
190	0x3d01db4e	0.031703286
191	0xbd884c0f	-0.06655132
192	0xbcb9b4ed	-0.02266928
193	0xbe568f34	-0.20953065
194	0xbd54142b	-0.051777046
195	0xbce41c4e	-0.027845528
196	0x3d7a7a80	0.06115198
197	0x3d23275c	0.039832458
198	0xbd195c6f	-0.037441667
199	0xbd94edb3	-0.072719
200	0x3e35ac06	0.17741403
201	0xbd73f5d2	-0.059560604
202	0xbdb13cac	-0.0865415
203	0x3dcca8f6	0.09993164
204	0x3c4ea363	0.012612197
205	0xbcc789dd	-0.02435773
206	0x3df573ec	0.11985001
207	0xbe103205	-0.14081581
208	0xbd186544	-0.03720595
209	0x3e1abd38	0.15111244
210	0xbe2b25d6	-0.16713652
211	0xbce2956d	-0.027659142
212	0x3e0da386	0.1383191
213	0xbd389efd	-0.045073498
214	0x3e00ac63	0.1256576
215	0x3dedbcf9	0.11608309
216	0xbdb49cfc	-0.08819005
217	0xbd4f692f	-0.05063742
218	0x3ded69b7	0.11592429
219	0xbd431107	-0.04762366
220	0xbe659f4f	-0.22424053
221	0x3dd0da77	0.10197919
222	0xbcc154e0	-0.023600042
223	0xbe057d49	-0.13036074
224	0x388748d5	6.450868e-05
225	0xbe20b77c	-0.15694994
226	0x3d1ae0b9	0.03781197
227	0x3cc4296a	0.023945529
228	0xbd008768	-0.031379133
229	0xbcc00e54	-0.023444332
230	0xbdc0ba8e	-0.094105825
231	0xbc989b98	-0.01862888
232	0x3de7152d	0.11283336
233	0x3d813abc	0.06310031
234	0x3e333127	0.17499219
235	0x3d54dcc4	0.05196835
236	0xbd8da0d3	-0.069154404
237	0xbcb76d04	-0.02239085
238	0xbc115bb5	-0.008871962
239	0x3c88d8cf	0.016704945
240	0xbe05f40b	-0.13081376
241	0x3d781cdc	0.060574397
242	0x3bd9a089	0.0066414517
243	0x3cf87955	0.030331293
244	0x3da3f061	0.08004833
245	0x3c401730	0.011724278
246	0x3e2a83a7	0.16651784
247	0x3e008f5f	0.12554692
248	0x3d7a2499	0.06107006
249	0x3dfbd4a7	0.122964196
250	0xbcb332db	-0.021874836
251	0xbe460675	-0.193384
252	0xbe1ef1da	-0.15521947
253	0x3d8256cb	0.06364211
254	0xbbb14ee7	-0.005411017
255	0xbd4e0f42	-0.05030752

rnn.bias_ih_l1 f4 [128]
0	0x3d76bc74	0.060238317
1	0xbdd83e24	-0.105587274
2	0x3dc2bd05	0.09508709
3	0xbd7df18d	-0.06199794
4	0xbdb63c73	-0.088982485
5	0xbdc2e1e5	-0.09515742
6	0x3b1f14ec	0.0024273945
7	0xbe13b013	-0.14422636
8	0xbdc25dd3	-0.09490552
9	0xba8cbe99	-0.0010737955
10	0xbb9c1e5a	-0.0047643604
11	0x3dd6148c	0.10453138
12	0xbb47ddb0	-0.0030497126
13	0xbcf245e3	-0.02957434
14	0x3bbe0458	0.0057988577
15	0x3d72f7d2	0.05931837
16	0xbdb5943d	-0.08866165
17	0x3e0f0ee9	0.13970532
18	0x3e16b408	0.14717114
19	0x3e1050f8	0.14093387
20	0x3db0de18	0.08636111
21	0x3dfde76f	0.12397658
22	0x3e11abe9	0.14225735
23	0xbdeadb98	-0.114676654
24	0x3d066ecf	0.03282052
25	0x3d7bd481	0.061481956
26	0x3d2ddba7	0.042445805
27	0xbe0d59a4	-0.13803726
28	0x3bf7c1b4	0.007560933
29	0x3e341327	0.17585431
30	0x3daa9afb	0.083303414
31	0xbc7b2b90	-0.01533021
32	0xbd8afe3b	-0.06786772
33	0xbc9c3c52	-0.019071732
34	0x3b52f2d6	0.0032188199
35	0xbd003617	-0.031301584
36	0x3dc67c88	0.09691721
37	0xbdc8471d	-0.09779189
38	0xbd97671c	-0.073927134
39	0x3e39a345	0.18128689
40	0xbdb30c89	-0.08742625
41	0x3cd6cf43	0.026221877
42	0x3d4676fe	0.048453324
43	0x3e1008a9	0.14065804
44	0x3db07813	0.08616652
45	0x3d15930d	0.03651719
46	0xbd9aca32	-0.07558097
47	0xbcdc37a1	-0.026881995
48	0xbd843ee5	-0.06457309
49	0x3e427f42	0.18993858
50	0x3d8bcb95	0.068259396
51	0xbd027f13	-0.03185947
52	0x3cd01288	0.025399461
53	0xbddef1df	-0.10885977
54	0x3c5a3e7b	0.013320561
55	0x3e2ce35c	0.16883606
56	0xbdc2d8ba	-0.095139936
57	0xbdc62b70	-0.09676254
58	0xbdf875f6	-0.12131874
59	0x3d0ee521	0.034886483
60	0x3d05bdbb	0.032651644
61	0xbcde3f3f	-0.027129767
62	0x3c7140ea	0.014724949
63	0xbd89f9c1	-0.0673709
64	0xbdae8802	-0.08522035
65	0x3e00bb23	0.12571387
66	0xbd0c384a	-0.03423337
67	0x3db1b486	0.0867701
68	0xbdf8c0dd	-0.12146161
69	0x3de82246	0.11334662
70	0x3cb4f06d	0.0220873
71	0x3c507367	0.012722827
72	0xbd01ebf1	-0.031719152
73	0x3e1bde38	0.15221488
74	0xbe00ca7a	-0.12577239
75	0x3e0a7172	0.13519838
76	0xbd5570fa	-0.052109696
77	0xbe2048cf	-0.15652774
78	0x3d9c1254	0.07620683
79	0xbd13e3a9	-0.036105786
80	0xbdddebd6	-0.10835998
81	0x3c427d20	0.011870652
82	0x3d1e6d00	0.03867817
83	0xbd6dd6a4	-0.058066025
84	0xbe23127d	-0.15925021
85	0x3e1c9b53	0.15293626
86	0xbe0dbf32	-0.13842466
87	0xbd69d45a	-0.05708728
88	0xbd91a4fe	-0.07111548
89	0x3e18f200	0.14936066
90	0xbdaf2c48	-0.08553368
91	0xbd2fcb66	-0.042918585
92	0xbdd309ef	-0.10304629
93	0xbd99ad07	-0.075037055
94	0x3e0fdcbb	0.14049046
95	0xbbf57af4	-0.007491464
96	0x3e261157	0.16217552
97	0xbddde2f1	-0.10834301
98	0xbde3a52b	-0.11115488
99	0xbe1bd1d1	-0.15216757
100	0xbdbbb261	-0.091648825
101	0xbdb60322	-0.08887316
102	0x3e14d5db	0.14534704
103	0x3e2cf254	0.16889316
104	0xbd738828	-0.05945602
105	0xbd6215b6	-0.055196486
106	0xbd0e610b	-0.034760516
107	0x3db7304f	0.08944761
108	0xbd0bb653	-0.034109425
109	0xbdfbe1a6	-0.122988984
110	0x3cc65aee	0.02421328
111	0x3d02e583	0.03195716
112	0x3d7fadc8	0.06242159
113	0x3cbc0041	0.02294934
114	0xbd63031d	-0.05542289
115	0x3d7cfb1a	0.061762907
116	0xbd805461	-0.06266094
117	0x3d24733b	0.040148955
118	0xbd8cbe46	-0.06872229
119	0xbdc3f40e	-0.09568034
120	0xbd047e4f	-0.03234702
121	0xbdab4066	-0.083618924
122	0x3db0fcf6	0.086419985
123	0x3e06a4c5	0.13148792
124	0xbc94b615	-0.01815323
125	0x3e1552a9	0.14582314
126	0xbd2a8db8	-0.04163906
127	0x3d1ab7c4	0.03777291

rnn.bias_hh_l1 f4 [128]
0	0xbd8da2a2	-0.06915785
1	0xbd0b7f17	-0.03405675
2	0xbd652eac	-0.055952713
3	0x3d4b4166	0.049622916
4	0xbdc496a6	-0.095990464
5	0x3d623894	0.05522974
6	0xbd598a69	-0.053110514
7	0xbe25dc94	-0.16197425
8	0xbdfb9371	-0.122839816
9	0xbd4c038c	-0.04980807
10	0x3e04563f	0.12923525
11	0xbd8934b3	-0.06699505
12	0xbd87c7b7	-0.066298895
13	0xbd737a47	-0.059442785
14	0x3dba05bc	0.09083125
15	0xbde216f4	-0.11039534
16	0xbdb3b711	-0.087751515
17	0x3dbbc71f	0.09168839
18	0xbe0b1485	-0.13582046
19	0xbdb1d441	-0.08683062
20	0x3dcd89d6	0.10036056
21	0xbe003c79	-0.12523068
22	0x3cd3af37	0.025840385
23	0x3dba67a8	0.09101802
24	0x3dec8c9c	0.115502566
25	0x3d2911d6	0.041276775
26	0x3e258f0b	0.16167848
27	0xbddb1d89	-0.10698993
28	0xbd82bdff	-0.06383895
29	0xbbae278f	-0.0053147743
30	0xbe124a4a	-0.14286152
31	0xbc730fa6	-0.014835274
32	0x3d18ab69	0.037272844
33	0x3e4fce62	0.20293573
34	0x3c30eec3	0.010799113
35	0xbcd87090	-0.026420861
36	0xbd99ba6e	-0.07506262
37	0xbd43d004	-0.0478058
38	0xbe02ff6e	-0.12792751
39	0xbdb7e502	-0.08979227
40	0xbd6e503a	-0.05818198
41	0x3c7699ae	0.0150512885
42	0xbe1b8bd3	-0.15190057
43	0xbc977ef8	-0.01849316
44	0x3e38de55	0.18053563
45	0xbc25fc46	-0.010130947
46	0x3de31618	0.110881984
47	0x3e467a5f	0.19382618
48	0x3d6ae16f	0.057343896
49	0xbdfdd49b	-0.12394067
50	0xbdd4ff7c	-0.10400292
51	0xbdb34b64	-0.08754614
52	0x3d30e020	0.043182492
53	0x3d3cfc90	0.0461393
54	0x3cf7bff1	0.030242892
55	0x3e301389	0.17194952
56	0xbd008cf4	-0.031384423
57	0x3e4e50a8	0.20147955
58	0xbc8171ac	-0.015801273
59	0x3e2287dc	0.15872139
60	0x3d662c1b	0.056194406
61	0xbd1a91b4	-0.03773661
62	0x3c1d112b	0.009586613
63	0xbcbe54d1	-0.023233803
64	0x3d5a2b51	0.053263966
65	0xbe42dbc1	-0.19029142
66	0xbd810d6e	-0.0630139
67	0xbd8fc8a0	-0.07020688
68	0x3cf6ce84	0.030127771
69	0xbd3bdb44	-0.045863405
70	0x3d750ce8	0.05982676
71	0xbc900d37	-0.017584426
72	0x3e24705e	0.1605849
73	0xbe1f562c	-0.15560216
74	0x3d24909e	0.04017698
75	0x3c580c1f	0.013186484
76	0x3c63a237	0.0138936555
77	0x3dd1baa2	0.102406755
78	0x3db77874	0.089585215
79	0xbd2275b6	-0.03966304
80	0x3d9563ec	0.07294449
81	0x3ad90bc3	0.0016559291
82	0xbdfa6149	-0.12225587
83	0x3e18acdc	0.1490969
84	0x3dd2c3c9	0.10291249
85	0xbd7636f6	-0.06011101
86	0x3e115298	0.14191663
87	0xbd16b24e	-0.03679114
88	0x3ce93f07	0.028472437
89	0xba0115b4	-0.00049241935
90	0x3dfb0a11	0.122577794
91	0xbde3b91b	-0.111192904
92	0xbe094050	-0.1340344
93	0x3df3b2cb	0.118993364
94	0xbca61abd	-0.020276422
95	0xbdbcd33b	-0.092199765
96	0x3c45b0a1	0.012066037
97	0xbd992b79	-0.07478995
98	0xbc7e93f3	-0.0155382035
99	0x3d5de87e	0.0541768
100	0x3cbda4de	0.023149904
101	0xbc753bfd	-0.014967916
102	0xbddf1f45	-0.10894636
103	0xbdade660	-0.08491206
104	0x3d483e87	0.048887756
105	0xbd3bc170	-0.045838773
106	0x3cc136aa	0.023585636
107	0x3d63dd74	0.055631116
108	0x3dec4f5a	0.115385726
109	0x3dab8506	0.083749816
110	0xbd79419d	-0.06085359
111	0xbd081bdc	-0.033229694
112	0x3e01fe8e	0.12694761
113	0x3cc90b55	0.024541536
114	0xbd752eb4	-0.059858993
115	0x3e02446d	0.12721415
116	0x3d5554f4	0.05208297
117	0xbdc8b812	-0.098007336
118	0x3e09a9c5	0.13443668
119	0xbd157a92	-0.036493845
120	0xbbefc12f	-0.0073167305
121	0x3da56a61	0.08076931
122	0x3e108e78	0.14116848
123	0xbdbbcfa8	-0.09170467
124	0x3c19e45b	0.009392823
125	0x3e32bdf3	0.17455272
126	0x3d5c6e33	0.05381603
127	0x3d1212ee	0.035662584

decoder.weight f4 [1, 32]
0	0x3e76f515	0.24116929
1	0x3e5c7ab5	0.21531184
2	0xbe4cf507	-0.20015346
3	0xbe222900	-0.15835953
4	0x3e3cef1e	0.18450591
5	0xbe46a7ed	-0.19399996
6	0xbe5f94c8	-0.218341
7	0x3e7dc360	0.24781561
8	0xbe32983a	-0.17440882
9	0x3e7cfb9e	0.2470536
10	0xbe41e87a	-0.18936339
11	0x3e2ba0a9	0.16760506
12	0x3e506891	0.20352389
13	0xbe637042	-0.22210792
14	0x3e4a0568	0.19728625
15	0x3e6bedc2	0.23039916
16	0xbe63495e	-0.22195956
17	0xbe4d4442	-0.2004557
18	0x3e6668d8	0.22500932
19	0xbe4f681a	-0.20254555
20	0x3e8c869c	0.2744645
21	0xbe5a201b	-0.2130131
22	0x3e50c644	0.20388132
23	0xbe58bf9a	-0.2116684
24	0xbe627561	-0.22115089
25	0x3e411a25	0.1885763
26	0xbe559f9a	-0.20861664
27	0x3e61ddb4	0.2205723
28	0x3e4d720a	0.20063034
29	0x3e4a0be4	0.19731098
30	0x3e68f40c	0.22749346
31	0xbe63393d	-0.22189803

exp_avg f4 [32, 1]
0	0xbc180fdc	-0.009281125
1	0xbae16dbe	-0.0017198843
2	0xbab9fdb6	-0.0014189992
3	0x38f0690b	0.000114636576
4	0x39b1d3f1	0.0003391798
5	0xbc181c79	-0.009284132
6	0x39dcfb61	0.00042148962
7	0x399523c5	0.00028446145
8	0xb9d68cf5	-0.00040922282
9	0x3baa21ae	0.005192003
10	0xbc585301	-0.013203383
11	0xb9b9847b	-0.00035384655
12	0xba040a32	-0.00050369196
13	0x3b004305	0.0019571197
14	0x3b16dade	0.0023018639
15	0xb9cc0e2c	-0.0003892047
16	0xbc044556	-0.008073172
17	0xba8a3fba	-0.0010547556
18	0x3aae27d9	0.0013287022
19	0xbc80fed3	-0.01574651
20	0x38b8f970	8.820265e-05
21	0x3a943517	0.0011307326
22	0x3bed1ef0	0.007236354
23	0xbb568154	-0.0032730894
24	0xbb158506	-0.0022814884
25	0x39508c53	0.000198887
26	0x3a95a4b1	0.001141688
27	0xbb1652a3	-0.002293744
28	0x3a819518	0.0009886352
29	0xb99f3ceb	-0.0003037223
30	0xb9d2f235	-0.0004023478
31	0x3ba97d75	0.0051724263

exp_avg_sq f4 [32, 1]
0	0x3a95f021	0.0011439362
1	0x38961102	7.155725e-05
2	0x39a2664d	0.00030975268
3	0x37b5f4bc	2.1690845e-05
4	0x383de6d4	4.5276087e-05
5	0x3ac333ff	0.0014892815
6	0x380d0e9d	3.363063e-05
7	0x39006e15	0.0001224804
8	0x383feccb	4.575848e-05
9	0x398b3e4b	0.00026558558
10	0x3bb27a48	0.005446706
11	0x38864902	6.403217e-05
12	0x38c669fc	9.461117e-05
13	0x3958f3e1	0.00020690217
14	0x3bff4d5a	0.0077912034
15	0x3a1667d2	0.00057375163
16	0x3c4ec3fe	0.01261997
17	0x3928b4cc	0.0001608908
18	0x3839b78c	4.427838e-05
19	0x3b97b0c5	0.004629227
20	0x3946fff6	0.00018978104
21	0x39a890da	0.0003215138
22	0x3c3f40c2	0.011673154
23	0x39af8709	0.0003347921
24	0x3ad4ba62	0.0016229863
25	0x3a2a7162	0.00065018807
26	0x3a9089aa	0.0011027355
27	0x39d1b58d	0.00039998852
28	0x3c2c57f8	0.01051902
29	0x38f20417	0.00011540221
30	0x3934f42a	0.00017257096
31	0x3bcc38f1	0.006232374

exp_avg f4 [32]
0	0x3bf04bea	0.0073332684
1	0x3aad1bc5	0.0013207129
2	0x3b39ae9c	0.0028332835
3	0x39c30a34	0.000372009
4	0xba16198b	-0.0005725852
5	0x3c1d43e2	0.009598704
6	0xbb08b302	-0.002085865
7	0xb9ec3d70	-0.00045059202
8	0xb90d1687	-0.000134552
9	0xbb6c7d3e	-0.0036085392
10	0x3c184156	0.009292921
11	0xb9187c4c	-0.00014542154
12	0x3a5fb798	0.00085341325
13	0xbab78585	-0.0014001584
14	0x3bd744fa	0.006569502
15	0xbb07d842	-0.0020728265
16	0xbc1873bb	-0.009304936
17	0x3a81b41d	0.0009895597
18	0xbaa3cab2	-0.0012496321
19	0x3c52a4ac	0.012856644
20	0xba2b0634	-0.00065240567
21	0x3a0b2f9d	0.0005309524
22	0x3b89026a	0.004181196
23	0x3b638df6	0.0034722066
24	0xba88b3ef	-0.0010429601
25	0xbac15cf7	-0.0014752437
26	0x3b48c12f	0.0030632725
27	0x3b563c9f	0.0032689942
28	0x3b89cdb5	0.0042054304
29	0xb94c9a49	-0.00019512432
30	0xb900c65e	-0.00012280929
31	0x3b8e1bcb	0.0043368093

exp_avg_sq f4 [32]
0	0x3b14977d	0.0022673302
1	0x38c532eb	9.403176e-05
2	0x396db8ce	0.00022670926
3	0x3768733b	1.3855107e-05
4	0x37d3b79b	2.5238658e-05
5	0x3b32dac3	0.0027291037
6	0x380157e6	3.083786e-05
7	0x387c2838	6.011894e-05
8	0x37bf6d09	2.2819748e-05
9	0x3a214b7d	0.0006152911
10	0x3c145212	0.00905277
11	0x37ceca38	2.465128e-05
12	0x385723af	5.1293227e-05
13	0x38b48f27	8.609733e-05
14	0x3be6d5b5	0.007044519
15	0x39ef2002	0.0004560948
16	0x3c95c5eb	0.018282851
17	0x38a98659	8.083572e-05
18	0x382fa118	4.187328e-05
19	0x3c0b1b0c	0.008490335
20	0x38fe9931	0.00012140198
21	0x3911a92b	0.00013891298
22	0x3c82a582	0.01594806
23	0x39e14477	0.00042966355
24	0x3a4afba6	0.0007743187
25	0x39f0a3bc	0.0004589836
26	0x3a4f9f48	0.0007920158
27	0x3a0552ca	0.0005085884
28	0x3c5cb255	0.013470252
29	0x380f1413	3.4112552e-05
30	0x3883741c	6.268194e-05
31	0x3b93580f	0.0044965814
