RNN_Time_series_Anomaly_Detection_LVTN/save/nyc_taxi/checkpoint/nyc_taxi.pth (torch, 217916 bytes, 42 tensors)

encoder.weight f4 [32, 3]
00000000: 859a 2dbd 8550 47be 6019 afbd 5817 33be
00000010: 5fcb f33c 0499 673d 06eb d43d bd41 d13d
00000020: f995 533d 080b cebd a043 413e 6a5e 743d
00000030: 8622 6e3d fb1a 373e 7972 943d e8fb fa3d
00000040: 077e cb3c 2195 4e3e efe6 843d 0c0f 653e
00000050: ae72 afbd 29d7 3d3e dc87 6ebe 08fb 123e
00000060: da0a 103e fc4f b7bd e9d9 d63d c9af 20be
00000070: c3f4 9a3d cb82 51bd 82a3 16be 4442 adbb
00000080: 4703 4d3e 8ffb 80be b064 00be b13d 163e
00000090: af56 273d 3e3f bbbd deba dd3d 7d04 82be
000000a0: 515d 4f3e 6552 fcbd 420d 033d 41bb 823e
000000b0: e35c 07be face 883e 3740 0bbe 57ee 083e
000000c0: a424 ecbd 555f 04bd 0723 32be 24cc c83c
000000d0: b7e0 4a3e c718 993d 5103 ea3e e887 89bd
000000e0: 96ad 86bd 152e e4bd b3aa 10be c80e 443d
000000f0: 3644 9dbd a76b 1fbe 0c26 273e 554d 6c3e
00000100: c9ae 173e 3437 173d 6bcb 36be 4324 b8bd
00000110: 7c7b 0e3e 746f 733d 737a 143e 3b08 873d
00000120: 0d73 3ebe 1c96 1bbe 692f 2a3e 86bd 6cbe
00000130: c02e 2d3e d758 18be 4b5b 9e3e c17d 463c
00000140: 33bd e4bd 4c05 6d3e aac4 b2bc f398 36be
00000150: 0e85 b13d e6fd 55be 8b03 bbbd 4e8c 26bd
00000160: aa2b 17be fb12 1ebe f24a cd3d 023f 70be
00000170: 0e99 c1bd cca7 00be 807f ddbd 471f d7bd
-0.04238369 -0.1946431 -0.08549762 -0.17489374 0.02976006 0.05654241 0.1039639 0.10217617
0.051656697 -0.10060698 0.18873453 0.059660353 0.058138393 0.17881386 0.072483964 0.122550786
0.024840368 0.20174076 0.064893596 0.22369021 -0.08566795 0.18539108 -0.23294014 0.14353573
0.1406664 -0.08950803 0.10490782 -0.15692057 0.07566216 -0.051150125 -0.14710811 -0.0052874405
0.20020781 -0.25191924 -0.12538409 0.14671971 0.040854152 -0.09142922 0.10826658 -0.2539405
0.20250441 -0.12320403 0.031995066 0.25533488 -0.13219027 0.2672041 -0.13598715 0.1337217
-0.11530426 -0.03231748 -0.17396174 0.024511404 0.19812284 0.07475429 0.45705655 -0.06715375
-0.06576078 -0.11141602 -0.14127617 0.04786566 -0.07679026 -0.1556841 0.16323107 0.23076375
0.14812769 0.03691788 -0.17851035 -0.089912914 0.13914293 0.05943246 0.14499836 0.06593367
-0.18598576 -0.15193981 0.16619648 -0.23119172 0.16912365 -0.1487764 0.30929026 0.012114943
-0.111688994 0.23146552 -0.021822292 -0.17831783 0.08667956 -0.20897636 -0.09131535 -0.04066115
-0.1476275 -0.15436928 0.1002406 -0.23461536 -0.09453021 -0.1256401 -0.10815334 -0.105040126

encoder.bias f4 [32]
00000000: 3834 823d 8aef 8a3e cf1e bc3e d3bb 98bd
00000010: df79 453d 6966 d73e 5d3e 39be e295 c0bd
00000020: fad6 863e b5eb f73e ef6f d7be f50f 8f3e
00000030: afdd 5b3d 5416 3d3c 7c8f 5a3e 3158 cbbe
00000040: b486 733e 2bca 03bf 3fa2 b53e 243f 9fbd
00000050: b607 b4be 1c0c d83e 1643 28be 1101 453e
00000060: 0df8 a6be 04e2 f6be da3b 94be 54fd 51be
00000070: be44 84bc fc2a 8d3e f56b b93e 6529 dfbd
0.06357616 0.2713588 0.36742255 -0.074576996 0.04821193 0.4207032 -0.18090196 -0.09403588
0.2633589 0.48422018 -0.42077586 0.27941862 0.05367821 0.011540968 0.21343797 -0.39715722
0.23781854 -0.5148036 0.35475346 -0.07775715 -0.35162133 0.4219674 -0.16431841 0.19238688
-0.32611123 -0.4821931 -0.28951913 -0.20506793 -0.01614606 0.27571857 0.36215177 -0.10896567

rnn.weight_ih_l0 f4 [128, 32]
00000000: c1f5 c53d d358 203e 4d08 143e 4aaa a8bc
00000010: ea6a 2b3e a741 843d cf85 8cbd bc2a 0fbe
00000020: 841b acbc f738 123e 2235 2ebe 4c29 e03d
00000030: fecb 5abd 5d8f e5bb aff8 183e 4bef 5dbd
00000040: 1bd3 3d3e 5928 98bd 9c1b 583e 442f c7bd
00000050: cbaa 1dbe 6407 9d3e 7317 2abe 5af3 243e
00000060: c0eb 13be 1d47 3fbe 5d23 67be e9ac 76be
00000070: 1ba7 ecbd 5034 3d3e c0ab 903e 8665 91bd
00000080: 0d50 35be 1c07 14bd 4ed9 133e de08 903e
00000090: 3c05 613e 73a5 4cbd 0f2d efbd 9671 b7bd
000000a0: e526 ca3d 0947 cbbd b7c7 bfbd b0fb a5bd
000000b0: 8446 c8bc f32a 423e 86c9 c1bd 7f17 4abe
000000c0: 6cb4 cabd 753d 1b3c b218 a43d e001 7abd
000000d0: 3b14 9d3d 1cb9 e43d 22dd ff3c 8ddb 94bd
000000e0: ae95 ddbc fdc9 d6bd 0952 26be 108d 7dbd
000000f0: 15d9 80be 5927 fb3d b281 87bd 571a cebc
00000100: 1f17 3d3e 96f6 ae3d 7382 9e3d 55e7 f9bd
00000110: 3855 203c b8ea 0a3e 6222 b03c ada5 edbd
00000120: e198 c4bd e9b8 a83d ca96 9ebd e057 d3bd
00000130: 7e74 f3bc 428a a0bb a394 303e 823f c83c
00000140: 827e 393e 4341 1abe 0239 283e fc51 4a3d
00000150: 09c0 61be f92e 7e3d b659 3fbe 37b5 f8ba
00000160: e078 88bd bf76 2abe f8b0 e8bd 4c21 b6bd
00000170: cdae 1e3e 40a4 013e 238b ff3d f832 013e
00000180: 9c6d 29bd b526 cf3d c165 ce3c f6d9 ac3d
00000190: 69f9 b1bd 79dd 51bc 3e90 423c 191a 6dbd
000001a0: 94cb 4ebd 7670 08bc 2a5d dcbd 7f37 913d
000001b0: 7f2f 01bd 4f9d b1bc 8398 f3bd 9c61 a43d
000001c0: fe83 dcbc 43b6 d1bd b835 debd 2c17 fe3d
000001d0: 49f1 8abc 01d6 443d a531 fa3b 8fbe 24be
000001e0: 1f98 263d b6d4 b23c 4926 28be e41c 0bbe
000001f0: fc8d a4bc b581 2c3d 7207 14bd 82ee 9ebc
00000200: 16b4 0e3e 8c91 92bd 0246 9bbc f565 b13d
00000210: 1c2c 643c 85aa 373d 03f3 913d 772e e1bd
00000220: c908 89bc 4954 103d 3377 8abd 4a0d 17bd
00000230: 2a23 4abe 48d9 a63e ef42 afbc f809 dc3d
00000240: fbd6 a0bd 3297 20be 0fe2 a33d 3701 3abe
00000250: 7445 9bbc da2c 1dbd 8273 0b3e 6506 913d
00000260: b233 5dbc 739a 39bd cb31 033e 8c85 47bb
00000270: b4c6 853d 45e4 27be f56f 50bd 1fc7 d83c
00000280: c529 d93d a023 46bd 6528 e83d b755 07be
00000290: a2c1 a43d eeca 6dbd 2d89 41bd 5816 403d
000002a0: b229 2cbd 58c9 9a3c 793c babd ddfa 13be
000002b0: 7e38 fd3c 549f 103c b54c f03d b8a7 bbbd
000002c0: 02e3 8bbd d544 593c d641 823d 8680 4bbd
000002d0: 715d 173b cb3b d7bd e246 7dbd 71a5 bf3d
000002e0: 3f86 39be a2cd 8fbd e36b 7f3d f49e b03d
000002f0: 3448 833c d586 b53d d848 ae3d 51d2 ee3d
00000300: 25f6 f93c 9e1e 22bc a39f ab3c 8bca 9f3d
00000310: b280 4e3d 17fe 4d3d a66e 7d3c d7d3 99bc
00000320: 4842 493d 69d7 593e 6c05 87be 4e09 f73d
00000330: 9626 b53d 6bdd 82bd e7cb 5f3d 89cc ddbc
00000340: 8ad7 ab3d ecff fabb ec61 993d eac1 3bbe
00000350: 07a9 3dbd a39f 8bbd 032d 4dbe 233c 783c
00000360: 60b1 183d 264f 15be 89e1 b7bd bdf1 9abd
00000370: ce19 23be eaf9 853d d119 053e be7b b83c
00000380: 9cd7 203e 8d33 593d 6cfe 313e 9d7d b6bd
00000390: 5510 7dbc 61d5 723c 1898 68be 33e0 453b
000003a0: 589a 403b efb4 4b3d 125b 5bbd 65e1 413e
000003b0: 03f5 11bd 6801 afbd 91ff 2c3e 8016 80bd
000003c0: 93ab 333e 2595 5fbd 1751 083e 508c 243d
000003d0: 394f 0abe a326 633e e4cd 97bc 3f9e fcbd
000003e0: d3f1 e33c 43f6 a6bd 9b42 723b a7b1 2c3d
000003f0: 9859 31bd 44dd a43d c921 f83d d1eb a0bd
0.096660145 0.15658884 0.14456291 -0.020589013 0.16740003 0.06457835 -0.068614595 -0.13981146
-0.021009214 0.14279543 -0.17012456 0.10945377 -0.0534172 -0.0070056156 0.14938615 -0.054183286
0.18537562 -0.07429571 0.21104282 -0.09725812 -0.15397184 0.306697 -0.16610508 0.16108456
-0.144454 -0.18679471 -0.22572084 -0.24089397 -0.1155531 0.18476987 0.28256035 -0.07099442
-0.17706318 -0.036139593 0.14438364 0.28131765 0.21974653 -0.049962472 -0.11678516 -0.08957212
0.098707 -0.09925658 -0.093642645 -0.08104646 -0.024447687 0.18961696 -0.09462266 -0.19735526
-0.09897694 0.009475102 0.08012523 -0.061036944 0.07669874 0.11168119 0.031233374 -0.072684385
-0.027048912 -0.10487745 -0.16242231 -0.061902106 -0.2516562 0.12263364 -0.06616534 -0.025159044
0.18465851 0.08543126 0.07739725 -0.12202326 0.009785943 0.135661 0.02150077 -0.11603866
-0.09599472 0.08238394 -0.077436045 -0.10319495 -0.029718634 -0.004899294 0.172442 0.024444345
0.18114665 -0.15063958 0.16427997 0.049394593 -0.22045912 0.062056515 -0.18686566 -0.0018974905
-0.0666368 -0.1664686 -0.11361879 -0.088930696 0.15496369 0.12660313 0.1247771 0.126171
-0.041364297 0.10114805 0.025195004 0.0844001 -0.08690149 -0.012809151 0.01187521 -0.057886217
-0.050487116 -0.008327594 -0.10759957 0.07090663 -0.031539436 -0.021681456 -0.11894324 0.0802643
-0.026918408 -0.10239842 -0.1085009 0.124067634 -0.016960757 0.048055653 0.0076353126 -0.16088317
0.040672418 0.021829944 -0.16420855 -0.1358524 -0.020087235 0.042115886 -0.036139913 -0.019400839
0.13935885 -0.07156667 -0.01895428 0.08662025 0.013926532 0.044840354 0.07126429 -0.109951906
-0.016727822 0.03523663 -0.06761017 -0.036877908 -0.19739977 0.32587647 -0.021394221 0.10744089
-0.07853504 -0.15682676 0.08002102 -0.18164526 -0.018954016 -0.038372852 0.13618281 0.07081298
-0.013501095 -0.04531331 0.12811963 -0.003044459 0.0653204 -0.16395672 -0.05088802 0.026462136
0.1060367 -0.04837382 0.1133583 -0.13216291 0.08044745 -0.058054857 -0.04724996 0.04689631
-0.04203195 0.018894836 -0.090935655 -0.14451165 0.030910727 0.008827049 0.11733381 -0.09162849
-0.06830408 0.01326104 0.063602135 -0.049683116 0.0023096467 -0.105094515 -0.061835177 0.09357727
-0.18117617 -0.07021643 0.06235875 0.08624068 0.01602564 0.08863608 0.085099876 0.116612084
0.030512879 -0.009894995 0.020950144 0.07802304 0.050415702 0.050291147 0.015468275 -0.01877777
0.049135476 0.21273579 -0.26371324 0.120623216 0.0884525 -0.063898884 0.054637816 -0.027075069
0.0839072 -0.007659903 0.0748938 -0.18335691 -0.046303775 -0.06817558 -0.20036702 0.015151056
0.037278533 -0.14580974 -0.08978564 -0.07565639 -0.15927812 0.06541808 0.1299813 0.022519942
0.15707248 0.05302768 0.1738221 -0.089106776 -0.015445788 0.014821381 -0.22714269 0.0030193448
0.002938887 0.0497331 -0.05355365 0.18933637 -0.035634052 -0.0854519 0.16894366 -0.062542915
0.17545919 -0.054585595 0.13312183 0.040172875 -0.13506784 0.22182707 -0.018530793 -0.123348705
0.027825272 -0.081524394 0.003696597 0.04216161 -0.043298334 0.080500156 0.12115819 -0.078574784

rnn.weight_hh_l0 f4 [128, 32]
00000000: cbbf 8b3d b101 ba3d 5d91 25be 780b 54be
00000010: e46f 4e3e 1de4 af3d 2205 8e3e c071 25be
00000020: d70a 67be 2c2d 073e af33 6b3c 74dd 00be
00000030: aced 283d 3337 ca3d 8733 b2bd b4cd a5bd
00000040: fa8a fa3c 8fd2 3fbe f0d4 adbd 360f 72bd
00000050: 7f6e c1bd 77f6 c83c c029 2c3c faaf 3abd
00000060: 5b85 d23d d856 423e 0bf5 59bd bb40 91bd
00000070: 3c0d 01be 2ad7 ed3c 4133 d1bd ee49 72be
00000080: 828d 87bd ea21 80bd f6db 48bd c9b9 5bbe
00000090: d966 673d 76cf 873d 31ad 2b3d 20e5 0ebe
000000a0: 98c7 df3d 2a76 ad3d 65f4 ecbd 3e30 2d3e
000000b0: cc66 503e bcf7 55be fdba d33d eb95 73bd
000000c0: 5a56 c9bd 5e7b 043e 9f25 08bd f052 c43c
000000d0: ce53 5d3d e3c4 2dbc d83b 8abc fab1 fdbd
000000e0: f88d 13be e5fc 59be 4457 ac3d 77ea 8abd
000000f0: ed88 ce3d e877 b8bd e601 00bd 75c9 80bc
00000100: e3a3 b7bb 2b2c 8a3d 9b5c 9cbd 5623 af3d
00000110: d4ee f0bb c984 ffbd 4ce8 10be 1363 88bb
00000120: 2b3c 2a3d b606 b13d 3551 283e 11ce 8d3d
00000130: dcc9 26be 268f b73d fb39 49bc 2fba 3abd
00000140: 109a 05be e59d eabd 843d e8bd ee53 e4bd
00000150: 9245 e2bd 7381 863d ecf7 1f3c e995 973d
00000160: 7a82 d0bb 2447 1c3e 3b93 25bd 3ea1 f6bc
00000170: 2b33 55bd de4d c83d 6686 973d 46fa 56bd
00000180: 6b63 cf3d 0a9d 0abe 761e 2cbe 76be c53d
00000190: 9ceb 47be ed59 d63c 024f f8bd 7b5e 543b
000001a0: 264f 16bc 505c 043e e588 c63c f321 34bc
000001b0: f125 00be 901f 55bd 59bd 0c3e b439 aa3d
000001c0: 597b 103e b8a1 babb 8404 b9bd 4d72 4fbd
000001d0: 47fd d0bd 8ece f7ba c550 32bc 6585 a53c
000001e0: 1142 583c fa02 08bd 0e6a b03d 59fd 08bd
000001f0: a2b5 0a3e af81 753e b93d a8bd 023f 0c3c
00000200: 10ad 903d c193 363e 7797 693e d672 1abe
00000210: dcc9 c43d 0aa9 b03d 87f9 cebd 2bf6 36be
00000220: 88f0 d1bd c91a 193e 3591 46bd 7f36 30be
00000230: c3de 0fbc 7ca8 d4bb 0f44 3d3e 4a00 463e
00000240: d251 f4bc 7dce 9d3d ffd2 0a3e 15e5 d23d
00000250: b085 9f3d 6814 21be d7cc 223e 13f4 903e
00000260: 9300 4bbe a89b 193c 5a41 c5bd 0e33 33be
00000270: cc08 fbbc 0d39 593e f91d 9a3d 2575 61be
00000280: b5fd c03b 34e5 2f3e 1a23 133e 94b5 933d
00000290: 318c 11bd 1865 a3bd c615 97bd 57b9 1bbd
000002a0: 9336 80bd 890b 3b3d d4cc 663d 984b 9dbd
000002b0: 54fc a7bd dca7 c4bc 58ab 7b3d 0233 263e
000002c0: 4df5 d93d 47ff 37bd 258c 8d3d ec45 d93d
000002d0: d2d6 27be 329c 06be 72a3 dcbd 3e1e 4d3d
000002e0: a7a5 873d 9212 d7bd 02e3 203d 5d91 bebd
000002f0: 01a3 1fbe f2ec e83d 966c 42bd 4ba0 d8bd
00000300: ac0b 25bd 6632 323c 2540 ddbd 0bf6 2dbb
00000310: 70db f2bb a5b3 b7bd 59ad 81bd 52fc c9bc
00000320: 1e76 e3bd 1bb3 eebd c120 913e fd9a 7c3c
00000330: f397 2ebe 0d52 963d a577 8f3e f335 6a3d
00000340: fb1b 983c 59f4 d43d 6cf7 cb3c 316d 98bd
00000350: d443 7abd 9257 513e 4008 273d df29 b9bc
00000360: f0fb 52be 25d2 ac3d 8eea 15bc dc7f 13be
00000370: fd86 9bbd 8d47 403e 8661 b6bd 5b77 d13c
00000380: 761b cdba 008a 8cbd c1b0 193c e6d2 bebc
00000390: ffbd d43b 1208 cb3d 9988 4bbb 0b4d b93c
000003a0: 79d7 093e ce4b 85bd 1848 9b3d 052d 183d
000003b0: ccdc 4bbd 0536 fdbc d320 913b 872c ab3d
000003c0: bafc 143e 408b 8bbd 5fa7 58be 5e01 93bd
000003d0: e4a3 a7bd 9652 1e3e 0109 b6bb 1ba2 63bd
000003e0: b533 433e 83ab 893d 0cce b5bd b40a 07be
000003f0: 262c e3bd 6e0b 733d a0e9 8fbd 5981 23bd
0.06823691 0.09082354 -0.16168733 -0.207075 0.2015987 0.08588431 0.2773829 -0.16156673
-0.22562729 0.13200825 0.014355584 -0.12584478 0.041242287 0.0987381 -0.08701234 -0.080958754
0.030583847 -0.18732665 -0.0848788 -0.059096538 -0.094449036 0.024531586 0.010508001 -0.04557798
0.10279342 0.18978441 -0.053212207 -0.070924245 -0.12602705 0.029033262 -0.10214854 -0.23661014
-0.06618787 -0.062564686 -0.049037896 -0.2145759 0.056494568 0.06631367 0.041913215 -0.13954592
0.10926741 0.08469804 -0.11570052 0.16912934 0.20351714 -0.20895284 0.103383996 -0.059469145
-0.098309234 0.12937686 -0.033239003 0.023965329 0.054035 -0.0106060235 -0.016874239 -0.12387462
-0.14409626 -0.21287878 0.08415082 -0.06783002 0.1008471 -0.09007245 -0.03125181 -0.015721062
-0.0056042536 0.067467056 -0.076348506 0.08551662 -0.0073526893 -0.12476499 -0.14151114 -0.004162201
0.041561287 0.08643858 0.16437228 0.0692407 -0.1628794 0.0896285 -0.01228189 -0.045587715
-0.13047051 -0.11455897 -0.11339858 -0.11148821 -0.11048426 0.06567659 0.009763699 0.0740164
-0.0063632103 0.15261513 -0.040423613 -0.030106183 -0.05205075 0.09780477 0.07398681 -0.052484773
0.10126384 -0.13536468 -0.16808495 0.09655468 -0.19523472 0.026165927 -0.121244445 0.0032404948
-0.009174144 0.1292584 0.024235198 -0.010994422 -0.12514473 -0.052032053 0.13744105 0.08311787
0.14109553 -0.005695548 -0.090340644 -0.050646115 -0.10204559 -0.0018906163 -0.010883515 0.020205209
0.013199345 -0.033205964 0.08613978 -0.033444736 0.1354585 0.23975252 -0.08214898 0.008559944
0.07064259 0.17829801 0.22811686 -0.15082869 0.09608814 0.08625992 -0.10106187 -0.17867343
-0.10250956 0.14951624 -0.048478324 -0.17208289 -0.008781138 -0.0064898115 0.18482994 0.19336048
-0.029824171 0.077054 0.13557051 0.102976 0.07789171 -0.1573044 0.15898453 0.28311214
-0.19824438 0.00937549 -0.096316054 -0.17499945 -0.030643843 0.2121317 0.07525248 -0.22017343
0.0058896192 0.17177278 0.14368859 0.07212368 -0.035534088 -0.079782665 -0.073772 -0.03801855
-0.06260409 0.045665298 0.056347683 -0.07680434 -0.08202425 -0.024005823 0.061442703 0.16230395
0.106424905 -0.044921186 0.06911496 0.1060904 -0.16390541 -0.13145521 -0.10773362 0.05007767
0.066233926 -0.10501589 0.03927899 -0.093050696 -0.15589525 0.11373319 -0.047466837 -0.105774485
-0.040294334 0.010876274 -0.1080325 -0.0026544358 -0.007411413 -0.08969811 -0.063318916 -0.024656449
-0.111065134 -0.116552554 0.28345302 0.015417811 -0.17050152 0.07339869 0.2802097 0.057180356
0.01856803 0.10398168 0.024898253 -0.074427016 -0.061099842 0.20443562 0.040779352 -0.022602974
-0.20603919 0.084385194 -0.0091501605 -0.14404243 -0.07594106 0.18777294 -0.0890532 0.025569608
-0.0015648443 -0.06862259 0.00938052 -0.023293924 0.006492376 0.09913649 -0.003105676 0.022619745
0.13461103 -0.06508599 0.0758211 0.03715231 -0.049771115 -0.030909548 0.004428962 0.08358102
0.14549533 -0.06813669 -0.21157597 -0.07177995 -0.081855565 0.15461192 -0.0055552726 -0.055574518
0.19062693 0.067221664 -0.08877191 -0.13187677 -0.11092405 0.059337072 -0.07026982 -0.039918277

rnn.bias_ih_l0 f4 [128]
00000000: 4b9d c63d eb9a db3d fa6c cdbc 3137 253e
00000010: cc16 dfbd 8572 133e 30ab f63c fbb7 943d
00000020: 11f9 22bc 9cad 913c 25ed 9b3d 6bf8 2cbd
00000030: df46 383d 65d2 1d3e b133 ec3d 6392 453e
00000040: 5d95 3e3e 3a9b bbbc f436 a83e 0e04 043d
00000050: e694 80bc cc41 b9bd 8aae 3abb 4dfb 023e
00000060: 4d6c 873c 2afe c83d 8b27 4e3e f5f0 043e
00000070: 5584 f1bd 831d d3bc 1fb3 92bd b478 fb3d
00000080: d1da 713e b942 4d3e 25b9 2a3e 8725 8b3d
00000090: 9754 393d 0034 4c3e 66c1 643e ee3c fb3d
000000a0: 2f3c 19bd 2980 c2bb 18c6 b9bd 4538 ab3a
000000b0: 46a6 17bb 2fc4 65bd 583e 0e3e 03e2 583e
000000c0: 65ac fc3d b755 7f3d 9e86 383e e2b6 24bd
000000d0: 6ff6 7cbd 8c57 523e 8598 fcbb f835 50bd
000000e0: f866 84bc 7a8a 063e 0e97 d03c baec 2abd
000000f0: d4e6 c4bd d992 453e ed7b 383e dfa6 053d
00000100: ada6 8a3d 7e2f 2a3d 121d 863c 1f39 7abd
00000110: b995 2a3e 2456 1a3d 2413 373e 559e 0bbe
00000120: d40a b5bd 87a0 90bd 0c0f 493d a162 bf3d
00000130: 6e45 17bd dd66 143e 6e0c 273d 1e53 b5bd
00000140: 87a4 9cbd 432a cebd edcd f3bd 2b60 0fbd
00000150: 62b2 7fbc 8b3a 7fbd 3702 d13d bfaf 973d
00000160: 6915 0e3e 701f 9cbc 86a4 c53d c0b0 23be
00000170: bdda f7bd ea42 c0bd 8adf a4bd db14 07be
00000180: 0fef 383b 2271 5abc 4b08 953d 6552 43bd
00000190: 81ac 123d cb63 d43d cf9a 10bd e8ba ccbd
000001a0: ab01 1abd be51 463d 803f 3fbd beb4 6c3c
000001b0: 685b 0a3e ab19 053e 5fc6 f53d 8bb2 dfbc
000001c0: 4970 92bd 0ab0 fe3d 5e5c 11bc a304 833e
000001d0: 055c 673e 344f 503d 12d4 ef3d f837 f33d
000001e0: 67af 493e 89db c63d 431e b33d 3254 0e3e
000001f0: 1257 b33c 4dd7 243e 268a ef3c b58b 74bd
0.0969797 0.10722908 -0.025076378 0.16134335 -0.1089302 0.14399154 0.030110925 0.07261654
-0.009947077 0.017782979 0.07613591 -0.042229097 0.044989463 0.1541229 0.11533297 0.19294123
0.18611665 -0.022901166 0.32854426 0.03223043 -0.015696 -0.09045753 -0.002848538 0.12791176
0.016531134 0.09814103 0.20132272 0.12982543 -0.117928185 -0.025770908 -0.07163071 0.12278882
0.23618628 0.20044984 0.1667219 0.06794267 0.045246687 0.19941711 0.223394 0.12267481
-0.03741091 -0.005935688 -0.090709865 0.0013063034 -0.0023139878 -0.0560953 0.1389097 0.21179967
0.12337569 0.062337603 0.18020102 -0.040213473 -0.061758455 0.20541209 -0.0077086114 -0.05083272
-0.01616238 0.13138762 0.025462653 -0.041729666 -0.096143395 0.19294299 0.18016024 0.032629844
0.06770072 0.0415492 0.016371284 -0.06108963 0.16658677 0.037679806 0.17878395 -0.13634618
-0.08839956 -0.07061868 0.049086615 0.09344984 -0.036931448 0.14492364 0.04078334 -0.08853744
-0.076485686 -0.100666545 -0.119045116 -0.035003822 -0.015606495 -0.06231169 0.102055006 0.07406568
0.13875355 -0.01905796 0.09650521 -0.15985394 -0.12102268 -0.09387763 -0.08050449 -0.1319155
0.0028218662 -0.013332637 0.072769724 -0.047686 0.035809044 0.103705965 -0.035303887 -0.09996587
-0.037599247 0.0484178 -0.046691418 0.014447389 0.13511431 0.12998073 0.12000727 -0.027306816
-0.07150323 0.124359205 -0.00887212 0.25589475 0.22593696 0.050856784 0.11710371 0.118759096
0.19695817 0.09709842 0.08746006 0.13899305 0.021892104 0.16097756 0.029240679 -0.059703548

rnn.bias_hh_l0 f4 [128]
00000000: a06d 013e 16e6 1bbd ac47 493e 8bb2 3f3d
00000010: d8d7 abbd 2caf 413c 55cd 1c3e 5649 8a3e
00000020: 3ffe 583d ee71 fa3d 5802 3d3e 2ee7 1fbd
00000030: da56 943c 5efd cd3d 1345 133e 03af 263e
00000040: 65ea b4bd ce54 d73d 1cd7 103e eced ee3d
00000050: d8c2 61bd 9af3 b33c 8e0c 013e 1e46 5d3d
00000060: 87b1 4d3e 9e09 da3d a720 9abd 9c5a 0fbd
00000070: c78e aebd 3a42 053e ce46 5a3e f2bc d0bd
00000080: b2ff 953c 6f73 1cbd 899e 6d3d f2b4 eebd
00000090: cd91 913d 6e77 fa3d 1520 f63d a2e5 323d
000000a0: 3f9e 703e aa23 fd3d be75 7bbd 287f 77bd
000000b0: 451d df3c 0488 8d3e 6f4b 0e3d 70cb 8fbd
000000c0: 8d75 5b3d b785 e2bd 5a3b 803e e5c1 7d3d
000000d0: 56bc babd 11d5 edbd 6175 81bd 6462 cd3d
000000e0: bd61 6b3e 9ee6 ca3c ee6e f53d 39d9 123e
000000f0: 884c ad3d f411 5f3e b5ad c9bd 2074 093e
00000100: 303c cdbd 8bff 173d fa97 08be 9e3e f43d
00000110: 4343 d73c c183 1539 3213 913d 37b2 89bd
00000120: ecb0 0b3c 8d40 82bd d1ec 183e 4701 65bd
00000130: 52ef 29be 24b3 053e fd82 0d3d 6186 09be
00000140: 2dc4 273e add9 05be da3f bbbd b5df 213e
00000150: 2282 e03d acc1 923d 5a7b a33c 9aad ae3d
00000160: be39 d63c 47f9 813d 5582 0e3e e5c5 62bd
00000170: 26c9 fbbd cb21 e13d 909a 5dbc bbf4 febd
00000180: 6f9a 2c3e 9cb8 073e 2be3 5e3d 2435 273e
00000190: b9e8 21bd 4d02 423e 702c 8b3e 0bb3 f0bd
000001a0: 606b 5a3e 0346 5c3d 2200 343c 60d0 ed38
000001b0: 4fe8 ea3d ba75 8c3e e9fd a63d ce4e 23bd
000001c0: f141 263e 6e61 ff3d e7c6 fe3d 9430 8f3e
000001d0: e94e c43d ced6 e9bb 06eb ee3d 3563 62bc
000001e0: fba2 083d 55e4 6a3e c048 943e 28f0 1f3e
000001f0: a2c6 0b3e 84c1 6a3c 2d90 7d3d 031f 3bbb
0.12639475 -0.038061224 0.19656247 0.04680113 -0.08390778 0.011821549 0.15312703 0.27009076
0.052976843 0.122287616 0.18457925 -0.03903883 0.01810782 0.100580916 0.14381818 0.16277699
-0.0883377 0.10514222 0.14144558 0.11666474 -0.055117458 0.021966744 0.12602445 0.054021947
0.20087253 0.106463656 -0.07525759 -0.03499852 -0.08523326 0.13013545 0.21316072 -0.101922885
0.018310402 -0.038196024 0.05801252 -0.11655606 0.071078874 0.12229811 0.12017838 0.043676026
0.23497866 0.12360318 -0.061391585 -0.060424 0.027235636 0.27642834 0.034739908 -0.070212245
0.053578902 -0.1106066 0.25045282 0.06195249 -0.091179535 -0.11612905 -0.063212164 0.10028532
0.22986503 0.02476817 0.11984049 0.14340676 0.08461863 0.21784192 -0.09847585 0.13423204
-0.100212455 0.03710894 -0.13339224 0.11926006 0.02627719 0.0001425883 0.07083739 -0.06723445
0.008526068 -0.06359968 0.14934088 -0.05590942 -0.165952 0.13056618 0.03454875 -0.13430168
0.16383429 -0.13071318 -0.09143038 0.15807994 0.10962321 0.07165846 0.01995628 0.085292056
0.02615058 0.06346374 0.13916905 -0.05536451 -0.122942254 0.109927736 -0.01352562 -0.124490224
0.16855787 0.13254017 0.054415863 0.16328865 -0.039528582 0.1894619 0.2718234 -0.117529
0.21330023 0.053777706 0.01098636 0.000113398535 0.114700906 0.27433568 0.08153898 -0.039870076
0.16236092 0.12469755 0.12440281 0.2796675 0.095853634 -0.0071362024 0.11665921 -0.013817598
0.033358555 0.22938664 0.28961754 0.15618956 0.13649991 0.014328364 0.061905075 -0.002855242

rnn.weight_ih_l1 f4 [128, 32]
00000000: 56ba 33be d70e 453e f29c c43d d830 70be
00000010: fc98 6e3e 8445 4d3c dd7a 913f 33a6 bcbc
00000020: 8e48 4ebd 8baa 2f3c fe78 48be e696 883d
00000030: 334b df3d 31f0 d0be 4842 b7be eb29 fdbd
00000040: dcbc ae3a f468 a6bd da39 ac3d b2b7 963c
00000050: 530a 8c3e 88df 92bd fc11 333d 3074 623e
00000060: ecb8 513e 67cd b4bd f16b 73be 3a8f 10bd
00000070: 01e5 a4be 47b3 9cbe f082 43bd ebcf 66be
00000080: 5919 70bc ed02 923e 1c7d 3a3d d5e9 3f3c
00000090: 454d 583e b4a5 f73d c43c 9d3e 088d be3b
000000a0: 65a9 22bd 09d7 443d 7b75 dfbd 2ea5 f83d
000000b0: 35eb 903e 4c92 08bd 58f5 9e3d 3e7a 8abd
000000c0: f258 aabd 335d 6d3d 897f 6d3e d10e 55be
000000d0: 7806 283d 174b e5bd fee7 453d a858 19bd
000000e0: 3823 b2bc 776a f23d 9f7a 25bd b2cf 07bd
000000f0: 1775 7cbe e7ac 54be 24cf 85bc ef3b b4bc
00000100: 0f9f 3cbe 7752 843e 72fc 5e3d e9d2 65bd
00000110: 2c6a 7c3e e742 71bd 7978 8c3e 0771 3ebb
00000120: 7122 d03c 6b86 933d c59e 49be 869b 293e
00000130: 9ba8 aa3b a914 43be 28c5 c9bd 03ba 053c
00000140: 8447 5fbd 831f bf3d 5e5c b7bb c493 a7bd
00000150: f765 ceba 8e21 02be ea5a 6c3b 65f4 e9bc
00000160: 6c18 373e 9416 d7bc 3f8f fabd 29e5 cf3c
00000170: 75f2 8fbe 8de2 a9be 8183 393c f3f6 423d
00000180: 56aa 8dbd 9bcf 3b3d 0241 cd3d 0f78 083d
00000190: 7969 773d 729f 39bd 404b 72bb 9480 70bc
000001a0: cc50 cf3d 7864 4abe 1ec7 53bc 3ce3 ac3c
000001b0: 875e d4bc d845 cc3c a67c 263e 01f0 c43d
000001c0: 1ce2 31be b601 ef3d b8ca 0bbe 5e19 93bd
000001d0: 77f4 09be 8331 e83c 2c1b 673d 83c5 e9bc
000001e0: cefe 22be 0344 11bd 0248 c33b a512 f53d
000001f0: 797f 98bd ff82 043e 1ae6 a63d b7aa 1c3e
00000200: d460 df3d dd36 bbbd d935 4dbe eabc 5b3d
00000210: cce8 56be 9850 583c b25f 2b3e 891d 233e
00000220: 63d0 ce3d 9a74 73be 1cb4 4d3d ef9c 153d
00000230: 97ec 0ebe 4c99 b83d f7f3 7cbd 4621 c33d
00000240: ea8c bb3d 057d 79bd 6c3a a93c b12e 333d
00000250: ca5b 5ebc 765c 03bd 788f b1bc df80 03bd
00000260: 35c1 ca3c 174b dcbd c8d1 dcbc ce25 17bd
00000270: 2b44 77bd 3a4e 863d c8ee c53d 2477 b43c
00000280: d811 143d ce1c 183e 73de 03bc b6dd bdbb
00000290: 054f e23d 8e9e dabd a5ea a73c 2601 3d3d
000002a0: f5b4 543d 0679 31bc 2e61 03bd 607f 1bbd
000002b0: b28d 97bd 731f b2b4 9b09 81bd ef27 e83d
000002c0: 4fdc 0dbd f6fe 26be 057d f0bd f7a4 5cbc
000002d0: 34a8 5b3c 388e 883d c563 083c c4be abbc
000002e0: 3882 bf3d 9226 50bd b37f c9bd 00bd 873c
000002f0: 81b1 36bd 76bf 95bd 501c adbc b2a7 a0bc
00000300: 1b08 98bd 00f8 98bd 1976 333d cb32 0ebd
00000310: 6850 06be 29ec 19be 8992 b23d 0e53 f93c
00000320: dd6d 79bc b311 bcbd c4be 4b3d 8685 a9bd
00000330: d87d bebc 1d6a c43d bada 893d c24f d3bc
00000340: e01c 823d 70e2 fa3c 7b25 66be db38 14bd
00000350: cd76 fb3d 4ae2 e83d 296c 95bb f736 e2bd
00000360: b0ae 2a3e b985 3d3d 9999 d33c 9b57 27be
00000370: 5c3e 0ebe da4b 0e3e dea5 8a3d eea7 e1bd
00000380: 036e 5cbc 5448 333d c501 0abe e916 e63d
00000390: 6865 f63d 3bf5 d3bd 118b ec3d 1e41 423d
000003a0: 5e49 f43c 5827 d33d 82d2 403e 9a14 dbbd
000003b0: 10aa 94bd 0742 a5bd b251 dabd 03f4 483d
000003c0: 7ce7 e0bd 12cb e9bc c6e3 0c3e c49e 08bc
000003d0: 32a9 523e 5c03 833d fb1f ce3d 9eee f23d
000003e0: 631f f73d 88e2 c03c 49d9 9ebe 2f2b 983d
000003f0: a118 aabd 1835 48be 8122 2b3e 7e47 033e
-0.1755155 0.19243942 0.096002474 -0.23456132 0.23300546 0.012528781 1.136562 -0.023028469
-0.050362162 0.010721813 -0.19577405 0.066694066 0.10903015 -0.40808252 -0.35792756 -0.12361511
0.0013331431 -0.08125487 0.08409472 0.01839814 0.27351627 -0.071715415 0.043718323 0.22114635
0.20480698 -0.0882824 -0.23771645 -0.03529284 -0.32205966 -0.30605528 -0.047732294 -0.22540252
-0.014654481 0.28517857 0.04552947 0.011713465 0.21123226 0.12092152 0.30710423 0.005815152
-0.03971233 0.048056636 -0.109110795 0.121408805 0.2830445 -0.033342645 0.07761639 -0.06761597
-0.08317746 0.05795021 0.23193182 -0.20806433 0.041021794 -0.11195963 0.048316948 -0.037438065
-0.02174531 0.11836713 -0.040400144 -0.033157058 -0.24654041 -0.20769082 -0.016334124 -0.022001235
-0.18420051 0.25844166 0.05443997 -0.056109343 0.24649876 -0.058901694 0.27435663 -0.0029059069
0.025407048 0.072033726 -0.19689472 0.16563234 0.0052080876 -0.1905085 -0.09852058 0.008162024
-0.054511562 0.09332182 -0.005595728 -0.08182481 -0.0015746941 -0.12708113 0.0036064931 -0.02855892
0.1788041 -0.026255883 -0.12234353 0.025377827 -0.28114668 -0.33180657 0.011322857 0.04759879
-0.069172546 0.045852285 0.10022165 0.03331762 0.06040332 -0.045318075 -0.0036971122 -0.014679093
0.10122833 -0.19764888 -0.012925891 0.021104448 -0.02592398 0.024935648 0.16258487 0.096160896
-0.1737141 0.11670248 -0.1365155 -0.07182573 -0.13472162 0.028343922 0.056422397 -0.028536564
-0.15917513 -0.03546525 0.0059595117 0.11966447 -0.074461885 0.12940596 0.08149357 0.15299498
0.109071404 -0.09141324 -0.20040073 0.05364696 -0.20987242 0.013202809 0.16735724 0.15929236
0.1009834 -0.23774949 0.050220594 0.036526617 -0.1395744 0.09013614 -0.0617561 0.09527831
0.091577366 -0.060910244 0.02065774 0.0437457 -0.013571689 -0.0320706 -0.021674857 -0.032105323
0.024750331 -0.1075651 -0.0269555 -0.036901288 -0.060367744 0.06557889 0.096646845 0.022029467
0.03614983 0.14854738 -0.0080486415 -0.0057942523 0.11050228 -0.10674773 0.02049763 0.046143673
0.051930387 -0.010832077 -0.0320751 -0.03796327 -0.07400073 -3.3177966e-07 -0.0630066 0.11335742
-0.03463393 -0.16308197 -0.117425956 -0.013467065 0.013406802 0.06667751 0.008324568 -0.020964988
0.09351009 -0.050818034 -0.0983881 0.016569614 -0.044602875 -0.07311909 -0.021131665 -0.019611213
-0.07423421 -0.07469177 0.0438138 -0.03471641 -0.1311661 -0.15031494 0.087193556 0.030435111
-0.015223947 -0.09183063 0.049742475 -0.08277421 -0.023253366 0.09590552 0.06731172 -0.025794867
0.06353164 0.030625552 -0.22475235 -0.036187034 0.12278519 0.11371286 -0.004560013 -0.1104564
0.166682 0.046270106 0.025830077 -0.16342013 -0.13890976 0.13896123 0.06769918 -0.11018358
-0.013453963 0.04377015 -0.13477238 0.112348385 0.120310605 -0.103495084 0.11549962 0.04742538
0.02982014 0.103102386 0.18830302 -0.10697289 -0.07258999 -0.08069234 -0.106601134 0.049060833
-0.10981652 -0.028539214 0.13758764 -0.008338634 0.20572355 0.06397125 0.100646935 0.11861919
0.120665334 0.023545519 -0.3102515 0.074301116 -0.08305479 -0.19551504 0.16712381 0.12820241

rnn.weight_hh_l1 f4 [128, 32]
00000000: 7f62 063d a921 fdbe 996d d0be 740f 0fbd
00000010: 1c2b be3e 9dc4 c6bd 81af 68bd 2a87 e93c
00000020: b5c7 d2bb 8e40 a93d 7d81 a33c 1f84 c43d
00000030: 927a 35be e248 0ebe 71a4 8a3d c479 9fbe
00000040: 6521 6d3e 053c 133e 39cf a63e c7ac d63d
00000050: 2297 67be 5710 55bc 0c65 133f d5dc 6a3e
00000060: 3699 f8bc 94c5 6fbe 3381 9bbe 69b5 e0be
00000070: 7d52 8d3e cf37 27be 1b8c 043e 99a3 53be
00000080: 16a7 873c 241a 9cbe 9e17 7cbe dad4 f8bb
00000090: d3fb 80be 55d9 eb3d a434 9b3e 13f0 7abd
000000a0: 7afb e73c 88c3 003e 978c 37bd 1f72 fcbb
000000b0: a300 083e 353b af3d 8aac cd3d 4aee 3b3e
000000c0: 0be3 20be 7f41 27be 171b 0f3e 9ea6 8bbe
000000d0: 25f7 adbc 4289 21be 3f00 23be f979 453e
000000e0: ba9c 80be b358 8ebd 01f2 61be f6e1 d43d
000000f0: d154 c3bd 71cd 9a3d 384a 63bd 1bf0 9a3d
00000100: 29a3 86bd 8e33 283d 7752 9cbb e8b0 bdbc
00000110: cb40 a1bc ab81 8d3d 5e9c c33d 6963 8ebd
00000120: 5845 b2bd 5a5b 353e e1c2 5fbd 915e f2bd
00000130: f3f1 32bd 9df9 0cbd f5ca 003e 7353 68bd
00000140: 1e96 1bbd d8c8 8fbc 2e5f 9f3d 66a3 bfbd
00000150: 6a34 8a3d 9a55 d8bc 0a8c 47be 9e34 6d3d
00000160: 768d cabd 94e1 193d e5e2 883d a5b1 c6bd
00000170: 3b97 05bc c8e0 043c cceb b93d 771f 543d
00000180: 8e1d 04bd 0a61 8b3d 1e27 023e 9b69 42bc
00000190: b688 d83d d15f a1bd c71e c5bd c754 373e
000001a0: 8ce0 42be 7383 333e 4fa9 62bd 6cab 02be
000001b0: f1d2 6bbd 04fc bfbd 3362 ecbd 4cdf 84be
000001c0: 2f7f 72bd a4be 083e a898 0dbe 4cad 02be
000001d0: 7bd9 cfbd bda9 60bd 5b78 4b3d 0e83 3abe
000001e0: 08cd d4ba 003c 843e 77fe b73d 0ff5 54be
000001f0: ab00 993b 7c39 023e 97bd d4bb 6e40 0fbe
00000200: 04d2 25bd 7efc 14be cb16 49bd 6c17 933e
00000210: f4c1 223e 4abd 36be c83d a6ba 65e6 08bd
00000220: 7b38 85bd 2e41 373e e9f0 e9bd ae55 3abb
00000230: 2179 cabd 2b08 1dbe ff30 1c3e 6d6f 8fbe
00000240: 0059 403e e3b1 d63d d812 783d 4f28 3f3c
00000250: 0590 9f3c 8703 5a3e c6a7 ce3e 2a7e 0e3e
00000260: 2fc1 463e 4fa7 5c3c 47be bdbd cfab aabd
00000270: 1d4a 903d 37f2 c2be 83c3 433e b8f5 ea3d
00000280: 2912 143e 5fe3 0bbd be36 87bd 5ccf 04be
00000290: ef4d 90bd 544f 37bd 17eb 26bd bf90 023e
000002a0: e82a fdbd b79d 603e 928f 4abd 3a26 353d
000002b0: bddb b1bd 0898 98bd 476a fd3b 9188 71be
000002c0: f307 033e 4acf 423e ec1b 1dbe b90e 1bbd
000002d0: defa d03a 68f6 c9bc 4611 7d3d 115c 75be
000002e0: fb64 533b 7533 233e c0f5 573c 47e9 86be
000002f0: 2fdc 92bd 15bf db3c e004 85bd 3ddf 3dbe
00000300: 1a1e dfbd daf7 f2bd 2a4f cabd 5dd2 21be
00000310: cba4 af3d 0006 0bbc ac33 0bbe cc1e 223e
00000320: 993f a5bc adf8 fc3c 0955 2d3e 3f35 07be
00000330: 0d01 3b3e d38c 6e3d 49d0 57be 632b 0abe
00000340: b8a8 c73a 2c11 593e 65c6 35be 9a85 41bc
00000350: d8db 04be 9a95 08be cb94 8c3e ab82 04bd
00000360: 8b88 34be 80c3 013c e1fe 4a3d 2440 84bd
00000370: 653c 0abc bdf1 723e 95f9 133d 4467 03be
00000380: 09d5 20bd e7fe a6bd 97cd ddbd f090 023e
00000390: a54f 47be 606f 3ebd a0c9 2f3d 311c 1ebc
000003a0: 5fe3 293d 0540 123e 26ae 003d cdee 90bd
000003b0: cb94 16bc 89b3 fc3c 4815 4b3e 0afe 81be
000003c0: 8d6b 1f3e bfd5 fc3d 7060 9d3d 189a 59bd
000003d0: 1c6a b0bd 31d7 293e db8c d1bd 77cd a9bd
000003e0: d680 823c 40e7 6e3e 41d8 d03c 0e27 23be
000003f0: e106 763d 732f bebd 07cb eb3b 9052 d43d
0.032808777 -0.49439743 -0.40708616 -0.034926847 0.37142265 -0.0970547 -0.056808 0.028506834
-0.0064324983 0.08264266 0.019959206 0.095955126 -0.17722538 -0.1389499 0.06769646 -0.31147587
0.2315727 0.14378364 0.32579973 0.104821734 -0.22616246 -0.013004384 0.5757606 0.22935803
-0.030346494 -0.23415214 -0.3037201 -0.43888405 0.27601996 -0.16329883 0.12944071 -0.20667876
0.016559165 -0.30488694 -0.24618384 -0.0075937333 -0.25192127 0.11516062 0.303136 -0.06126411
0.028318156 0.12574589 -0.04481181 -0.007704034 0.13281493 0.08556215 0.10042675 0.18352619
-0.1571161 -0.16333579 0.13975178 -0.27275556 -0.021236012 -0.15775016 -0.15918063 0.1928481
-0.25119573 -0.06950512 -0.22064973 0.10394661 -0.09537662 0.07558716 -0.055490702 0.07565328
-0.06574089 0.04106479 -0.0047705728 -0.023155645 -0.019684216 0.06909498 0.09551309 -0.06952555
-0.087046325 0.17710629 -0.05462921 -0.11834443 -0.043687772 -0.034417737 0.12577422 -0.05672021
-0.03798496 -0.017551824 0.07781826 -0.09357338 0.067482784 -0.026408006 -0.19487014 0.057911508
-0.09890263 0.037568644 0.06683902 -0.09701852 -0.008153732 0.008110233 0.09078178 0.05178782
-0.032254748 0.06805618 0.12710235 -0.011865999 0.105729505 -0.07879604 -0.09625011 0.17903434
-0.1903097 0.17530613 -0.055337247 -0.12760705 -0.057574216 -0.0937424 -0.115421675 -0.25951612
-0.059203323 0.13353974 -0.13827765 -0.1276142 -0.10148903 -0.054849375 0.049675327 -0.18214056
-0.001623542 0.25827026 0.08984082 -0.20796607 0.004669269 0.12717241 -0.0064923274 -0.13989422
-0.04048349 -0.14549443 -0.049094003 0.28728807 0.158943 -0.17845646 -0.0012683207 -0.033422846
-0.065049134 0.17895958 -0.11422903 -0.0028432417 -0.09886385 -0.15335147 0.15253066 -0.280147
0.18783951 0.10483148 0.060564846 0.011667325 0.019477854 0.21290408 0.40362376 0.13915315
0.19409631 0.013467624 -0.09264808 -0.08333551 0.07045386 -0.3807542 0.1911755 0.114726484
0.14460053 -0.034152385 -0.06602238 -0.12969726 -0.07046115 -0.044753388 -0.040751543 0.12750529
-0.12361699 0.21935163 -0.049453326 0.04422591 -0.0868449 -0.07450873 0.0077336165 -0.23587252
0.12796001 0.19024387 -0.15342683 -0.037855837 0.0015943905 -0.024653628 0.06178405 -0.23960902
0.0032256234 0.15937598 0.01318115 -0.2634985 -0.07170903 0.026824513 -0.064950705 -0.1854219
-0.10894413 -0.1186368 -0.098783806 -0.15802903 0.08576354 -0.008485317 -0.1359393 0.1583206
-0.020171927 0.030880297 0.1692697 -0.13203906 0.1826212 0.05823977 -0.21075548 -0.13493113
0.0015232777 0.21197957 -0.17751463 -0.011811638 -0.12974489 -0.13338318 0.2745727 -0.032351177
-0.17630212 0.007920146 0.049559478 -0.06457546 -0.008437251 0.23725028 0.03612669 -0.12832361
-0.039265666 -0.081540875 -0.10830229 0.12750602 -0.19463976 -0.046492934 0.042916894 -0.009650276
0.041476604 0.14282234 0.03141608 -0.07076798 -0.009190748 0.030847328 0.19832337 -0.2538913
0.15568371 0.12345456 0.076844096 -0.05312547 -0.08613989 0.16585995 -0.10231944 -0.082911424
0.015930574 0.23330402 0.025493743 -0.15932867 0.060065154 -0.09286394 0.0071958336 0.1036731

rnn.bias_ih_l1 f4 [128]
00000000: 6201 453d ae97 963d 8769 c83d b24c 07bd
00000010: fece 383c f21b bbbd c766 a8bd 5bcd 9d3d
00000020: 636d cf3d 9cd0 073e 7300 06be 4399 1dbc
00000030: 3639 293d 826b eabc 4c49 cbbd e14e d13d
00000040: 9945 bcbd ecf9 8dbd d08d febd ec0b ac3d
00000050: bbf4 82bd dcdb d13d 29f7 943d e830 0cbe
00000060: 698b d33d 6ff1 253e 7ebc b1bd 4e18 133e
00000070: eebd 51bb 3aff 0bbe c2af d5bd 460c 1bbd
00000080: 2d08 4c3e 518f 1cbe c817 a73d f360 07be
00000090: 8935 e4bd 1e6c df3d 09e0 f73d f69c 523e
000000a0: 08d9 783e bcf8 023e d768 083e 1da0 053e
000000b0: 9fdc e3bd b3aa 263a 10ce 303e 95cf 3e3e
000000c0: dbe3 02bc 3e28 1e3e 24aa 003d b573 5b3e
000000d0: be2f 8e3e 6af3 df3c c887 bf3d 8a44 713e
000000e0: 5af1 1dbe a196 ad3e 60b5 213d af02 93bc
000000f0: 08fa 133e 04db 2e3e 2af7 883e fe27 843d
00000100: 0313 203e 2081 823d 221c a23c d1e7 2abd
00000110: 0a36 0cbe b228 a5bc 17b5 0bbe 7c5a b4bd
00000120: a166 3fbe c390 b43d 89fc eaba b91d d63c
00000130: 2b2c babc 4e0c cbbd bd08 cc3d 75d9 19be
00000140: db04 d4bd d30e e63d e0b3 de3c 5355 edbd
00000150: 44b0 093e d51a 983d fa25 103e 8028 703d
00000160: 1476 853d 49dc fc3d a722 1abd ad84 b4bd
00000170: 21dc 303d fedc 0b3c 5d90 033e 39ce 9bbd
00000180: f00d bebd 4ee6 dabd c92b 9abd da66 fd3d
00000190: dcc1 2abe 5fa0 bcbc 8875 48bd 3269 063c
000001a0: 9f4a efbd 4266 91bc 3df0 8d3d 40b2 ce3d
000001b0: 50fc a03d 3f74 a43d 1918 1dbe 53f7 a0ba
000001c0: 5530 19be 8089 dcbd cd61 8f3c 9003 443d
000001d0: 98d6 453d 7262 fc3d 28b9 1f3e 5214 68bd
000001e0: a631 023d 0e98 70bd df8d 383d a2bf 9a3e
000001f0: 12e3 40be 4a6e 90bc 506a ed3d 6362 bcbc
0.048097022 0.07353149 0.09785753 -0.033032127 0.0112798195 -0.091361895 -0.08222728 0.07705184
0.10128286 0.13263172 -0.13086109 -0.00961906 0.041314326 -0.028615717 -0.0992609 0.10220123
-0.09192962 -0.069324344 -0.12429392 0.084007114 -0.06394335 0.10247013 0.072737046 -0.13690531
0.10329325 0.16205381 -0.0867853 0.1436474 -0.0032004076 -0.1367158 -0.10433914 -0.0378535
0.19924994 -0.15289046 0.08158833 -0.13220577 -0.111430235 0.109092936 0.12103278 0.20567688
0.24301541 0.12790197 0.13321243 0.1304936 -0.111260645 0.00063578336 0.17266107 0.18633874
-0.007988895 0.15445039 0.03141226 0.21430857 0.277708 0.027337749 0.0935207 0.23561302
-0.154241 0.33903983 0.039479613 -0.017945616 0.14450848 0.17075735 0.2675107 0.064529404
0.15632252 0.06372285 0.019788805 -0.041724984 -0.1369249 -0.020161007 -0.13643299 -0.08806321
-0.18691494 0.088166736 -0.0017928045 0.02613722 -0.022726139 -0.09914456 0.09962604 -0.1502436
-0.103524886 0.11233296 0.02718538 -0.1158854 0.13446146 0.07426993 0.14076987 0.058632374
0.06516662 0.123467036 -0.037630703 -0.088143684 0.04317868 0.008536575 0.12848039 -0.07607693
-0.09280002 -0.106884584 -0.075278826 0.12373133 -0.16675514 -0.02302569 -0.04894021 0.008203791
-0.11684155 -0.017748956 0.069305874 0.10092592 0.07860625 0.08029985 -0.15341224 -0.001228074
-0.14959843 -0.107684135 0.01750269 0.04785496 0.048300356 0.123234645 0.15597975 -0.056660004
0.03178563 -0.05873876 0.045057174 0.3022433 -0.1883662 -0.017630715 0.11592543 -0.022996133

rnn.bias_hh_l1 f4 [128]
00000000: cdc3 ad3d 9c4b 66bc aa0c 213e 6312 3abe
00000010: 5d7c a43d c180 c93d 0909 86bd c85f c73d
00000020: f95e 413e 9ef6 a1bd 3349 f6bd 58bc 82bd
00000030: c2a2 3a3e e7a4 a5bc 38f4 e23d 75ad 303d
00000040: bc41 bb3d 87ce 883d 504f ef3d bd0c 023d
00000050: bbdd ddbd 0f72 aa3c 5eb5 373e a242 e53d
00000060: cfae bcbd 8e63 5abc 1bd9 0abe 007b ce3d
00000070: c42b fbbd 609d 1c3c f402 ebbd 1926 943d
00000080: bf4b 013e 588e bdbd 8bff 243b f9a8 1b3e
00000090: 6e5f 9dbd 287a 723e 63b5 febd 5de7 023d
000000a0: ae52 b53d 80a5 4b3e 329e 91bd 20b8 8d3d
000000b0: d46d b1bd c016 50bd 2e6f c63c 445f b2bc
000000c0: 0488 893d f03c 3b3e dd25 233c a595 213c
000000d0: 98cd f23d 30ed a83b c463 18bd 665a 183e
000000e0: 6ed0 22bd a879 243e d7c9 a1bc 657c 29be
000000f0: 94f5 c9bd d12c 0b3e 93fa 1c3e d6b9 653d
00000100: c674 e6bd d9aa 1f3c 131d 97bd 22f0 913d
00000110: 8657 193e 6978 af3d 9cd6 9a3d c129 083e
00000120: fb4a cd3d c854 76bc b4b0 033d 61de b43d
00000130: c237 1d3e 38f5 a13d 8c14 3aba aa60 123b
00000140: 80e5 cb3d af14 3c3d 3f13 b2bd be3e f23d
00000150: feae cdbc 16dd cf3c 301b 783d e5a3 5a3d
00000160: e580 44bd 0bb9 453d 56c9 a73c 6c67 23be
00000170: f7c3 c9bc db21 d8bd daf5 443c b0d6 b1bd
00000180: 3283 80bd 0a79 86bd b476 3c3d 7131 223d
00000190: d402 77bd a032 5dbd 64ae 6c3e 0b3a 98bd
000001a0: bd06 113d 0783 56bd 9ecc 813d 5881 cd3d
000001b0: a6b7 babd ab47 f1bb e2ae b43d ec3f 20bd
000001c0: 8f4f 063e 3397 eabc 86ce f7bd 279b d03c
000001d0: 66af 253e a29d 1ebd a53a b33d c027 b6bd
000001e0: 37f8 4abe 85c6 b33d e40a c13d e5bc 4e3e
000001f0: 4649 1fbe a607 753d 3464 41bd 5fd5 3bbd
0.08484612 -0.014056113 0.15727487 -0.18171076 0.08031533 0.09839011 -0.06544692 0.09735066
0.18883885 -0.079083666 -0.120256804 -0.0638358 0.1822615 -0.020220233 0.11081737 0.04313417
0.09143397 0.06680017 0.116850495 0.03175043 -0.10833307 0.02080634 0.1794028 0.1119435
-0.092130296 -0.0133294 -0.13559382 0.10082054 -0.12264207 0.0095590055 -0.11475173 0.07233829
0.12626551 -0.092556655 0.002517673 0.15201177 -0.076842174 0.23679411 -0.124369405 0.031958926
0.088536605 0.19887352 -0.071102515 0.06919885 -0.08663526 -0.050802946 0.024222936 -0.021773942
0.06715396 0.18284965 0.009957758 0.009862338 0.1185562 0.005155228 -0.03720452 0.14878234
-0.039749555 0.16062033 -0.019749565 -0.16551359 -0.098612934 0.13591315 0.15329961 0.05608543
-0.112527415 0.009745323 -0.07378592 0.0712588 0.14974794 0.08567888 0.07560465 0.13297178
0.10024067 -0.015034862 0.03215094 0.08831478 0.15353301 0.079081 -0.00070983986 0.0022335448
0.09955883 0.045918163 -0.08695077 0.118283734 -0.025107857 0.025373977 0.060572803 0.05337896
-0.047974486 0.048272174 0.020481747 -0.15957421 -0.024629576 -0.105533324 0.012021506 -0.086835265
-0.062750235 -0.06566055 0.04601164 0.039597932 -0.06030543 -0.054003358 0.231134 -0.07432946
0.035406817 -0.05237105 0.06337856 0.10034436 -0.091170594 -0.00736328 0.08822419 -0.03912346
0.13116287 -0.02863655 -0.12099938 0.025464607 0.1618019 -0.03872455 0.0875142 -0.088943005
-0.19821249 0.08778099 0.09425905 0.20189245 -0.15555295 0.059821747 -0.0472147 -0.045857783

decoder.weight f4 [3, 32]
00000000: 86c5 f83e 2628 4cbd 4043 68be abd5 a0be
00000010: 0096 d7be edde c73c 7995 ee3e 7105 adbe
00000020: ddae ed3d 00a6 51be 1e08 84bd 6745 83bd
00000030: 0621 513e c7dc 303e 86e9 25be a675 cf3e
00000040: 3fb7 30be 3069 98bd 7810 853e aa9d 6bbe
00000050: 354e 9ebd 6d71 62be 8aef bbbe cd77 8b3e
00000060: 0cf3 cfbe 196a 2dbd 356d b2bd d810 ea3e
00000070: 5cda 06bd bc2b a83e 783d 51bd 8761 86bd
00000080: 2711 c13d 0276 f7be 474a c1be 860e d4bd
00000090: d929 23be b1fa 7f3c 0a8c ccbd 1898 80be
000000a0: 4613 11bf 076c 8dbe 72be 23be ce7f 1e3f
000000b0: 53bf 1f3e 67f0 073f 9710 01be 1b79 7d3d
000000c0: 1c1f 47be 8efc ffbd 7b15 883e 2f29 70bd
000000d0: ffcd 1ebd 744f a6be a6fa 3b3c 937f d13d
000000e0: b5d4 5fbe 1b51 9c3d e3a5 d6be 6248 8dbe
000000f0: 73db ffbe 5e4b 363d 2cf8 2dbe 3b51 12bd
00000100: 0443 3ebd b9eb 203e e281 31bd f390 abbe
00000110: e410 1f3e c444 c63e be9f 123e 8288 7e3e
00000120: 1d0a 44bd 7f18 6abe 4247 a53e 432d da3d
00000130: e180 c23e 376e 7dbc dc76 a7be 41c4 20bc
00000140: f91b d2be 902f d3be 5ad6 80be b3b2 a13e
00000150: 8d17 943e 0056 383e a145 2e3e 7a02 f6bd
00000160: f1ad 1abe f746 9fbe 4bcb d83d 681b 2b3e
00000170: 43fe d33d d7bc a33e 13ab b4be 97f1 8bbe
0.48588198 -0.049842976 -0.22681904 -0.31413016 -0.42106628 0.024398291 0.46598414 -0.33793214
0.11605618 -0.2047348 -0.06446861 -0.06409722 0.20422754 0.1727172 -0.16202363 0.40519446
-0.17257403 -0.07441938 0.25989127 -0.23009363 -0.077297606 -0.22113581 -0.3670619 0.27239838
-0.40615118 -0.04233751 -0.08712236 0.45715976 -0.032923087 0.32845867 -0.05108401 -0.065615706
0.094271 -0.4833222 -0.37751982 -0.103543326 -0.15933932 0.015623734 -0.09987648 -0.25116038
-0.56670034 -0.2762148 -0.15990618 0.61913764 0.15600328 0.531012 -0.12603985 0.061883073
-0.19445461 -0.12499343 0.26578888 -0.058633026 -0.038770672 -0.32482493 0.011473333 0.10229411
-0.21858485 0.07632657 -0.41923437 -0.27594286 -0.49972114 0.04450547 -0.16989201 -0.035722
-0.04645063 0.15714921 -0.043336757 -0.33509025 0.15533787 0.3872434 0.1431875 0.24856761
-0.047861207 -0.22860907 0.32280928 0.10653164 0.37988952 -0.015468172 -0.3270787 -0.009812416
-0.41036966 -0.41247225 -0.25163537 0.3158165 0.28924218 0.18001556 0.17018749 -0.12012191
-0.15105416 -0.3110883 0.1058565 0.16709673 0.10351231 0.3198001 -0.3528677 -0.27332756

decoder.bias f4 [3]
00000000: c24c 923a 56f6 323d 2044 87bb
0.0011161792 0.043691956 -0.004127994

exp_avg f4 [32, 3]
00000000: 133a 4aba f96c 6dbb ad5b b33b 0259 8a3a
00000010: 0870 963a caf4 113b 55ac f43a a2ae e53a
00000020: cd13 be3a 496d c6bb 6a9e 38bb 38a9 31bc
00000030: 9a9a 733b 8b5d ea3b 87bc 8dbb 9000 ba39
00000040: 1117 463b 74b3 5fb9 d4cf a637 0652 10bb
00000050: 9f26 5fbb be8e 7b3b 8062 053c 79aa 483b
00000060: f327 d93a ef53 593b 65ce 213a e5fb 45ba
00000070: 96eb 7dba 5a2d 85b9 e669 94ba b7b9 4f3b
00000080: 1dd0 c0bb d20c bfba 824d f2ba b499 203b
00000090: eb4d c23a baf3 b43b d847 053a 9ff8 85bb
000000a0: 9e5b dbbb b003 5fbb 5873 c43a 2eef feba
000000b0: d1dd 943a 18a8 493a 7e1d 833b 3375 d4ba
000000c0: 8fea 913b 854b 9fbb 54ee 213c d528 a1bb
000000d0: 942e 4cbb a9f4 a4bb 27bd 343b 293f 333b
000000e0: e98d 093b 9de2 86bb cfb4 e9ba 1ab4 c73a
000000f0: 8f58 47bb 7a95 59ba 8ade b1ba da96 46b9
00000100: fde6 6d3a 73d0 9fb7 2877 41bb f0bf f239
00000110: 37a7 acbb e8a5 8939 9687 5a3b 14fe 8bba
00000120: 100d a1ba ef07 6f3b e02a 5ebb 9917 ea38
00000130: dd51 153a c0c2 f5ba 427a 893b 7501 483b
00000140: db57 40ba e6cd 2a3b bd52 283a 9dd1 82b9
00000150: ab6b 5b3b ae5e 79bb d57f 0b3c 8fa5 143b
00000160: 28e6 2fbb 7c73 fd3b 338b 2e3b 3a1d 273b
00000170: cd42 803b cf99 3cbb 5d71 b8bb 2f60 b33a
-0.0007714342 -0.0036228283 0.005473575 0.0010555091 0.001147748 0.002227115 0.0018667082 0.0017523358
0.0014501751 -0.0060555083 -0.0028170594 -0.010843568 0.0037171007 0.0071522645 -0.0043254527 0.00035477104
0.003022615 -0.00021333789 1.988552e-05 -0.0022021546 -0.003405012 0.0038384642 0.00814116 0.0030619188
0.0016567692 0.00331616 0.0006172418 -0.0007552489 -0.0009686289 -0.00025401526 -0.0011323064 0.0031696388
-0.005884184 -0.0014575964 -0.0018486234 0.0024505677 0.0014824247 0.0055222185 0.0005084253 -0.004088476
-0.006694271 -0.0034029298 0.0014987988 -0.0019449943 0.001135761 0.00076925894 0.0040013185 -0.0016209244
0.0044530104 -0.0048612976 0.009883482 -0.0049181976 -0.0031155692 -0.0050340486 0.0027578564 0.0027350879
0.0020989126 -0.00411637 -0.0017830374 0.001523617 -0.0030417775 -0.0008300167 -0.001357035 -0.00018938948
0.00090752525 -1.9051344e-05 -0.0029520486 0.00046300841 -0.005268957 0.00026254286 0.0033344976 -0.001068058
-0.0012287218 0.0036473235 -0.0033900067 0.00011162385 0.00056960975 -0.0018750057 0.0041954825 0.0030518447
-0.000733731 0.0026062666 0.00064210204 -0.00024951706 0.0033480923 -0.0038050818 0.008514364 0.0022681688
-0.0026840065 0.007734714 0.0026633262 0.0025499598 0.0039142133 -0.00287782 -0.0056287483 0.0013685281

exp_avg_sq f4 [32, 3]
00000000: 1a6d e739 fea2 073a d66a ca3a 4ae5 d939
00000010: 55a1 4e39 d116 2339 8fbe c038 dbd2 b438
00000020: c83f 9d39 9713 cc3b 5306 fa3b 44c1 953b
00000030: 3438 283a d332 063b 8d64 003b f4cb 0c38
00000040: a626 6438 4a4c 9938 3232 ec3a d3e9 0e3b
00000050: 82f1 c33a 1a68 153a 1e53 3e3a b369 3d3b
00000060: 33a8 8039 d794 4b39 89a0 8939 eb9b ae37
00000070: 1cfa a837 0502 8d38 b4d7 8538 55c8 9938
00000080: 0815 9039 232b 0c3a c2af a939 6b34 2c3a
00000090: e1b8 9439 3106 223a b0c1 0a3b 4f67 063b
000000a0: 1347 3b3b 8dec f23a f0ed 033a 8efa 653a
000000b0: 427f d23a f98d d737 1bcc 3938 350f 2938
000000c0: 6487 3739 049c c339 cbdd 0a3a 477b 283a
000000d0: 3434 a93a ef08 9d39 8d3c 9338 8e10 d838
000000e0: bfff 4339 1d9f 653a 37f7 183b 5667 2a3a
000000f0: a169 da38 aaa1 e038 7b3d 6e39 71dc 0f3a
00000100: 6b2e ed39 1b5b ca38 a22b e538 2ba3 6a39
00000110: 3ec2 c139 333e 103b 3006 173b 07f4 223a
00000120: bb7f 053a d572 7f39 fd4a 833a be18 f237
00000130: b058 8838 731a 0a39 f17c be38 1461 9339
00000140: aad2 4939 3d6d a538 2d74 2539 419b a439
00000150: bab2 cd3a c616 b83a 62e2 923b 9715 a239
00000160: eda4 283a 2be1 3b3a 91d8 393a 4955 2c3a
00000170: 5262 2a3a da35 083b f866 273b e711 613a
0.0004414104 0.0005174129 0.0015443217 0.000415603 0.00019705792 0.00015553391 9.190768e-05 8.622344e-05
0.00029992894 0.006227921 0.0076301484 0.004570158 0.00064170663 0.002047707 0.0019591183 3.3568547e-05
5.439543e-05 7.3098185e-05 0.001802033 0.002180685 0.0014949294 0.0005699411 0.000726031 0.0028902113
0.0002453938 0.00019415036 0.00026250284 2.0815021e-05 2.0143627e-05 6.72378e-05 6.382112e-05 7.332923e-05
0.0002748149 0.0005347004 0.00032365142 0.000656909 0.00028366505 0.0006180732 0.0021172576 0.0020508354
0.00285763 0.0018533632 0.0005032709 0.00087729923 0.0016059654 2.5696108e-05 4.4297525e-05 4.0306903e-05
0.00017502677 0.0003730954 0.0005297332 0.0006427061 0.0012909235 0.0002995203 7.020785e-05 0.00010302766
0.00018691922 0.00087593665 0.002334071 0.00065003836 0.00010414725 0.000107112646 0.00022720352 0.00054878654
0.00045238747 9.64908e-05 0.00010927698 0.00022376764 0.0003695655 0.002200973 0.002304446 0.00062161725
0.00050925807 0.00024361473 0.0010016855 2.886017e-05 6.501505e-05 0.00013170559 9.083178e-05 0.00028110354
0.00019247332 7.88816e-05 0.00015778905 0.0003139619 0.0015693523 0.0014044873 0.0044825533 0.00030915134
0.0006433267 0.00071670365 0.0007089461 0.0006573988 0.0006499636 0.002078405 0.0025543552 0.00085857365

exp_avg f4 [32]
00000000: 9045 f23b 6ee7 9e39 1dcb 2cba 1852 52bc
00000010: ad14 7ebb 8b63 97ba e8c1 1dbb 88bc 733b
00000020: bb6d 243a a65b cdba 683b c2bb 4a94 11b9
00000030: aed4 1cbb 0a84 75bb 9b5e 803b b352 80ba
00000040: a839 e53b a8c8 9cbb 84fc f23a 3755 43b9
00000050: 533a 0abb 7ac1 6fba 3379 9cbb 38f3 80bb
00000060: db31 0dbb 20ee a3b9 8782 6a3b dcb5 fd3a
00000070: 93eb 453c 3f3a aa3b 91e2 9a3b 73da 013b
0.0073935464 0.00030308537 -0.00065915455 -0.0128369555 -0.0038769648 -0.0011550052 -0.0024071876 0.003719123
0.00062724546 -0.0015667572 -0.005927492 -0.0001388352 -0.0023930478 -0.0037462735 0.003917528 -0.0009790271
0.0069953986 -0.0047846623 0.001853839 -0.00018628394 -0.0021091893 -0.0009145957 -0.0047751903 -0.003935244
-0.0021544609 -0.000312672 0.0035783367 0.0019356566 0.012080091 0.0051949318 0.004726716 0.0019814044

exp_avg_sq f4 [32]
00000000: 2dc7 783c 5b14 003b b53f 873a 8517 2a3d
00000010: 4ac8 563c 017c 823a 0d56 933c f631 933c
00000020: 2216 273b a15d ce39 8545 143a 5a7a a33b
00000030: 32cc 023c 182b 9a3c f4bc c83b 6b0d b639
00000040: 8ec1 313b 53f8 403b 5355 633a b045 aa3b
00000050: 779a 593a ff72 c039 13c3 623a cfbf bd3a
00000060: bc14 bb3a ea8a 663a 5722 1d3a 7be8 863a
00000070: 0e01 133d 6a28 623b 17ae 443b 8ac1 6b3b
0.015184206 0.0019543383 0.0010318669 0.041526336 0.013109276 0.0009955169 0.017985368 0.01796816
0.002549537 0.0003936114 0.0005656111 0.0049889507 0.007983254 0.018819377 0.0061260406 0.00034723742
0.0027123424 0.0029444888 0.0008672077 0.0051962957 0.000830091 0.00036706773 0.0008650284 0.0014476719
0.0014273147 0.00087945035 0.0005994192 0.0010292673 0.035889678 0.0034508952 0.0030010992 0.0035973513
