RNN_Time_series_Anomaly_Detection_LVTN/save/DCLV/checkpoint/DCLV.pth (torch, 219638 bytes, 44 tensors)

encoder.weight f4 [32, 4]
0	0x3e485dff	0.19567107
1	0x3dfbcdd3	0.12295117
2	0x3df88faa	0.12136777
3	0x3cc2eb6c	0.023793899
4	0x3da96eef	0.08273112
5	0xbe71dc36	-0.2361916
6	0x3d969745	0.07353071
7	0xbd24d0db	-0.040238243
8	0x3e41bfda	0.18920842
9	0xbdba624e	-0.091007814
10	0x3e453e70	0.192621
11	0xbc80b986	-0.015713464
12	0xbe3842ed	-0.1799428
13	0x3e25d17e	0.16193196
14	0xbd0f0e01	-0.034925465
15	0x3ce96a4e	0.028493073
16	0x3e081f37	0.13293158
17	0xbe36cbfb	-0.1785125
18	0xbe445ff9	-0.19177236
19	0xbc16a22b	-0.009193937
20	0x3e3088fc	0.17239755
21	0xbdefcbec	-0.11708817
22	0xbe125911	-0.14291789
23	0xbc4e70f4	-0.012600172
24	0x3e5226c0	0.20522594
25	0x3daeef5d	0.08541749
26	0x3e0faab5	0.14029963
27	0x3aae4c59	0.00132979
28	0x3e46c0d2	0.19409493
29	0x3e3a83a3	0.18214278
30	0xbe13de5d	-0.14440294
31	0x3ca04e71	0.019568654
32	0x3d4320db	0.047638755
33	0xbe13913a	-0.14410868
34	0xbe3f5121	-0.18683292
35	0xbc81fc20	-0.015867293
36	0xbdc91447	-0.09818321
37	0x3c956bf5	0.018239954
38	0x3dae9db2	0.08526172
39	0x3e48c276	0.19605431
40	0xbe7d03f0	-0.24708533
41	0xbe21f36c	-0.15815514
42	0x3d3c2bb9	0.045940135
43	0xbd0eeec2	-0.034895666
44	0xbe50da6b	-0.2039582
45	0xbdafef4c	-0.08590564
46	0x3ddac4e2	0.10682084
47	0xbcc2b98a	-0.023770113
48	0x3e0d97b3	0.138274
49	0xbe15062e	-0.14553139
50	0x3e02f1e3	0.12787585
51	0x3d2109d0	0.039316
52	0x3e3b0811	0.18264796
53	0xbe22005b	-0.15820448
54	0x3d3b26e5	0.04569139
55	0xbdd23419	-0.10263843
56	0xbc9a53d2	-0.018838797
57	0x3e5947fb	0.21218865
58	0xbd729494	-0.059223726
59	0x3cfb033e	0.030641194
60	0xbe2e7dc0	-0.17040157
61	0x3e42ae22	0.19011739
62	0xbdbb0593	-0.091319226
63	0xbcfa693f	-0.030567763
64	0x3d47b49a	0.04875622
65	0x3d95e7f4	0.07319632
66	0xbc87e1c7	-0.016587151
67	0xba209b08	-0.0006126617
68	0xbdef98f5	-0.11699096
69	0x3e4c2f52	0.19939926
70	0x3e4125cc	0.18862075
71	0xbc4500f0	-0.012024149
72	0xbdb3bc82	-0.087761894
73	0xbe6395f1	-0.22225167
74	0x3e1e8bc4	0.15483004
75	0x3cab774b	0.020930907
76	0xbe00bd12	-0.12572125
77	0x3d1497ba	0.03627751
78	0xbe3f893d	-0.18704696
79	0xbc92c6cf	-0.017917065
80	0xbe1bd3bd	-0.1521749
81	0x3e543b6d	0.20725794
82	0xbe443ee9	-0.19164623
83	0x3be6cd26	0.0070434986
84	0x3e20d555	0.1570638
85	0xbe3f42cd	-0.18677826
86	0x3e729950	0.23691297
87	0xbc639465	-0.0138903605
88	0xbe076608	-0.13222516
89	0x3df621cc	0.12018165
90	0x3de22fd4	0.11044279
91	0xbd42cef6	-0.047560655
92	0xbe8dbfba	-0.27685338
93	0x3d65f156	0.05613836
94	0x3db34581	0.08753491
95	0xbcce5f71	-0.025191994
96	0x3e2d7012	0.16937283
97	0x3e924e39	0.28575304
98	0x3e06b27b	0.13154022
99	0xbb0366aa	-0.0020050206
100	0x3e30056a	0.17189565
101	0xbdb75d76	-0.08953373
102	0x3e390cba	0.18071261
103	0xbd19722a	-0.03746239
104	0xbe0f5228	-0.13996184
105	0x3db47d11	0.08812917
106	0x3e32bdde	0.17455241
107	0xbcbde15f	-0.023178754
108	0xbe013426	-0.1261755
109	0x3dcb176d	0.099165775
110	0x3e1604cf	0.14650272
111	0xbd13b128	-0.03605762
112	0x3db0cf5f	0.08633303
113	0xbe0674b0	-0.1313045
114	0x3e5ff2b9	0.21869935
115	0x3ba646c1	0.0050743525
116	0x3e5ed38e	0.21760389
117	0x3cefc54b	0.029268881
118	0xbd8dae7e	-0.06918047
119	0xbba0d1e4	-0.0049078334
120	0xbe06c9a0	-0.13162851
121	0x3db9efdd	0.090789534
122	0xbe0d100d	-0.13775654
123	0x3d58c09b	0.052918058
124	0xbda9e6c1	-0.08295966
125	0x3e2f1cae	0.17100784
126	0xbbf71ad5	-0.0075410404
127	0x3c59e554	0.013299305

encoder.bias f4 [32]
0	0x3d28ea66	0.041239165
1	0x3da92f5e	0.08260988
2	0x3e9955ad	0.29948178
3	0x3eb51c7d	0.35373297
4	0xbe56a11f	-0.209599
5	0x3e004764	0.12527233
6	0xbc1953af	-0.009358331
7	0xbd5ec700	-0.054389
8	0x3d1c40dc	0.038147792
9	0x3e87e5b0	0.26542425
10	0x3d3d93ad	0.046283413
11	0x3d600416	0.054691397
12	0xbe1e3e34	-0.15453416
13	0x3ea7d965	0.32783046
14	0xbeb52788	-0.35381722
15	0xbe921577	-0.28532
16	0x3ec4a947	0.38410398
17	0x3e7b6796	0.24551234
18	0xbe66ecf9	-0.22551335
19	0xbe1b38ea	-0.1515843
20	0x3eb47bc4	0.35250676
21	0x3ecfad21	0.40561774
22	0x3e0e3255	0.13886388
23	0xbe83b1f0	-0.25721693
24	0xbe1a9a4a	-0.15097919
25	0xbe70cbd9	-0.23515262
26	0x3eaab6fb	0.33342728
27	0x3d13c4a1	0.03607619
28	0xbe884dd2	-0.26621872
29	0xbc3367f2	-0.010950075
30	0xbe33446f	-0.17506574
31	0x3c5f6ae6	0.013636326

rnn.weight_ih_l0 f4 [128, 32]
0	0x3d57c7f5	0.05268093
1	0x3d21cffb	0.039504986
2	0x3d2c3dea	0.042051233
3	0x3e10e5a5	0.14150102
4	0xbe068ab3	-0.13138847
5	0xbe0942e9	-0.1340443
6	0x3cce2a86	0.025166761
7	0x3da9e08d	0.08294783
8	0xbc9f3328	-0.019433573
9	0x3d2a98d7	0.041649666
10	0x3bc8f374	0.0061325375
11	0x3e257b42	0.161603
12	0xbd806089	-0.062684126
13	0xbd004df0	-0.031324327
14	0x3d39dd0e	0.04537683
15	0xbdfe73d2	-0.12424435
16	0xbca996f5	-0.020701865
17	0xbd50d620	-0.050985456
18	0xbd91979c	-0.07108995
19	0xbd34da2a	-0.04415337
20	0xbcc15214	-0.023598708
21	0x3de8af7a	0.113615945
22	0x3e3481c2	0.17627624
23	0x3d944298	0.07239264
24	0x3b6a0ae9	0.003571207
25	0xbb1e5217	-0.0024157816
26	0x3dedb4b1	0.1160673
27	0x3e252b68	0.1612984
28	0xbd680ffe	-0.056655876
29	0xbc89d6b2	-0.016826008
30	0x3e1347aa	0.14382806
31	0xbcadb3bb	-0.021203866
32	0x3cdd7ca7	0.027036978
33	0xbcc79883	-0.024364715
34	0xbda3c42a	-0.079964
35	0x3d130e42	0.03590227
36	0xbcf2c46c	-0.029634677
37	0x3d933b83	0.07189085
38	0xbd1b28ff	-0.037880894
39	0x3db9f773	0.090804
40	0x3dee2f2e	0.116300926
41	0xbcfdd655	-0.03098599
42	0x3e059d65	0.13048322
43	0xbc411b80	-0.011786342
44	0xbd374974	-0.044747785
45	0x3d5d83a0	0.054080606
46	0xbcd43062	-0.025901977
47	0xbc9e9733	-0.019359207
48	0x3ce72fbf	0.02822101
49	0x3c9a637f	0.018846272
50	0xbe521fec	-0.2051999
51	0x3cf12b23	0.029439515
52	0x3d5c524f	0.053789433
53	0x3d8208ed	0.06349359
54	0xbb8100ba	-0.003936854
55	0xbd7070bd	-0.058701266
56	0xbe219ede	-0.1578326
57	0xbe229b28	-0.158795
58	0x3dfc967d	0.12333391
59	0x3d8786eb	0.066175304
60	0xbdb41a60	-0.08794093
61	0xbc9590fc	-0.01825761
62	0xbdf4b256	-0.119480774
63	0x3d4a024e	0.049318604
64	0x3e1cab41	0.15299703
65	0x3d769df0	0.060209215
66	0x3d10c5c2	0.035344847
67	0xbdfa0da7	-0.12209635
68	0x3dabca3d	0.08388183
69	0xbd21de5d	-0.039518703
70	0x3d969fa6	0.07354669
71	0xbd900a16	-0.07033174
72	0xbb3dd161	-0.002896391
73	0xbd8f715f	-0.07004046
74	0xbd8d04fa	-0.06885715
75	0xbd1c0d57	-0.03809866
76	0x3e0c41ea	0.13697019
77	0xbd6cd345	-0.05781867
78	0xbd62eaa3	-0.05539955
79	0xbe1ac615	-0.15114625
80	0xbcee501a	-0.02909093
81	0x3e178617	0.14797245
82	0x3daae910	0.083452344
83	0x3e000964	0.12503582
84	0x3cfbd52a	0.030741293
85	0x3d864ce3	0.06557634
86	0x3db3790c	0.08763322
87	0x3c098239	0.008392864
88	0x3cb55eb0	0.022139877
89	0xbd5a760a	-0.053335227
90	0x3d9d6e2b	0.076870285
91	0xbd88330f	-0.06650364
92	0x3c58c71f	0.013231068
93	0x3df303f8	0.11865991
94	0x3dfab6b2	0.122418776
95	0xbdf64383	-0.120245956
96	0x3cfdae66	0.030966949
97	0xbbcc481d	-0.0062341825
98	0xbac3b407	-0.0014930972
99	0xbcb15d34	-0.021650888
100	0x3e165009	0.14678968
101	0x3df334cb	0.11875304
102	0x3d8ff1ac	0.07028517
103	0xbda18f95	-0.07888714
104	0x3d02ee2a	0.031965412
105	0x3db9a6d2	0.090650216
106	0xbc73c8d4	-0.014879424
107	0x3d8f0090	0.06982529
108	0xbd337471	-0.04381222
109	0x3e163ec8	0.14672387
110	0xbe13f6db	-0.14449637
111	0xbb25cccc	-0.002529907
112	0x3d7ef9ef	0.062250074
113	0xbd660264	-0.056154624
114	0xbd6b4971	-0.057443086
115	0x3b12c905	0.002239765
116	0xbd3afb8e	-0.045650057
117	0x3c87a15f	0.01655644
118	0xbdac4db5	-0.08413259
119	0xbd60a4a6	-0.05484452
120	0xbe1fac61	-0.15593101
121	0xbddd73c1	-0.10813094
122	0x3e009a70	0.12558913
123	0x3c8437fe	0.01613998
124	0x3d1704b5	0.036869723
125	0x3dc62d24	0.09676579
126	0xbde25f16	-0.110532925
127	0xbdae631b	-0.085149966
128	0x3bdd5073	0.006753975
129	0x3c823f8d	0.015899444
130	0xbd838fa7	-0.06423884
131	0xbdc67e13	-0.096920155
132	0xbde0301f	-0.10946678
133	0x3dfa4fb8	0.122222364
134	0xbdc67f53	-0.09692254
135	0xbe1b9af3	-0.15195827
136	0x3e11be18	0.14232671
137	0x3ddadfac	0.10687193
138	0xbd6e754b	-0.058217328
139	0x3d86fc31	0.065910704
140	0xbdbdd14d	-0.092684366
141	0xbd85bf5c	-0.065306395
142	0x3cb50aac	0.022099815
143	0xbd3c7891	-0.04601342
144	0x3e136287	0.14393054
145	0xbe00edf6	-0.12590775
146	0x3de49455	0.111611046
147	0x3d915d21	0.07097841
148	0x3e0cf84d	0.13766594
149	0xbd748e8c	-0.059706256
150	0x3dd61e9a	0.104550555
151	0xbe2e580f	-0.17025779
152	0x3c3404b8	0.010987453
153	0xbd154af1	-0.036448423
154	0x3d958497	0.0730068
155	0x3c8b60a6	0.017013859
156	0x3e01ba8e	0.12668821
157	0xbdcc7b64	-0.099844724
158	0xbdabc648	-0.083874285
159	0xbd928840	-0.07154894
160	0xbd2eb8a2	-0.04265655
161	0xbc799dfb	-0.015235419
162	0x3ce99ea6	0.028518032
163	0x3bdd13a8	0.006746728
164	0xbd8441b7	-0.064578466
165	0x3d20b38d	0.039233733
166	0x3e1028be	0.14078042
167	0xbe2e3cde	-0.17015406
168	0x3ccdf1ce	0.025139716
169	0xbdb8ee30	-0.09029806
170	0xbd5fd0e2	-0.054642566
171	0xbd5e1347	-0.054217603
172	0xbd9685a6	-0.0734971
173	0x3e022c8a	0.12712303
174	0xbc443893	-0.011976379
175	0xbe3b73c6	-0.18305883
176	0x3bd94e8d	0.0066316784
177	0xbd04ce8b	-0.032423537
178	0xbd614adb	-0.05500303
179	0x3d1fdf37	0.039031234
180	0xbe02dd6e	-0.12779781
181	0x3e5e72f8	0.21723545
182	0x3d9251d1	0.071445115
183	0x3d9b0b9f	0.07570576
184	0x3d8554f9	0.06510348
185	0x3e058cd2	0.13042
186	0x3e1fe8d2	0.15616158
187	0xbd722859	-0.05912051
188	0xbe21a1d9	-0.15784396
189	0xbdcf020d	-0.10107813
190	0x3afe7977	0.0019414861
191	0x3cc8d03f	0.024513362
192	0xbd2822ac	-0.04104869
193	0xbe135a29	-0.14389862
194	0xbdc88be1	-0.09792305
195	0x3e0e0f63	0.13873057
196	0x3c3ac04a	0.011398384
197	0xbdfca99b	-0.12337037
198	0xbdf69471	-0.12040032
199	0xbdd10f43	-0.10207989
200	0x3c8e3517	0.0173593
201	0xbcd457ae	-0.025920715
202	0xbd6ec171	-0.05828995
203	0xbdd5ea28	-0.104450524
204	0xbe2ac551	-0.16676833
205	0x3dd6a468	0.10480577
206	0x3e0fec6f	0.14055036
207	0xbd6ea360	-0.058261275
208	0x3e0f920f	0.1402056
209	0xbcc41bc1	-0.023939015
210	0xbd81cab5	-0.063374914
211	0x3da977ea	0.08274825
212	0xbd8074fa	-0.062723115
213	0xbde5f459	-0.11228246
214	0x3d74360d	0.05962186
215	0x3e094740	0.13406086
216	0x3dd48c72	0.1037835
217	0xbb596993	-0.00331745
218	0x3e0a27ae	0.13491699
219	0xbd233e0e	-0.0398541
220	0xbe4b8e4a	-0.19878498
221	0x3d840a06	0.06447224
222	0x3dba552d	0.09098277
223	0x3d71cf2e	0.059035473
224	0xbc024103	-0.00795007
225	0x3bfec6ae	0.0077751493
226	0x3dbe7fe0	0.09301734
227	0x3db03512	0.08603872
228	0xbceb7dc2	-0.02874649
229	0x3dca726c	0.098851055
230	0xbb541fac	-0.003236751
231	0xbd8152f8	-0.06314653
232	0x3dd0b6a1	0.10191084
233	0xbbf8f9d2	-0.0075981403
234	0x3db92ed3	0.09042134
235	0xbd082e5e	-0.033247344
236	0x3d5198ee	0.051171236
237	0x3cd1c429	0.025606232
238	0xbd3a1c4f	-0.045437153
239	0xbcdf74e4	-0.027277417
240	0x3daeea44	0.08540776
241	0x3c9220e1	0.017837944
242	0x3cc03fd7	0.023467941
243	0xbc007833	-0.007841158
244	0x3e1687fd	0.14700313
245	0x3d65cda7	0.05610433
246	0x3d4e7bfa	0.050411202
247	0x3c626007	0.01381684
248	0x3d99af87	0.07504182
249	0xbdbef4aa	-0.0932401
250	0x3d80171b	0.06254407
251	0xbcbf8e67	-0.023383332
252	0x3d4f6a52	0.050638504
253	0xbd95c4b1	-0.073129065
254	0xbdc82107	-0.097719245
255	0xbd1f1956	-0.03884252

rnn.weight_hh_l0 f4 [128, 32]
0	0xbe080233	-0.13282089
1	0x3e7af948	0.24509156
2	0x3d7ffa2c	0.062494442
3	0x3e102992	0.14078358
4	0x3e206b04	0.15665823
5	0xbce48aef	-0.02789828
6	0x3c9bea24	0.019032545
7	0xbdca70d9	-0.09884805
8	0xbdcea094	-0.100892216
9	0xbd3deb92	-0.046367235
10	0x3d0cce44	0.034376398
11	0x3d650663	0.055914294
12	0x3c9e13cc	0.01929655
13	0xbdbf8871	-0.09352196
14	0xbc32ecac	-0.010920685
15	0xbdc36980	-0.09541607
16	0x3da1bc21	0.07897211
17	0xbab43ed0	-0.001375163
18	0x3d9fcc06	0.07802586
19	0xbdfc59d8	-0.12321824
20	0xbcfbba66	-0.03072853
21	0x39fe995a	0.0004856091
22	0x3dbbc0bf	0.09167623
23	0x3d4fe8b9	0.05075905
24	0xbe137bda	-0.14402714
25	0x3dbf1b9e	0.093314394
26	0x3db4b02e	0.08822666
27	0xbe01bf3f	-0.12670611
28	0x3d9a0ac4	0.07521585
29	0x3d0a9166	0.03383007
30	0xbe26197c	-0.16220659
31	0xbc97a490	-0.018511087
32	0x3c5f5206	0.013630396
33	0xbcc5c260	-0.024140537
34	0xbcebebff	-0.028799055
35	0x3e033e54	0.12816745
36	0xbd15e312	-0.036593504
37	0x3e3535dc	0.17696327
38	0xbd098215	-0.03357132
39	0xbd40eff8	-0.047103852
40	0x3d5c35da	0.053762294
41	0x3d06b5c2	0.03288818
42	0xbd0cff7b	-0.034423333
43	0x3d6384b3	0.055546474
44	0x3d433e3a	0.047666766
45	0xbd2bf70c	-0.04198365
46	0xbe0b64f4	-0.1361273
47	0x3d2f8d81	0.042859558
48	0xbded755c	-0.1159465
49	0xbcf4f6b2	-0.02990279
50	0xbd924478	-0.07141966
51	0x3e02cc3f	0.12773226
52	0xbe13fe22	-0.14452413
53	0xbda82526	-0.082102105
54	0x3dd79068	0.1052559
55	0xbda0f74a	-0.07859667
56	0xbc2bbe52	-0.010482388
57	0xbcc585ce	-0.024111655
58	0xbd9c2fd5	-0.07626311
59	0xbd60bcc4	-0.05486752
60	0x3c8a71b3	0.01689992
61	0xbd406db2	-0.046979614
62	0xbd8a648e	-0.067574605
63	0x3dfefddb	0.12450763
64	0xbd9c229c	-0.07623789
65	0x3d1c8713	0.038214754
66	0xbd2da7e7	-0.042396452
67	0x3d531aba	0.05153916
68	0x3da738a3	0.081650995
69	0xbd773dae	-0.060361557
70	0x3d6df874	0.05809827
71	0xbd9128ea	-0.07087882
72	0xbe080c2f	-0.13285898
73	0xbe2220ed	-0.15832873
74	0xbd1f2647	-0.038854863
75	0x3e0e149a	0.13875046
76	0xbc381b62	-0.011236997
77	0xbc73c95a	-0.014879549
78	0x3decb0d3	0.11557164
79	0x3cb14953	0.021641409
80	0xbd61726b	-0.055040758
81	0x3ded859c	0.115977496
82	0xbdbb3f15	-0.09142891
83	0xbd98006c	-0.074219555
84	0xbe2737ad	-0.16329832
85	0xbdd9b3de	-0.1063001
86	0x3d58df5b	0.052947383
87	0xbb838432	-0.0040135616
88	0xbda955a1	-0.082682855
89	0x3e324059	0.17407359
90	0xbcd849ae	-0.02640232
91	0xbd4729d8	-0.04862389
92	0xbd73e763	-0.05954684
93	0xbc85486c	-0.016269885
94	0xbcaf4584	-0.021395452
95	0x3d87f4e8	0.06638509
96	0x3d920224	0.071293145
97	0xbe153a50	-0.14573026
98	0x3d68b84b	0.05681638
99	0xbda8a944	-0.0823541
100	0x3cbfd15b	0.023415258
101	0x3df22322	0.11823107
102	0x3d588aea	0.052866854
103	0xbcc50e02	-0.024054531
104	0x3d35d19c	0.044389352
105	0x3e1d5fb1	0.15368535
106	0x3e0ea39d	0.13929601
107	0xbb2d028d	-0.0026399225
108	0xbd4ea08f	-0.05044609
109	0x3c54ca93	0.012987751
110	0x3d6f9779	0.058494065
111	0xbdac2839	-0.08406109
112	0xbd1dff93	-0.038573813
113	0xbd533c37	-0.051571097
114	0x3dc09a81	0.09404469
115	0x3e058295	0.13038094
116	0x3dccd723	0.100019716
117	0xbd7ada5f	-0.06124341
118	0xbcc217e4	-0.023693033
119	0x3d836136	0.06415026
120	0xbcc2e300	-0.023789883
121	0x3c1f895e	0.009737341
122	0x3d6353ea	0.05549995
123	0x3d0f93ea	0.03505317
124	0xbdd9252a	-0.106027916
125	0xbdb1fd79	-0.08690924
126	0x3d0e007c	0.03466843
127	0x3b544823	0.003239163
128	0x3cd9ad98	0.026572034
129	0x3ddd9749	0.10819871
130	0x3df054d9	0.117349334
131	0xbb127df4	-0.0022352906
132	0x3d80acb1	0.06282938
133	0x3dc0e251	0.094181664
134	0x3d695787	0.05696824
135	0xbd908228	-0.07056075
136	0x3b9ac7bc	0.004723517
137	0x3d85fee7	0.065427594
138	0x3de06895	0.109574474
139	0xbc9c4657	-0.01907651
140	0x3be8630a	0.0070918845
141	0xbe0e4ad1	-0.13895728
142	0x3e37e204	0.17957312
143	0x3d627acf	0.0552929
144	0xbd10203b	-0.035186987
145	0xbd628763	-0.055304896
146	0xbe00b192	-0.12567738
147	0x3daebd36	0.08532183
148	0x3dde42c2	0.10852577
149	0x3e325cc4	0.174182
150	0x3d9c304c	0.076263994
151	0x3cddbe32	0.027068231
152	0xbdd58eb7	-0.10427611
153	0xbc33d358	-0.010975681
154	0xbcd64663	-0.02615661
155	0x3d98ed3b	0.07467123
156	0x3d9cedda	0.07662554
157	0xbbc0a2b9	-0.005878773
158	0x3d02ef95	0.031966764
159	0xbdc9cafd	-0.0985317
160	0xbc920fbd	-0.01782977
161	0xbd02c506	-0.031926177
162	0xbd65c931	-0.056100074
163	0x3dd7b31d	0.1053221
164	0xbc4cdb14	-0.012503404
165	0x3d6411f9	0.055681203
166	0xbe0858b6	-0.1331509
167	0x3d9b175d	0.075728156
168	0x3d08ef49	0.033431325
169	0xbd982da7	-0.074305825
170	0x3e3e1d72	0.1856592
171	0xbaee9141	-0.0018201248
172	0x3d204bea	0.039134897
173	0xbccaa526	-0.024736952
174	0x3d0a454d	0.033757497
175	0xbd1c0654	-0.038091972
176	0xbb2a64d1	-0.0026000033
177	0x3dfc2595	0.12311856
178	0xbdd3c00c	-0.103393644
179	0x3e254ba6	0.16142139
180	0x3d3c0c35	0.04591008
181	0x3d4ee170	0.050507963
182	0xbe08f703	-0.13375477
183	0xbdb24da3	-0.08706214
184	0xbb934286	-0.004494014
185	0xbd8ce742	-0.068800464
186	0xbde28e7e	-0.110623345
187	0x3d0d0d9c	0.034436807
188	0x3d3ba247	0.045809057
189	0xbd3cf1e6	-0.04612913
190	0xbe242a22	-0.16031697
191	0x3c99a383	0.018754726
192	0x3de439ed	0.11143861
193	0x3e3e0943	0.1855822
194	0xbdaafc01	-0.08348847
195	0xbd5651d2	-0.052324124
196	0x3ccd1507	0.02503444
197	0xbbe81176	-0.0070821596
198	0xbc3340e3	-0.010940763
199	0xbd8a33fc	-0.067481965
200	0xbe09ceaf	-0.1345775
201	0x3cc939ac	0.024563633
202	0x3dddea74	0.10835734
203	0xbdc0e5a4	-0.094188005
204	0xbdfa6261	-0.122257955
205	0x3b752461	0.0037405717
206	0x3e3c6103	0.18396382
207	0x3d346346	0.044039987
208	0x3dd98e32	0.10622825
209	0x3da461f2	0.08026494
210	0x3c280f46	0.010257548
211	0xbdbdee30	-0.09273946
212	0xbdd30078	-0.10302824
213	0x3da19a7a	0.07890792
214	0xbd8c12aa	-0.068394974
215	0xbd92eba8	-0.07173854
216	0xbdb35722	-0.08756854
217	0xbb62e33b	-0.0034620303
218	0x3b8b0421	0.0042424356
219	0xbda9e568	-0.08295709
220	0xbbecc923	-0.007226126
221	0xbd1db6a7	-0.03850427
222	0x3dd8dcec	0.105890125
223	0xbdb48ee6	-0.08816318
224	0x3cf18ef4	0.02948711
225	0x3cd25859	0.025676893
226	0xbdbd3e1d	-0.09240363
227	0xbce407ef	-0.027835814
228	0x3d9badf7	0.076015405
229	0x3bf2aecc	0.0074060913
230	0x3bbae6a2	0.005703763
231	0x3e1bc2df	0.15211056
232	0xbd5aa492	-0.053379603
233	0xbd21bc20	-0.03948605
234	0x3c6c96b1	0.0144402245
235	0x3d0439df	0.032281753
236	0x3db28c5c	0.08718178
237	0x3cc14851	0.023594053
238	0x3e175b5b	0.14780943
239	0x3d3a34a5	0.045460362
240	0xbd068407	-0.032840755
241	0x3cd532e2	0.02602524
242	0xbd240b31	-0.040049735
243	0x3d3aa732	0.045569606
244	0xbd4ab89d	-0.049492467
245	0x3aeb5089	0.0017953078
246	0x3d6922c8	0.056917936
247	0xbd0e2c07	-0.034709956
248	0xbe1a14d5	-0.1504701
249	0x3de33a8e	0.11095153
250	0xbc0e243a	-0.008675629
251	0x3d541f50	0.051787674
252	0x3d9d1f30	0.07671964
253	0x3cd79454	0.026315846
254	0x3d4ac5fd	0.049505223
255	0x3ca075ba	0.019587386

rnn.bias_ih_l0 f4 [128]
0	0x3e28f345	0.1649905
1	0x3e47c88b	0.19510095
2	0xbd38ce8c	-0.045118853
3	0x3e23341d	0.15937848
4	0x3d5bb002	0.05363465
5	0x3df1332d	0.11777339
6	0x3e30d23a	0.17267695
7	0x3df708a8	0.12062198
8	0x3db37864	0.08763197
9	0x3ce1719c	0.027519993
10	0xbd36e704	-0.044653907
11	0x3e21e734	0.15810853
12	0x3dfe45d6	0.12415664
13	0x3e04de20	0.12975359
14	0x3cf02f62	0.029319469
15	0xbd6fc45d	-0.058536876
16	0x3aaf2c90	0.0013364721
17	0x3d4731ae	0.048631363
18	0x3e3a40e8	0.18188822
19	0xbd8d3f60	-0.068968534
20	0x3dfae3cb	0.12250479
21	0x3d8adeba	0.06780763
22	0xbdea896a	-0.11451991
23	0xbd621092	-0.055191584
24	0x3d17577d	0.03694867
25	0x3e59d8ed	0.21274157
26	0x3c3200bd	0.010864434
27	0x3cca9840	0.024730802
28	0xbd69594a	-0.05696992
29	0x3daec63d	0.08533905
30	0xbd86477b	-0.065566026
31	0x3c4852b1	0.012226746
32	0xbd5a9ec6	-0.053374074
33	0x3e812bca	0.2522872
34	0xbd70e84c	-0.058815286
35	0x3d0f37a8	0.034965187
36	0x3d7b7ef0	0.061400354
37	0xbde09841	-0.1096654
38	0x3d1c3c2f	0.038143333
39	0xbcee4577	-0.029085858
40	0x3e3ec5e3	0.18630175
41	0x3d4649ea	0.048410334
42	0xbc643c4b	-0.013930391
43	0x3e541a23	0.20713095
44	0xbe2d0483	-0.16896252
45	0x3c34f5dd	0.0110449465
46	0x3da149e7	0.07875424
47	0x3db9eea9	0.09078724
48	0x3cd68d54	0.026190437
49	0x3e0f5ad7	0.13999496
50	0xbdb64368	-0.088995755
51	0x398752c6	0.00025810878
52	0xbd82d38e	-0.06388007
53	0x3d925e4f	0.07146894
54	0xbddd1fc6	-0.10797076
55	0xbd97dacb	-0.07414778
56	0x3e92af92	0.28649575
57	0xbca176db	-0.019709995
58	0xbc488702	-0.01223922
59	0x3d12c1e6	0.035829447
60	0xbdcfd748	-0.101484835
61	0xbdfd790c	-0.123766035
62	0x3d51f249	0.05125645
63	0x3d5872a8	0.05284372
64	0xbd1b52b8	-0.037920684
65	0x3d1070fd	0.035264004
66	0x3d1d1dd1	0.038358513
67	0xbc2c94b7	-0.010533503
68	0x3d66f531	0.056386176
69	0x3da105ca	0.07862432
70	0x3dae99f1	0.08525456
71	0xbcfb6699	-0.03068857
72	0x3cbfe8e9	0.02342649
73	0xbdc78d0c	-0.097436994
74	0x3cb9bcf7	0.022673113
75	0x3cc4a6c9	0.02400531
76	0x3cda1120	0.026619494
77	0x3db96b45	0.09053663
78	0x3e12e59f	0.14345406
79	0x3d6c5668	0.05769959
80	0xbd4b869f	-0.04968893
81	0x3dd92809	0.10603339
82	0xbd84edb0	-0.06490648
83	0xbdeed26d	-0.11661229
84	0xbdd6aa89	-0.10481746
85	0xbd0f6a5c	-0.03501354
86	0x3d8b3e42	0.06798984
87	0xbd92ccb2	-0.07167949
88	0xbdd06434	-0.10175362
89	0x3e103486	0.14082536
90	0xbda4661f	-0.080272906
91	0x3e0fdde5	0.1404949
92	0xbdf3239c	-0.11872026
93	0xbd8b7ac0	-0.06810522
94	0xbb17d40c	-0.0023167161
95	0x3e55971c	0.20858425
96	0x3e4e173d	0.20126052
97	0x3e047ffc	0.12939447
98	0xbdcd715f	-0.100313894
99	0x3dded888	0.10881144
100	0xbdc4ff79	-0.0961904
101	0x3db58e2d	0.088650085
102	0xbb0893bd	-0.0020840012
103	0x3d48b416	0.04899987
104	0xbd9ae3c9	-0.07562978
105	0xbd2e6c1f	-0.04258358
106	0x3e6d60ae	0.23181412
107	0x3dfccdf4	0.1234397
108	0x3d77f38c	0.060535
109	0x3e201d2c	0.15636128
110	0x3e057314	0.1303218
111	0x3e3b3f1e	0.18285796
112	0x3cd0cd17	0.02548842
113	0xbd67a7ae	-0.056556396
114	0x3ddb4cae	0.10707985
115	0x3c8c4ca0	0.017126381
116	0x3d83267f	0.06403827
117	0x3dd6dd7d	0.10491464
118	0x3d713a67	0.058893587
119	0x3d4ae757	0.04953703
120	0x3d8b6c01	0.068077095
121	0xbd056874	-0.032570317
122	0x3c280b56	0.010256609
123	0xbd822564	-0.06354788
124	0x3e0068ed	0.12540026
125	0x3e1301d9	0.14356174
126	0x3e556cde	0.20842311
127	0xbd31e820	-0.043434262

rnn.bias_hh_l0 f4 [128]
0	0x3d0c8227	0.03430381
1	0x3e74b64f	0.2389767
2	0xbcf97d9e	-0.030455407
3	0x3d4bde3a	0.04977248
4	0x3e01a592	0.12660816
5	0xbd8d7c49	-0.06908471
6	0xbb0a7acf	-0.0021130329
7	0x3d5490b4	0.051895812
8	0x3dc25eb4	0.094907194
9	0x3c39ccbb	0.011340315
10	0xbd7ff796	-0.062491976
11	0xbbaf379f	-0.0053472067
12	0xbd0b6308	-0.03402999
13	0x3db1659a	0.08661957
14	0xbd8b573f	-0.0680375
15	0x3de3de6d	0.11126409
16	0xbc26fa7f	-0.010191559
17	0xbe0b01bb	-0.13574879
18	0xbbeda2fe	-0.007252096
19	0x39f18af0	0.0004607062
20	0x3e250cb6	0.1611813
21	0x3e1d1e8d	0.15343685
22	0xbd840c65	-0.064476766
23	0x3d1b021d	0.037843812
24	0x3d1ba288	0.0379968
25	0x3d81cd6a	0.06338008
26	0xbdb40ba4	-0.08791283
27	0x3d668c6d	0.056286264
28	0x3da35315	0.07974831
29	0xbdc27641	-0.094952114
30	0xbda19aba	-0.0789084
31	0x3d1b6057	0.037933674
32	0xbd5acdc3	-0.053418886
33	0xbbc52d12	-0.0060173357
34	0x3d7879d3	0.060663056
35	0x3d25a167	0.04043713
36	0xbd3eda81	-0.0465951
37	0xbddb410e	-0.107057676
38	0x3e065eb5	0.13122065
39	0x3dc199ae	0.0945314
40	0x3dd06e67	0.101773076
41	0x3de912c2	0.11380531
42	0x3e2ab7cb	0.16671674
43	0x3d9ce2e3	0.07660463
44	0xbd964d98	-0.073390186
45	0x3dcce5ae	0.100047454
46	0x3e5087c8	0.20364296
47	0x3e05f450	0.13081479
48	0x3ddb6f21	0.107145555
49	0x3d3971c3	0.045274507
50	0xbdda85df	-0.10670065
51	0x3d168230	0.03674525
52	0x3e5450aa	0.20733896
53	0x3e6a1768	0.22860491
54	0xbd66f42e	-0.05638521
55	0xbd800f12	-0.062528744
56	0x3e883483	0.26602563
57	0x3ca845ef	0.02054116
58	0x3cbed169	0.023293214
59	0xbdc4a35f	-0.09601473
60	0xbe0c3f97	-0.13696133
61	0x3e0d02c8	0.13770592
62	0x3e8cfd67	0.2753708
63	0x3d76fed0	0.060301602
64	0xbc98ee97	-0.018668456
65	0xbb821c5f	-0.0039706673
66	0xbdcbb535	-0.09946672
67	0x3ded602b	0.11590608
68	0xbbdf5e40	-0.0068166554
69	0xbda855d6	-0.08219497
70	0xbd42df5a	-0.047576286
71	0x3cd6ca00	0.026219368
72	0x3cf5847a	0.029970396
73	0x3de1ed8d	0.11031637
74	0x3dbe3a29	0.09288437
75	0xbe32aff0	-0.17449927
76	0x3cef1939	0.029186832
77	0xbc8fe77e	-0.017566439
78	0x3af15b8d	0.0018414125
79	0xbb714cb5	-0.0036819403
80	0xbdeac2e5	-0.114629544
81	0x3d0ba42c	0.034092113
82	0x3e28421d	0.1643147
83	0xbd698a0b	-0.057016414
84	0xba9a82f8	-0.0011788299
85	0xbd297c7b	-0.04137848
86	0x3dc9763a	0.09837003
87	0x3dc08501	0.094003685
88	0x3c8dd549	0.017313616
89	0x3cfe9260	0.031075656
90	0xbe0da4aa	-0.13832346
91	0x3ce1b23d	0.027550811
92	0x3df1ef52	0.11813225
93	0xbdf75799	-0.12077255
94	0x3dfd650f	0.12372791
95	0x3d99d3de	0.075111136
96	0x3d9ff0e7	0.0780962
97	0x3e55b180	0.20868492
98	0x3e50a19f	0.20374154
99	0x3d01ae5c	0.031660423
100	0x3e034f07	0.12823115
101	0xbdc1fbf5	-0.09471885
102	0x3e244d7b	0.16045181
103	0x3d56039e	0.052249543
104	0xbb978de2	-0.004625068
105	0x3da3e605	0.08002857
106	0x3df8ec3d	0.12154434
107	0x3da88328	0.08228141
108	0xbd796717	-0.06088933
109	0xbd9e33dd	-0.07724736
110	0x3e867400	0.26260376
111	0xbd31b9c2	-0.043390043
112	0xbb2f941b	-0.0026791159
113	0xbd576341	-0.05258489
114	0x3e2fa5f1	0.17153145
115	0xbcfe602c	-0.031051718
116	0x3e45f9b7	0.1933354
117	0x3deb909d	0.11502192
118	0xbe12ba8b	-0.14328973
119	0x3de3349c	0.11094019
120	0x3e638516	0.22218737
121	0x3d6c8344	0.057742372
122	0x3e1ae34c	0.1512577
123	0x3d831cd7	0.06401985
124	0x3e1143ba	0.14185992
125	0x3d273ed1	0.04083139
126	0xbd2132ee	-0.03935521
127	0x3ded6d71	0.1159314

rnn.weight_ih_l1 f4 [128, 32]
0	0xbe222df1	-0.15837838
1	0x3e5f1487	0.21785174
2	0xbdd61d69	-0.10454828
3	0xbd8bf11a	-0.06833096
4	0xbd0668db	-0.03281484
5	0xbc1d7514	-0.009610433
6	0x3d047993	0.032342505
7	0xbd372cd1	-0.044720475
8	0xbda78a39	-0.08180661
9	0xbe01c85b	-0.12674086
10	0xbd399c41	-0.04531503
11	0xbdeb97a8	-0.115035355
12	0x3d1428bc	0.03617166
13	0x3d2bf9e8	0.041986376
14	0xbe120fc0	-0.1426382
15	0x3dfb2ecf	0.122647874
16	0xbdc205c8	-0.09473759
17	0x3d70e95d	0.058816303
18	0xbe513980	-0.20432091
19	0xbe34c15b	-0.17651884
20	0xbd82c0f0	-0.06384456
21	0xbe0aae37	-0.1354302
22	0x3da1dadf	0.079030745
23	0x3dfe54cc	0.124185175
24	0xbdc15de8	-0.09441739
25	0x3e9bcfb5	0.30431905
26	0xbe10d43a	-0.14143458
27	0xbbca69dd	-0.0061771707
28	0x3e47adfd	0.19499965
29	0xbca67b1f	-0.02032238
30	0x3d6cecf2	0.057843156
31	0x3e2acf23	0.16680579
32	0x3dfabc38	0.12242931
33	0xbc99884d	-0.018741751
34	0x3da35f43	0.07977154
35	0xbdacd4af	-0.08439004
36	0x3d6dd6ef	0.058066305
37	0x3dd93b05	0.1060696
38	0xbc3bdbee	-0.01146601
39	0x3d8b8847	0.06813102
40	0x3d019432	0.03163547
41	0xbda130be	-0.07870625
42	0xbd379b8a	-0.044826068
43	0xbd941166	-0.07229881
44	0x3d962ed6	0.07333152
45	0x3cb722d0	0.022355467
46	0xbd545cb5	-0.051846225
47	0x3deb9b60	0.11504245
48	0x3d853a7b	0.06505295
49	0xbd929abf	-0.07158422
50	0x3d11748b	0.035511535
51	0x3d82d983	0.06389143
52	0xbd03b3da	-0.03215394
53	0x3bdd3f92	0.006751963
54	0x3d9ab890	0.07554734
55	0xbd4a701c	-0.049423322
56	0x3ce2865d	0.02765196
57	0x3d860600	0.06544113
58	0xbcd87809	-0.026424425
59	0xbc3e0fdc	-0.011600461
60	0xbda0ed62	-0.07857777
61	0xbdd07a8c	-0.10179624
62	0x3d2a162a	0.041525044
63	0x3d8577ec	0.06517014
64	0xbcc549cc	-0.02408304
65	0x3cef74cb	0.029230496
66	0x3e049589	0.12947668
67	0x3d767ea0	0.060179353
68	0xbdf49794	-0.11942974
69	0x3d81d231	0.06338919
70	0x3d5709e7	0.052499678
71	0xbdafd677	-0.08585828
72	0xbe1da17d	-0.15393634
73	0xbd2b3881	-0.041801933
74	0x3dfc49ed	0.12318788
75	0x3d1f66dc	0.038916454
76	0xbc89a3c3	-0.01680172
77	0xbd43cbd0	-0.047801793
78	0x3c90a669	0.017657476
79	0x3d0a598e	0.033776812
80	0xbc45893b	-0.012056644
81	0xbd17a03e	-0.037018053
82	0xbbf18e48	-0.0073716976
83	0x3d3f820f	0.046754893
84	0x3dbea6e6	0.09309177
85	0x3db87691	0.0900699
86	0x3c822038	0.015884504
87	0x3d3e56de	0.04646956
88	0xbdf181f6	-0.11792366
89	0x3c8b0c42	0.016973618
90	0xbd5ab3a7	-0.053393986
91	0x3d5348de	0.051583163
92	0x3d174e09	0.036939654
93	0xbca8d9b6	-0.020611625
94	0x3d59142a	0.052997746
95	0xbe244ade	-0.16044185
96	0xbd9826d3	-0.0742928
97	0x3e2381a7	0.15967427
98	0xbdedb972	-0.116076365
99	0x3dfd3efe	0.123655304
100	0xbcc1f206	-0.023674976
101	0x3d9120dd	0.07086346
102	0xbd2928bf	-0.041298624
103	0x3e303318	0.1720699
104	0x3d8ad682	0.06779195
105	0xbc986050	-0.018600613
106	0x3de56df1	0.1120261
107	0xbe00041d	-0.12501569
108	0x3ca78be3	0.020452445
109	0x3d99f9b7	0.075183325
110	0xbd9d267e	-0.076733574
111	0x3e283022	0.16424611
112	0x3df55493	0.11979022
113	0x3d913aa6	0.070912644
114	0xbd8800b2	-0.066407576
115	0xbd6abe0e	-0.057310157
116	0xbdc76d94	-0.09737697
117	0x3e2d46e3	0.16921572
118	0x3d19bdd8	0.037534565
119	0x3b3dbfa2	0.0028953333
120	0xbcb4c758	-0.02206771
121	0xbd241396	-0.04005774
122	0x3d6e5b37	0.058192458
123	0x3de1eb3c	0.110311955
124	0x3d8b33f2	0.06797017
125	0xbddb2332	-0.10700072
126	0xbd4acabb	-0.049509745
127	0x3dd2028f	0.10254394
128	0x3d3b1092	0.0456701
129	0x3df5946a	0.11991198
130	0xbc619dbb	-0.013770516
131	0x3ddd44e7	0.10804158
132	0xbd0f0c04	-0.03492357
133	0x3d6e2a70	0.05814594
134	0x3ca072d8	0.019586012
135	0x3dc40883	0.09571936
136	0x3be9ec69	0.007138778
137	0xbdebb43e	-0.11508988
138	0x3dbc905d	0.092072226
139	0xbe03897d	-0.12845416
140	0x3d958f34	0.073027045
141	0xbd6b7896	-0.057488047
142	0x3e174fc2	0.14776519
143	0xbbf2b25d	-0.0074065165
144	0x3e140145	0.1445361
145	0x3d60ccf2	0.05488295
146	0xbe494706	-0.19656
147	0x3c0e2ba2	0.008677395
148	0xbdcb2a85	-0.09920219
149	0x3cefc7b3	0.029270029
150	0xbdb25433	-0.08707466
151	0xbdb75f19	-0.08953685
152	0x3c9b7ae7	0.018979503
153	0x3dc7f947	0.09764343
154	0x3c997dda	0.018736769
155	0x3d12b512	0.035817213
156	0xbc840766	-0.01611681
157	0xbceb517f	-0.028725384
158	0xbe36c264	-0.17847592
159	0x3d5e6643	0.054296743
160	0xbd300959	-0.042977665
161	0xb9fc39af	-0.00048108163
162	0x3e4a1c43	0.19737343
163	0x3ce6c65f	0.028170763
164	0xbd84b1c4	-0.064792186
165	0xbda42cbc	-0.08016345
166	0x3ca2b599	0.019861983
167	0x3c33f250	0.010983065
168	0xbde99ae8	-0.11406499
169	0x3d9b1142	0.07571651
170	0xbdef4c05	-0.116844214
171	0x3cc43254	0.02394978
172	0xbd519714	-0.05116947
173	0x3c72a28f	0.014809265
174	0x3ca15ac7	0.019696606
175	0xbd73dff1	-0.05953974
176	0x3d723032	0.059127994
177	0x3df0230a	0.11725433
178	0xbd186755	-0.03720792
179	0xbdb8fbe7	-0.090324216
180	0x3dbe3ac1	0.0928855
181	0xbd5b77b0	-0.05358094
182	0xbdbeaf81	-0.093108185
183	0xbc6b3a90	-0.014357224
184	0x3d656df4	0.056013063
185	0xbd3b9245	-0.04579379
186	0xbcdb00ea	-0.026733834
187	0xbd95485e	-0.072891936
188	0x3ca8f2ad	0.02062353
189	0x3c2cef4d	0.010555101
190	0x3cdaca86	0.026707899
191	0x3e1069e5	0.14102896
192	0xbdd93e11	-0.10607541
193	0x3e1b1951	0.15146376
194	0xbc36fc91	-0.011168615
195	0x3cfc0cf9	0.030767905
196	0x3db071e2	0.086154714
197	0xbd246e77	-0.04014441
198	0x3d467482	0.048450954
199	0x3d2f8555	0.042851765
200	0x3c84417d	0.016144508
201	0xbe316dfe	-0.17327115
202	0x3d4743dc	0.0486487
203	0xbb8287b1	-0.003983461
204	0x3d1e796c	0.038690016
205	0xba29e8ae	-0.00064815104
206	0x3da2c6ad	0.07948051
207	0x3daa0dd4	0.08303419
208	0x3d9aba18	0.07555026
209	0xbdcb5598	-0.09928435
210	0xbd8e8ae5	-0.06960086
211	0xbd9baa92	-0.07600893
212	0xbe021ed5	-0.12707074
213	0x3d387648	0.045034677
214	0xbd41bea7	-0.04730096
215	0xbdde1199	-0.108432
216	0xbd267ef8	-0.04064843
217	0x3e0585ad	0.13039275
218	0xbd00babd	-0.031428088
219	0x3d2c73e2	0.042102702
220	0x3d23bdb9	0.039975855
221	0xbdeedba8	-0.1166299
222	0xbddeb666	-0.108746335
223	0xbc7a63b9	-0.015282565
224	0x3dd243e7	0.102668576
225	0xbdd9221b	-0.10602208
226	0xbc0f171e	-0.008733539
227	0xbb9b1d80	-0.0047337413
228	0x3e0b99de	0.13632914
229	0xbdc14cd7	-0.09438484
230	0xbe101604	-0.14070898
231	0xbcd0143c	-0.025400274
232	0x3d57959b	0.05263291
233	0xbdadca31	-0.084858306
234	0x3b72df17	0.0037059241
235	0xbd01578d	-0.031577636
236	0x3c2930dc	0.01032659
237	0x3daa4ed9	0.0831582
238	0x3c8e1e1a	0.017348338
239	0x3da83aa8	0.08214313
240	0x3dab9807	0.08378606
241	0x3d18976d	0.037253786
242	0x3c97318b	0.018456241
243	0x3dbe0d06	0.09279828
244	0xbb707bef	-0.0036694964
245	0x3c825f7d	0.015914673
246	0xbce98ae0	-0.028508604
247	0x3d92a15b	0.07159682
248	0xbd880b70	-0.066428065
249	0xbc3d5a30	-0.011557147
250	0xbda6dc98	-0.08147544
251	0xbcd49a53	-0.025952494
252	0xbe18b740	-0.14913654
253	0xbe05f6f4	-0.13082486
254	0x3c0a0906	0.008425003
255	0xbc6e30d1	-0.014538006

rnn.weight_hh_l1 f4 [128, 32]
0	0xbd1ca673	-0.038244676
1	0xbd80166f	-0.06254279
2	0xbdf89fd6	-0.12139861
3	0xbe248c72	-0.160692
4	0xbd079e06	-0.033109687
5	0x3da13552	0.07871498
6	0x3e137b0f	0.14402412
7	0xbc96bc82	-0.018400434
8	0x3e10e0f6	0.14148316
9	0xbe2c110b	-0.16803376
10	0x3dae9125	0.08523778
11	0xbe1a0460	-0.15040731
12	0xbcda7564	-0.026667304
13	0xba75dc4f	-0.0009378837
14	0x3e026c82	0.12736705
15	0xbb0f1753	-0.002183397
16	0x3d0d659f	0.03452074
17	0xbd4616b5	-0.0483615
18	0xbd36cdfb	-0.044630032
19	0xbe0c68a2	-0.13711789
20	0x3e1715d3	0.14754419
21	0x3d15426c	0.036440298
22	0x3d6baa95	0.057535727
23	0x3c921d76	0.017836314
24	0x3d303738	0.04302141
25	0x3d84e517	0.06489008
26	0x3e172c4e	0.14762995
27	0x3d558735	0.052130897
28	0xbc069d07	-0.008216149
29	0xbe2e4e6d	-0.17022105
30	0x3c952da5	0.018210242
31	0xbe63c06a	-0.22241369
32	0xbda8f980	-0.08250713
33	0xbb307d33	-0.0026930093
34	0xbe20ea79	-0.15714444
35	0xbe49f2bf	-0.19721507
36	0xbe1a1441	-0.15046789
37	0xbd74905d	-0.059707988
38	0xbd614cc6	-0.055004857
39	0x3e7389c2	0.23783019
40	0x3dddde56	0.10833423
41	0x3d840af6	0.06447403
42	0x3dca7e74	0.098874
43	0xbe3cfcc8	-0.18455803
44	0xbccc2d99	-0.024924086
45	0x3d5cb0e3	0.05387963
46	0x3d2acf1c	0.04170142
47	0xbd637a8d	-0.055536795
48	0x3dbb9d0b	0.09160813
49	0xbdf7f6f2	-0.12107648
50	0x3c00629d	0.007836011
51	0xbe16e6b5	-0.14736445
52	0x3a38967d	0.00070414675
53	0xbd6ce019	-0.057830904
54	0xbda2a52a	-0.07941659
55	0xbddbe53e	-0.10737084
56	0x3c1eb5b4	0.009686876
57	0xbd42b4da	-0.047535755
58	0x3d09e28a	0.03366331
59	0x3d4eba42	0.050470598
60	0xbde4da8b	-0.11174496
61	0xbd7b89e1	-0.06141079
62	0xbc916abb	-0.017751088
63	0x3d858aab	0.065205894
64	0xbd32e70e	-0.043677382
65	0xbdaf13b1	-0.08548678
66	0xbd6fed97	-0.058576193
67	0xbc3be072	-0.011467086
68	0xbd97844d	-0.07398281
69	0xbcc86a8b	-0.024464866
70	0xbe016ffd	-0.12640376
71	0x3d72e696	0.059301935
72	0xbd40c005	-0.047058124
73	0x3daeebd8	0.085410774
74	0x3d9c91d6	0.076450035
75	0xbd8582d4	-0.06519094
76	0xbdc7a8d3	-0.097489975
77	0xbd91e7b4	-0.07124272
78	0x3d9bcf76	0.076079294
79	0xbde74977	-0.11293309
80	0x3c58b1c9	0.013225981
81	0xbdce512f	-0.10074078
82	0xbdeaabe0	-0.11458564
83	0xbd0f3485	-0.034962196
84	0x3bc138db	0.0058966703
85	0xbc824c0c	-0.015905403
86	0x3ba0c94e	0.00490681
87	0xbe0c514a	-0.13702884
88	0x3c7cf781	0.015439869
89	0xbd4fafa2	-0.050704606
90	0x3cdd9eff	0.027053354
91	0x3d0e3d34	0.034726337
92	0xbdba2525	-0.09089116
93	0x3dcdccc3	0.10048821
94	0x3d60dacf	0.054896172
95	0x3da86014	0.082214504
96	0xbd971987	-0.07377916
97	0x3ccc2235	0.024918655
98	0xbd124119	-0.035706613
99	0xbe733b84	-0.23753172
100	0xbcda7d23	-0.026670998
101	0x3e112095	0.14172585
102	0x3d947d9f	0.07250523
103	0x3e13f85f	0.14450215
104	0xbcb04afb	-0.021520128
105	0xbd976295	-0.0739185
106	0x3d06c0e7	0.03289881
107	0xbcfb96c3	-0.030711537
108	0x3deb1086	0.11477761
109	0x3d8f8964	0.07008627
110	0x3cbf16b7	0.023326261
111	0x3d52cfac	0.051467583
112	0x3db5001c	0.088379115
113	0xbdadd801	-0.08488465
114	0xbd807942	-0.06273128
115	0x3d218cdf	0.039440986
116	0x3e603edd	0.2189898
117	0xbd045a97	-0.032312956
118	0xbcc4c498	-0.024019524
119	0xbd716a42	-0.058939226
120	0x3e17401d	0.14770551
121	0xbe09721f	-0.1342244
122	0xbda32210	-0.07965481
123	0xbd8464a4	-0.06464508
124	0x3b9839a5	0.0046455436
125	0x3dea53b8	0.11441749
126	0x3d963835	0.073349394
127	0x3c7a1629	0.015264072
128	0x3d2e8e54	0.042616203
129	0xbe5a685a	-0.2132887
130	0xbe0be7e3	-0.13662677
131	0x3de807a4	0.11329582
132	0xbe019e70	-0.12658095
133	0xbcbd256e	-0.023089137
134	0xbd07b7ce	-0.033134274
135	0x3d58728d	0.05284362
136	0xbe6f3d87	-0.23363315
137	0x3dce0db4	0.100612074
138	0x3e14ed1a	0.14543572
139	0x3da3e902	0.08003427
140	0x3cd98223	0.026551312
141	0xbdf91b97	-0.121634655
142	0xbcd9df2c	-0.026595674
143	0x3cb2ffe1	0.021850528
144	0xbe0e3c52	-0.13890198
145	0xbe1ed378	-0.15510356
146	0xbe4a3b62	-0.19749215
147	0xbd9f6f7a	-0.07784934
148	0x3e135edf	0.14391659
149	0xbdb7bdb5	-0.089717306
150	0xbe051571	-0.1299646
151	0x3d30fd50	0.043210328
152	0x3d352cb3	0.04423208
153	0x3df5b447	0.11997276
154	0x3d3bdc94	0.045864657
155	0x3c9501f1	0.018189402
156	0xbdaa84d7	-0.083261184
157	0xbd48a8cb	-0.0489891
158	0x3d8c46d9	0.068494506
159	0x3d8f9a42	0.07011844
160	0xbd98f28b	-0.074681364
161	0xbe3cb2e6	-0.1842762
162	0x3bd7fb9a	0.0065912725
163	0xbd2d61c8	-0.04232958
164	0xbe3360d6	-0.17517409
165	0xbd4bcc84	-0.04975559
166	0xbdd13aef	-0.10216319
167	0x3df5c470	0.12000358
168	0x3d90ddca	0.07073553
169	0x3d106043	0.035248052
170	0x3dd2a996	0.10286252
171	0xbdf9210a	-0.12164505
172	0x3d5a1cf5	0.05325027
173	0x3dc8ec98	0.09810752
174	0x3d71a94a	0.058999337
175	0xbde7dbcc	-0.1132122
176	0xb9e73bd5	-0.00044104332
177	0x3da9ab1d	0.082845904
178	0xbd6b7a9a	-0.05748997
179	0xbe1de73c	-0.1542024
180	0x3db09f8c	0.08624181
181	0xbe26f4f4	-0.1630438
182	0xbd185a75	-0.03719564
183	0x3cb34096	0.021881383
184	0x3db49607	0.08817678
185	0xbc439d4e	-0.01193936
186	0xbcf025b7	-0.029314859
187	0xbb504d9f	-0.0031784547
188	0xbc9350fe	-0.017982956
189	0xbd16c7d5	-0.03681167
190	0x3d722029	0.0591127
191	0xbdb9e194	-0.09076229
192	0x3d6de8a6	0.0580832
193	0xbe421b71	-0.1895578
194	0xbde90a26	-0.11378889
195	0xbc01c8c6	-0.007921403
196	0xbe565cd8	-0.20933855
197	0xbd572153	-0.052522015
198	0x3cbfd43d	0.023416633
199	0x3ddcfc0d	0.10790262
200	0xbe1637a4	-0.14669663
201	0x3de1b265	0.11020354
202	0x3d4fb996	0.050714098
203	0xbdcbb7b7	-0.0994715
204	0x3d908593	0.07056727
205	0x3d0f74b3	0.035023402
206	0x3dbfb35a	0.093603805
207	0xbc73e274	-0.014885534
208	0x3e01100a	0.12603775
209	0x3b8e409e	0.004341199
210	0xbe3a9300	-0.18220139
211	0xbd941d65	-0.07232169
212	0x3d38d3d3	0.045123886
213	0x3e1da734	0.15395814
214	0xbdbdbaa0	-0.092641115
215	0xbd90f71a	-0.07078381
216	0x3e269bdf	0.16270398
217	0x3cb7b80d	0.02242663
218	0x3d726bcf	0.059184846
219	0xbdd145fd	-0.10218427
220	0xbe7beaf2	-0.24601343
221	0xbda74a61	-0.081684835
222	0x3d93e5f7	0.07221597
223	0x3d914649	0.07093484
224	0xbe0d7050	-0.13812375
225	0xbdc4ec7c	-0.09615418
226	0x3ded1205	0.115757026
227	0x3bdc022a	0.006714125
228	0x3d08159f	0.033223744
229	0xbd812d34	-0.0630745
230	0xbd73b21b	-0.059496026
231	0x3d03f335	0.032214362
232	0x3ca9b357	0.020715399
233	0x3ce66503	0.028124338
234	0x3c1ebd28	0.009688653
235	0x3b8b40a5	0.0042496496
236	0xbd17d573	-0.037068795
237	0xbd8af92d	-0.06785808
238	0xbcd40bc9	-0.025884526
239	0xbc8c8cee	-0.017157044
240	0x3dc537c6	0.096297786
241	0xbd9a2cd2	-0.0752808
242	0xbc7a8c51	-0.015292243
243	0x3d854928	0.06508094
244	0x3e3a9ec0	0.18224621
245	0x3dae7d40	0.08519983
246	0x3d9b9911	0.075975545
247	0xbdaba848	-0.083817065
248	0x3ce8c980	0.028416395
249	0xbd80e407	-0.06293493
250	0x3cefbd20	0.029264987
251	0xbde17685	-0.11008934
252	0x3bae44f2	0.0053182775
253	0xbbdea3b2	-0.0067944163
254	0xb8a847ab	-8.0242135e-05
255	0xbcb8fd38	-0.022581682

rnn.bias_ih_l1 f4 [128]
0	0x3d661716	0.05617436
1	0x3e4adc0b	0.19810502
2	0x3ce9bdcd	0.028532887
3	0xbddaabd4	-0.10677305
4	0xbdfc166d	-0.12308965
5	0xbdac0822	-0.08399989
6	0x3da2dc0e	0.07952128
7	0x3de7951a	0.11307736
8	0xbdd5b2ff	-0.104345314
9	0xbdff847d	-0.12476442
10	0x3d685808	0.05672458
11	0x3e075698	0.13216627
12	0xbdaf27f6	-0.08552544
13	0xbd5ded98	-0.054181665
14	0xbd9ebe91	-0.077511914
15	0x3e0cd238	0.13752067
16	0xbcbddb96	-0.023175996
17	0xbcedf417	-0.029047055
18	0x3e18404c	0.14868277
19	0xbdf760a3	-0.12078979
20	0xbcdf3553	-0.027247107
21	0xbcfc59e2	-0.030804578
22	0x3e1980e2	0.14990571
23	0x3e0bebe8	0.1366421
24	0x3d91fcd8	0.07128304
25	0x3d6e0a1e	0.058115117
26	0xbe015c9c	-0.12632984
27	0xbc50d052	-0.01274498
28	0xbd75396e	-0.059869222
29	0x3b5f36b2	0.00340597
30	0x3dbcc4cd	0.09217224
31	0xbd4c5759	-0.04988799
32	0x3d6dfb4b	0.05810098
33	0xbdbcb5ba	-0.09214349
34	0x3d0c846a	0.034305967
35	0xbd811375	-0.06302539
36	0x3b5375b7	0.0032266208
37	0xbdb48a2b	-0.08815416
38	0x3cbd2d52	0.0230929
39	0xbda830bc	-0.0821242
40	0x3de718b2	0.11284007
41	0xbd34af1e	-0.044112317
42	0x3dd65b6c	0.10466656
43	0xbdb27ac6	-0.087148234
44	0x3d5296b8	0.051413268
45	0x3df01cb7	0.11724227
46	0x3d84ade2	0.06478478
47	0x3d57af9f	0.05265772
48	0xbd964ca2	-0.07338835
49	0x3c3ced1e	0.0115311425
50	0xbcc279ee	-0.023739781
51	0x3e357e27	0.17723905
52	0xbd2db3f4	-0.042407945
53	0x3e236fc9	0.15960611
54	0x3dd8da14	0.1058847
55	0x3d8a6f77	0.067595415
56	0x3d92d719	0.07169933
57	0x3e39ee6b	0.18157355
58	0x3dffb70d	0.12486086
59	0x3e3c9166	0.1841484
60	0x3e04de55	0.12975438
61	0x3d993083	0.07479956
62	0x3db6c9a5	0.089251794
63	0x3cf33f82	0.029693369
64	0xbd8d6558	-0.069040954
65	0xbe35d0c6	-0.17755422
66	0x3b08e28e	0.002088699
67	0xbd9a441d	-0.07532523
68	0xbda2b9f8	-0.07945627
69	0xbd8a9377	-0.06766408
70	0xbe2f84e5	-0.17140539
71	0x3cccf57e	0.025019404
72	0x3d761729	0.06008068
73	0x3c8948c6	0.016758334
74	0x3d0f2d80	0.0349555
75	0xbcfbdacb	-0.030743977
76	0xbd887a07	-0.066639
77	0x3d6ec945	0.058297414
78	0xbce7f46a	-0.028314788
79	0xbca8ac11	-0.02058986
80	0x3d5d80d7	0.05407795
81	0xbc95e9be	-0.018299934
82	0xbdd0dd3a	-0.101984456
83	0x3e217477	0.15767084
84	0x3e27544f	0.16340755
85	0x3cf46c46	0.029836785
86	0x3dfd867b	0.12379166
87	0xbcfe4471	-0.031038495
88	0x3e14a194	0.14514762
89	0xbdc39ffd	-0.09552
90	0x3d95a769	0.073073216
91	0x3dab437b	0.0836248
92	0xbd0f947e	-0.035053723
93	0x3d28f85e	0.041252486
94	0xbc8b9348	-0.017038003
95	0x3d8e3bd1	0.06945003
96	0xbd9d724e	-0.076878175
97	0x3dad0413	0.08448043
98	0xbe1d6745	-0.15371425
99	0x3e0cca16	0.13748965
100	0xbd4eb4de	-0.050465457
101	0x3d81d0d3	0.06338658
102	0x3e0ecfdf	0.13946484
103	0x3e17faf5	0.14841826
104	0x3d4f45fc	0.05060385
105	0x3e098881	0.13430978
106	0x3b931fc1	0.0044898693
107	0x3dcaccfd	0.0990238
108	0xbd02cc32	-0.031933017
109	0xbcce4a1a	-0.025181819
110	0x3e553f34	0.20824891
111	0xbd15741a	-0.036487676
112	0x3df51683	0.119671844
113	0x3d6f4c1e	0.0584222
114	0x3e1e40d7	0.15454422
115	0xbc9bba3d	-0.019009704
116	0x3d983c91	0.07433427
117	0xbc51aa61	-0.012796969
118	0x3e0663be	0.13123986
119	0x3d26a9c4	0.040689245
120	0x3e13562e	0.14388344
121	0x3e2309e6	0.15921745
122	0x3df474e3	0.11936357
123	0x3d960c54	0.0732657
124	0x3da44302	0.08020593
125	0xbe1dc669	-0.15407719
126	0x3da4c247	0.08044868
127	0x3da3cdd5	0.07998244

rnn.bias_hh_l1 f4 [128]
0	0xbcabdff5	-0.020980814
1	0x3e556639	0.20839776
2	0x3e15037f	0.14552115
3	0x3e379e2d	0.17931433
4	0x3c673ea3	0.014114055
5	0xbddc2f8c	-0.10751256
6	0xbd44ec37	-0.048076835
7	0x3db9e3c7	0.09076648
8	0x3cc5325b	0.024071863
9	0x3e1fd996	0.15610346
10	0x3c1854c3	0.0092975525
11	0xbddcada8	-0.1077531
12	0xbdd56c27	-0.10421019
13	0x3dd4dc11	0.10393537
14	0xbdd14892	-0.1021892
15	0x3e0514cc	0.12996215
16	0x3c01c01d	0.0079193385
17	0x3df5b290	0.11996949
18	0xbe0a4a1e	-0.13504836
19	0x3de18ec5	0.11013559
20	0x3df21b0d	0.11821566
21	0x3c58d5fc	0.013234612
22	0xba6931a7	-0.00088956434
23	0x3d969979	0.07353491
24	0xbe039bf4	-0.1285246
25	0xbd229457	-0.03969225
26	0x3c184047	0.009292669
27	0x3c40b8e1	0.011762829
28	0xbdbaecb3	-0.09127178
29	0x3d5a9325	0.053362984
30	0xbe0a2cb3	-0.13493614
31	0xbd63d18f	-0.055619773
32	0x3d720329	0.059085045
33	0xbd2463f2	-0.040134378
34	0x3d979711	0.074018605
35	0x3e537834	0.20651323
36	0x3e946d0d	0.2898945
37	0x3c8040fa	0.015655983
38	0x3d510b8f	0.051036414
39	0xbca65fe9	-0.020309405
40	0x3deb3f45	0.11486677
41	0x3e174485	0.14772232
42	0x3c16a17b	0.009193773
43	0x3de8ebf1	0.11373127
44	0x3daccf24	0.084379464
45	0x3dc112c7	0.094274096
46	0x3db25854	0.087082535
47	0x3db441f0	0.08801639
48	0x3e6df21a	0.23236886
49	0x3daae340	0.08344126
50	0x3de74683	0.11292746
51	0x3e05bd5e	0.13060519
52	0x3d9d883d	0.07692001
53	0x3dc736e6	0.09727268
54	0xbd725b94	-0.059169367
55	0x3dbac997	0.091204815
56	0xbcd5f241	-0.026116492
57	0xbcfc2124	-0.030777521
58	0x3e331f87	0.17492495
59	0x3dc4b63d	0.09605072
60	0x3cac276d	0.021014893
61	0x3cb19c33	0.021680927
62	0x3d8b76f1	0.06809796
63	0x3dfcacdc	0.12337658
64	0x3e0345f3	0.12819652
65	0x3cc10490	0.023561746
66	0x3c0f2b0e	0.008738292
67	0xbd0577eb	-0.032585066
68	0xbd535d94	-0.051602915
69	0xbe07ba7b	-0.1325473
70	0xbc7ab2a0	-0.015301377
71	0x3cc44da0	0.023962796
72	0xbbdce51f	-0.0067411806
73	0xbe151875	-0.14560111
74	0xbc4e97d0	-0.012609437
75	0xbe2b297e	-0.16715047
76	0xbd581835	-0.05275746
77	0xbda5e8e8	-0.08101064
78	0x3d9a9fd4	0.07550016
79	0x3bcc2e18	0.0062310807
80	0x3cd88073	0.026428437
81	0xbda22902	-0.07917978
82	0xbd4a3ae8	-0.049372584
83	0xbdb76f05	-0.08956722
84	0xbcc42a82	-0.02394605
85	0x3db4281b	0.08796712
86	0xbdc85a5b	-0.09782859
87	0xbc3c25b9	-0.011483603
88	0xbe31cfb6	-0.17364392
89	0x3c3018ab	0.010748069
90	0xbd60084c	-0.054695413
91	0xbe0ec4f4	-0.13942319
92	0xbd881032	-0.06643714
93	0xbdbee65d	-0.09321282
94	0xbce7df01	-0.028304579
95	0xbdbf1a49	-0.09331185
96	0xbcf561e3	-0.029953903
97	0xbd13933f	-0.036029097
98	0x3dd1a872	0.102372065
99	0xbd0e597b	-0.034753304
100	0x3e136d01	0.1439705
101	0x3cd0ad67	0.02547331
102	0xbda2ff95	-0.07958905
103	0xbbeedea2	-0.0072897235
104	0x3e02c242	0.12769416
105	0x3e25525e	0.16144702
106	0x3e6e8bb5	0.23295482
107	0xba458688	-0.00075350003
108	0xbcefa0f1	-0.029251548
109	0x3e0bdaa6	0.13657627
110	0x3df40348	0.11914688
111	0x3dc66c82	0.09688665
112	0xbc87a08d	-0.016556049
113	0xbdce77fb	-0.10081478
114	0x3e06cc4b	0.13163869
115	0xbd3e2dcb	-0.04643039
116	0x3ddd7602	0.10813524
117	0x3c5b7b89	0.013396152
118	0x3e135984	0.14389616
119	0x3e224ac3	0.15848832
120	0x3dd94746	0.106092975
121	0x3e4399c9	0.19101633
122	0xbdb119ee	-0.08647524
123	0xbd41c9b3	-0.047311496
124	0x3cd7f235	0.02636061
125	0xbacd1071	-0.0015645159
126	0x3e2309a1	0.15921642
127	0x3dd75d8d	0.1051589

decoder.weight f4 [4, 32]
0	0xbe0c866f	-0.13723157
1	0xbee4cb94	-0.44686568
2	0x3e1917ca	0.14950481
3	0x3e639544	0.22224909
4	0x3daf552f	0.08561169
5	0xbec73b92	-0.38912636
6	0x3e51c79a	0.20486298
7	0xbe238f04	-0.15972525
8	0x3e467c30	0.19383311
9	0x3eb1bf0d	0.34716073
10	0xbeba5694	-0.3639418
11	0x3eab896f	0.3350329
12	0xbe9a64b5	-0.30154958
13	0xbe68ee92	-0.22747257
14	0xbea301ae	-0.3183722
15	0x3e6e3cb2	0.23265341
16	0xbec75858	-0.38934588
17	0xbeab413e	-0.33448213
18	0x3dd63067	0.10458451
19	0xbe6c0483	-0.23048596
20	0x3e19e687	0.15029345
21	0xbe39dfa5	-0.1815172
22	0xbcf0d0e3	-0.02939648
23	0x3eb1e22d	0.3474287
24	0xbe2aa28a	-0.16663566
25	0x3dfca9f0	0.123371005
26	0xbe71472a	-0.23562303
27	0xbe231464	-0.15925747
28	0x3e9c0de0	0.30479336
29	0xbcca8e95	-0.024726192
30	0x3e3ba117	0.1832317
31	0xbea4acf8	-0.32163215
32	0xbedb3bee	-0.4281916
33	0x3e05ea70	0.13077712
34	0xbe099613	-0.13436155
35	0xbeb800a2	-0.35937983
36	0xbe0052b9	-0.12531556
37	0x3e4efb49	0.20213045
38	0x3e9a2252	0.3010431
39	0x3ed9b991	0.42524388
40	0xbccee94e	-0.025257733
41	0x3d1b21e8	0.037874132
42	0xbe5f9c5c	-0.2183699
43	0xbe9b05b3	-0.30277786
44	0x3ea8a02f	0.3293471
45	0x3ef10408	0.47073388
46	0x3da91e67	0.08257752
47	0xbeb27dd6	-0.3486163
48	0x3dde225d	0.10846398
49	0x3e45ccc0	0.19316387
50	0x3e7585b4	0.23976785
51	0xbec20d21	-0.37900642
52	0xbec08934	-0.37604678
53	0xbec0edd5	-0.3768145
54	0xbe54a542	-0.20766166
55	0xbd6f9958	-0.05849585
56	0x3c6c58d3	0.014425474
57	0x3e9b22f2	0.303001
58	0x3dbeeba4	0.09322289
59	0x3d73e995	0.059548933
60	0x3c87d7e4	0.016582437
61	0xbf0bf71e	-0.54673946
62	0x3ea5daef	0.32393596
63	0x3e84b9a3	0.2592288
64	0x3d979066	0.07400589
65	0x3d9daecd	0.07699356
66	0x3ebd6e73	0.3699833
67	0x3c4b002f	0.0123901805
68	0x3ed76001	0.42065433
69	0xbe448e20	-0.19194841
70	0xbe89a195	-0.2688109
71	0xbe7b9252	-0.24567536
72	0xbeba62df	-0.36403558
73	0xbe7ba815	-0.24575837
74	0xbd8ef9eb	-0.06981262
75	0xbda59984	-0.080859214
76	0xbe3d36bb	-0.1847791
77	0xbd369ec2	-0.044584997
78	0x3e9180bd	0.28418532
79	0xbe899ba4	-0.26876557
80	0x3daaeeba	0.08346315
81	0x3e16845d	0.1469893
82	0xbeb4fec9	-0.35350636
83	0x3e52ef80	0.20599174
84	0xbe1e866f	-0.1548097
85	0xbe051f47	-0.13000213
86	0xbed59acf	-0.41719672
87	0x3e7e940e	0.24861166
88	0xbed6523e	-0.4185962
89	0x3ebd122e	0.36927933
90	0xbed257d2	-0.41082627
91	0x3ea0205f	0.31274697
92	0x3ed21261	0.41029647
93	0xbd3cecd3	-0.04612429
94	0xbe81d95b	-0.25361142
95	0x3e192f91	0.14959551
96	0xbd87e355	-0.06635157
97	0xbe31409f	-0.17309807
98	0xbcb17103	-0.021660333
99	0x3c3647b5	0.011125495
100	0xbd8a4c4c	-0.06752834
101	0xbd50b4a6	-0.05095353
102	0xbdd1d78e	-0.10246192
103	0x3d7e2128	0.06204334
104	0x3c0f5a70	0.008749589
105	0xbcf9f1e9	-0.03051086
106	0xbd9de283	-0.07709219
107	0xbc73556a	-0.014851907
108	0x3cbe771d	0.023250157
109	0xbd9bb769	-0.07603342
110	0xbdc852e8	-0.09781438
111	0xbcd9576c	-0.026530944
112	0xbde99811	-0.114059575
113	0xbdfd2f4a	-0.12362535
114	0xbd7a25c2	-0.061071165
115	0x3b129cd9	0.002237132
116	0x3bbccfec	0.005762091
117	0xbd93957f	-0.072062485
118	0xbcbb10e9	-0.022835212
119	0xbd335a1c	-0.043787107
120	0x3bc996a4	0.006151991
121	0x3d3b40b0	0.045715988
122	0x3da24e07	0.07925039
123	0x3d3c89b3	0.046029758
124	0xbdaeabdb	-0.085288726
125	0xbdc011c8	-0.093783915
126	0xbd74a497	-0.059727278
127	0xbd3c4d74	-0.045972303

decoder.bias f4 [4]
0	0x3c028b3a	0.0079677645
1	0xbd129039	-0.035782073
2	0x3cd62f73	0.026145672
3	0xbb874777	-0.0041283923
