RNN_Time_series_Anomaly_Detection_LVTN/save/Kitchen_Humi/model_best/Kitchen_Humi.pth (torch, 214536 bytes, 35 tensors)

encoder.weight f4 [32, 1]
0	0x3e546c12	0.2074435
1	0x3e07be49	0.13256182
2	0x3e337ec7	0.1752883
3	0x3d541be6	0.05178442
4	0x3e8814bd	0.26578322
5	0xbe5c0ece	-0.21490023
6	0x3e8dc8b6	0.27692193
7	0xbe40c52a	-0.18825212
8	0xbdc9e4ee	-0.09858118
9	0xbe2bda1a	-0.16782418
10	0x3e468310	0.19385934
11	0x3e4cf38a	0.20014778
12	0xbe1a9af6	-0.15098175
13	0x3d9bbdc0	0.07604551
14	0x3e8d890d	0.27643624
15	0xbe34810f	-0.17627357
16	0x3e901878	0.28143668
17	0x3e3cfcfb	0.1845588
18	0xbe3d365b	-0.18477766
19	0x3e45c516	0.19313464
20	0xbdcae8e0	-0.09907699
21	0xbe0de572	-0.13857058
22	0xbe0cfda2	-0.13768628
23	0xbe76bf4c	-0.24096411
24	0xba8bcead	-0.0010666453
25	0xbd8a5c62	-0.06755902
26	0x3e453186	0.19257173
27	0x3e8e0598	0.27738643
28	0xbe515336	-0.20441899
29	0xbe3c1761	-0.18368293
30	0xbd6ae3eb	-0.057346266
31	0xbe394442	-0.18092445

encoder.bias f4 [32]
0	0x3eb04bbd	0.34432784
1	0xbf1376a1	-0.5760289
2	0xbe124f55	-0.14288075
3	0x3ed0a28c	0.40749013
4	0xbe07a8cf	-0.13247989
5	0x3e30e6c9	0.17275538
6	0xbecabef6	-0.39598817
7	0xbf50f950	-0.8163042
8	0xbe8b8f63	-0.27257833
9	0x3f64edc4	0.894253
10	0x3d9d504e	0.076813325
11	0xbf052bca	-0.5201994
12	0xbf0ebedd	-0.55759984
13	0xbf5a3367	-0.85234684
14	0xbe6ea674	-0.23305684
15	0x3cfcda90	0.030865937
16	0xbe960b05	-0.29305282
17	0x3ec4c183	0.38428888
18	0xbe849903	-0.2589799
19	0x3f61a004	0.8813479
20	0xbe7db151	-0.24774672
21	0xbf3b7868	-0.732306
22	0x3d80d8ca	0.06291349
23	0x3e09e755	0.13467152
24	0xbf2142a4	-0.6299231
25	0xbf3496e6	-0.7054275
26	0x3d92a70b	0.07160767
27	0xbe81a246	-0.25319117
28	0xbeab3cc1	-0.3344479
29	0xbf70b16e	-0.94020736
30	0xbdec3bca	-0.11534841
31	0xbf4654f9	-0.7747341

rnn.weight_ih_l0 f4 [128, 32]
0	0xbd1f064f	-0.038824376
1	0x3e02de72	0.12780169
2	0xbded5142	-0.11587764
3	0xbdd00a47	-0.1015821
4	0x3c0e49dc	0.008684602
5	0xbd754563	-0.059880625
6	0x3bc0d4d7	0.0058847475
7	0x3dcb2261	0.09918667
8	0xbd98c8d3	-0.07460179
9	0xbd3c2531	-0.045933906
10	0xbdeaac11	-0.114586
11	0x3d0e6acd	0.034769822
12	0xbc36a655	-0.011148055
13	0x3ca3d959	0.0200011
14	0x3db4bde0	0.08825278
15	0x3e08028b	0.1328222
16	0x3d694c39	0.056957457
17	0xbd4b6420	-0.049656034
18	0x3cb454fa	0.022013176
19	0x3da94b79	0.082663484
20	0x3d4c8655	0.049932797
21	0xbdca0b3c	-0.09865424
22	0x3ddc7444	0.107643634
23	0xbcca4028	-0.024688795
24	0x3d2572b4	0.040392593
25	0x3b7a7f6a	0.0038222917
26	0x3c8602b2	0.016358707
27	0x3c8a2f03	0.01686812
28	0x3c80439e	0.015657242
29	0x3dfd85dd	0.12379048
30	0x3c799896	0.015234133
31	0xbce4a82a	-0.027912218
32	0x3d5a577a	0.05330608
33	0xbd56971e	-0.05239021
34	0xbd8455c2	-0.064616695
35	0x3dda88a7	0.106705956
36	0xbe48a6b7	-0.19594847
37	0xbd777cd1	-0.06042177
38	0x3d8f4198	0.06994933
39	0x3da73396	0.08164136
40	0xbdb6dfb9	-0.089293905
41	0x3cf66359	0.03007667
42	0xbe3135e9	-0.17305721
43	0xbe18528e	-0.14875242
44	0xbd44f357	-0.04808363
45	0xbbb1c2b3	-0.0054248213
46	0xbe3e0dd4	-0.18559963
47	0x3e277eda	0.16356984
48	0xbd54be15	-0.05193909
49	0x3dff8523	0.12476566
50	0xbdc54536	-0.096323416
51	0x3d520091	0.05127007
52	0xbd8087ff	-0.06275939
53	0x3dfe4f69	0.1241749
54	0x3cc03c1d	0.023466164
55	0x3d9e8970	0.07741058
56	0xbcf6e83f	-0.03014004
57	0x3db66c38	0.0890736
58	0xbd797d70	-0.060910642
59	0xbd4ebd43	-0.050473463
60	0xbdc572b3	-0.09641018
61	0x3d098e36	0.03358289
62	0xbcc5cd61	-0.024145784
63	0xbda706a1	-0.08155561
64	0xbdd5553f	-0.1041665
65	0xbd8309e7	-0.06398373
66	0xbca503cf	-0.020143418
67	0xbdc61b9b	-0.09673234
68	0xbdba7431	-0.09104193
69	0xbd188362	-0.03723467
70	0xbd30080b	-0.04297642
71	0xbdf3c713	-0.11903205
72	0xbcaf8302	-0.021424774
73	0x3e1fa844	0.15591532
74	0x3e47a9fc	0.19498438
75	0xbe3fd77c	-0.18734545
76	0x3d9310b4	0.0718092
77	0x3dbbb556	0.091654465
78	0xbd3b9dcd	-0.045804787
79	0xbe45176c	-0.19247216
80	0x3d49cf2f	0.04926985
81	0xbdd3a8a3	-0.10334899
82	0x3e096113	0.13415937
83	0x3dae646c	0.08515248
84	0x3d81a46e	0.063301906
85	0x3dd8ff74	0.10595599
86	0xbd6da978	-0.058022946
87	0xbdc7626f	-0.097355716
88	0x3ddd83dc	0.10816166
89	0xbe2f4c6e	-0.17119
90	0x3e674525	0.2258497
91	0x3bb9a3af	0.0056652646
92	0xbd1ccc30	-0.038280666
93	0xbdd1dbe7	-0.10247021
94	0x3c9d45df	0.019198356
95	0x3d799df1	0.06094164
96	0xbdb44583	-0.08802321
97	0xbc09107c	-0.008365747
98	0xbd6a995d	-0.057275165
99	0x3e0f1ac1	0.1397505
100	0xbdef727b	-0.11691757
101	0x3e143095	0.14471658
102	0xbe0a8244	-0.13526255
103	0xbde6eaaf	-0.11275231
104	0xbcd918c7	-0.026501073
105	0xbcadc847	-0.021213664
106	0xbe149fd1	-0.1451409
107	0x3d9d8d04	0.07692912
108	0x3cf382b7	0.029725416
109	0xbe083118	-0.13299978
110	0xbc3c331d	-0.011486796
111	0x3df818be	0.12114094
112	0xbe1ea2a8	-0.15491736
113	0xbdd07f82	-0.1018057
114	0x3da61aab	0.08110555
115	0xbcc4c52c	-0.0240198
116	0xbdba02f5	-0.09082595
117	0xbd937943	-0.07200863
118	0x3dd5c674	0.104382426
119	0xbcaf7571	-0.021418305
120	0x3da2f156	0.079561874
121	0x3dce1f1d	0.10064528
122	0xbd99b183	-0.07504561
123	0xbdb5e0d8	-0.08880776
124	0x3dafc8f3	0.0858325
125	0x3dc6bdfa	0.09704204
126	0x3b3e674a	0.0029053264
127	0xbd994779	-0.074843355
128	0x3d81a256	0.06329791
129	0xbdec5f42	-0.115416065
130	0xbe083929	-0.13303055
131	0x3d376d5c	0.044782028
132	0x3cca0e46	0.02466501
133	0x3d7760ee	0.060395174
134	0xbdbde89e	-0.09272884
135	0x3e0d9cee	0.13829395
136	0xbc9b3c52	-0.018949661
137	0xbe19a454	-0.15004092
138	0xbdc2d828	-0.09513885
139	0x3dbaed20	0.09127259
140	0xbe0d8138	-0.13818824
141	0xbe3cc65d	-0.18435045
142	0xbd3c5eee	-0.04598897
143	0xbc28be37	-0.010299257
144	0x3c8e92af	0.017403929
145	0xbdd76764	-0.10517767
146	0xbce43eed	-0.027862037
147	0xbdf8a60b	-0.12141045
148	0xbb7d7187	-0.0038672404
149	0xbdca7196	-0.09884946
150	0xba1d4aa9	-0.00060002
151	0xbe1a6a23	-0.1507955
152	0xbe163cbf	-0.1467161
153	0xbc9c2fa5	-0.019065687
154	0xbdeb30ea	-0.11483939
155	0x3d96333c	0.07333991
156	0xbd28a4be	-0.041172735
157	0x3dc4348b	0.09580334
158	0x3da3aaed	0.07991586
159	0x3dc756a6	0.09733324
160	0xbe0f7e3b	-0.14012997
161	0x3d49442a	0.049137272
162	0xbd9818e5	-0.07426623
163	0x3ddded2b	0.10836252
164	0x3ce9a0a4	0.028518982
165	0x3d398892	0.04529626
166	0x3e357023	0.17718558
167	0xbddfa52d	-0.10920177
168	0x3dc4ec5e	0.09615396
169	0xbd3057f2	-0.04305262
170	0xbda84708	-0.08216673
171	0x3d7d1772	0.061789937
172	0x3c6e75c2	0.014554443
173	0xbdc378d4	-0.095445305
174	0x3deca2e6	0.11554508
175	0xbc8a7207	-0.016900076
176	0x3e0268d5	0.12735303
177	0x3c895339	0.016763316
178	0x3dba4696	0.090954944
179	0xbcaf56f0	-0.02140376
180	0xbe05a328	-0.1305052
181	0xbcc9bb02	-0.024625305
182	0x3b830edb	0.0039995736
183	0xbd099139	-0.03358576
184	0xbe28d64c	-0.16487998
185	0x3cf3d625	0.029765198
186	0xbd278c97	-0.04090556
187	0x3e192242	0.14954475
188	0xbc51c5ae	-0.012803478
189	0xbaaa8489	-0.0013009469
190	0xbc1093f9	-0.008824342
191	0x3da26618	0.07929629
192	0xbcba6849	-0.022754805
193	0x3db69b33	0.08916321
194	0x3dfd1885	0.12358192
195	0x3d899c34	0.067192465
196	0x3d45ef33	0.04832382
197	0x3d52f70b	0.05150513
198	0xbc094218	-0.008377574
199	0x3dbc54e6	0.091958806
200	0x3c5fa431	0.013649986
201	0xbd21f5ae	-0.03954094
202	0x3dd6af2b	0.104826294
203	0x3d788281	0.060671333
204	0x3cf0350e	0.029322173
205	0x3d8916dc	0.06693813
206	0x3e126e97	0.14299999
207	0xbd2c42f0	-0.042056024
208	0xbd847b85	-0.06468872
209	0x3d90600c	0.070495695
210	0x3cbd32df	0.023095546
211	0xbdf814bf	-0.12113332
212	0xbe1c28ed	-0.15249987
213	0x3e0a389d	0.13498159
214	0xbe1a27a5	-0.15054186
215	0xbd4e5777	-0.05037638
216	0xbdb59e45	-0.08868078
217	0x3d4e904c	0.05043058
218	0x3cb9f491	0.022699626
219	0xbdee4ef4	-0.11636153
220	0xbba9fc16	-0.0051875217
221	0x3d3bd472	0.0458569
222	0x3ccdc37f	0.025117634
223	0x3c064b63	0.0081966845
224	0x3dbc9887	0.0920878
225	0xbdaa0ad9	-0.0830285
226	0xbe3f0871	-0.18655564
227	0xbc20a9b2	-0.0098060835
228	0xbd07d909	-0.033165965
229	0xbda7d29a	-0.08194466
230	0xbd9c3ec3	-0.07629158
231	0x3da00127	0.0781272
232	0xbd8813b7	-0.06644385
233	0x3e63093f	0.22171496
234	0x3d20e8e3	0.039284598
235	0x3c80cc26	0.015722346
236	0x3d37d438	0.044880122
237	0x39a1b333	0.00030841827
238	0xbe3515f7	-0.1768416
239	0xbe280164	-0.1640678
240	0x3c74c3f0	0.014939293
241	0x3da62110	0.08111775
242	0xbd38fc6d	-0.045162607
243	0xbde1b530	-0.11020887
244	0x3d085a94	0.033289507
245	0xbda7d8e1	-0.08195663
246	0xbdf7ba8c	-0.12096128
247	0xbcac602f	-0.021041958
248	0x3d457925	0.048211236
249	0xbdc5cead	-0.09658561
250	0x3e290e7a	0.16509429
251	0x3dbea1ff	0.09308242
252	0x3da1f60f	0.0790826
253	0x3d8d2612	0.06892027
254	0x3d19c750	0.037543595
255	0xbcf75dd9	-0.030196117

rnn.weight_hh_l0 f4 [128, 32]
0	0xbe083c76	-0.13304314
1	0x3dc81a91	0.09770692
2	0xbd36f9fa	-0.04467199
3	0xbe01a6b8	-0.12661254
4	0xbd15ff9f	-0.036620732
5	0x398e3ae5	0.0002712823
6	0x3e000ab4	0.12504083
7	0x3dcd01b2	0.10010089
8	0xbd74b58f	-0.05974346
9	0x3d9dde01	0.077083595
10	0xbd3f24bf	-0.046665903
11	0x3d2eba1d	0.04265796
12	0xbc529653	-0.012853223
13	0x3c7540a0	0.014969021
14	0xbda07851	-0.078354485
15	0x3c814dfe	0.01578426
16	0xbdc3ce6a	-0.09560855
17	0x3c189bb6	0.009314468
18	0xbdb6070d	-0.088880636
19	0x3d758aa9	0.05994669
20	0x3dd22748	0.102613986
21	0x3de998e3	0.11406114
22	0xbc84ff68	-0.016235068
23	0xbe3e2db5	-0.18572123
24	0x3e10db1c	0.14146084
25	0xbd8ceb31	-0.06880797
26	0xbd0b7782	-0.03404952
27	0x3dae9672	0.08524789
28	0x3c2fcf9b	0.010730649
29	0x3e170b32	0.14750364
30	0xbba357f1	-0.0049848487
31	0x3e195540	0.14973927
32	0x3cbd0860	0.023075283
33	0xbd891740	-0.06693888
34	0xbe104366	-0.1408821
35	0xbdbf1aea	-0.09331305
36	0xbd14700f	-0.03623968
37	0x3d73dbb2	0.05953569
38	0x3d9a8eb4	0.0754675
39	0x390596dd	0.0001274007
40	0xbdb374fb	-0.08762547
41	0xbde81d91	-0.11333764
42	0xbd8ca640	-0.06867647
43	0x3dc92877	0.09822171
44	0xbc9fc534	-0.019503213
45	0xbda7386a	-0.08165057
46	0x3dabefcb	0.08395346
47	0x3ddbea66	0.10738067
48	0x3d7002cb	0.058596414
49	0xbc15a0c5	-0.009132569
50	0x3d80b87c	0.062851876
51	0xbdd69169	-0.104769535
52	0xbcf000af	-0.029297201
53	0xbd20b311	-0.03923327
54	0xbda999a4	-0.08281258
55	0xbcc62660	-0.02418822
56	0x3e0d4f65	0.13799818
57	0x3bfe3c90	0.0077586845
58	0x3ccced36	0.025015455
59	0x3d06396e	0.032769613
60	0x3d8ba36a	0.06818278
61	0xbe11b61f	-0.1422963
62	0xbca73b83	-0.02041412
63	0x3e19a4cb	0.1500427
64	0xbc76eff1	-0.015071855
65	0x3db88772	0.09010209
66	0xbd31d900	-0.043419838
67	0xbd9f640d	-0.07782755
68	0xbdbc2b28	-0.09187919
69	0xbdf07a4c	-0.11742076
70	0x3dc9d18a	0.098544195
71	0x3be936c2	0.0071171233
72	0x3d773c24	0.06036009
73	0xbdce293b	-0.10066458
74	0x3cd384d7	0.025820179
75	0x3daa01f8	0.08301157
76	0x3e4c626f	0.19959424
77	0x3c9824bd	0.018572206
78	0x3d440c7e	0.047863476
79	0x3de3f824	0.111313134
80	0xbd9dc86a	-0.077042416
81	0xbb03417f	-0.0020028052
82	0xbd1def5b	-0.038558345
83	0xbe363aaa	-0.17795816
84	0xbd119310	-0.03554064
85	0xbe0d5529	-0.13802017
86	0x3b64ae50	0.0034893937
87	0x3e5b2761	0.2140174
88	0xbe1e1b12	-0.15440014
89	0x3deb1d54	0.11480203
90	0xbe151c86	-0.14561662
91	0x3e061524	0.13094002
92	0xbcd42271	-0.02589533
93	0x3db09287	0.08621698
94	0xbdab8ef4	-0.083768755
95	0xbe17cfca	-0.14825359
96	0xbc5dc96d	-0.013536793
97	0xbd0e2601	-0.034704212
98	0xbd8519ae	-0.06499039
99	0x3d8b0be0	0.06789374
100	0x3d8883f0	0.0666579
101	0xbdef7b80	-0.11693478
102	0xbdab607c	-0.08368012
103	0x3dad26ac	0.08454642
104	0x3dc16ea1	0.09444929
105	0xbdcc5c43	-0.09978535
106	0x3ce2e9da	0.0276994
107	0xbc5e05d9	-0.013551199
108	0x3de6c366	0.11267738
109	0x3e14c461	0.14528038
110	0x3e0c8935	0.13724215
111	0x3d0bacbe	0.034100287
112	0x3db709b2	0.08937396
113	0x3d5ac130	0.053406894
114	0xbe1adf3b	-0.15124218
115	0xbdaf7e9b	-0.0856907
116	0x3c5fd627	0.013661898
117	0xbddcb2fd	-0.10776327
118	0x3cef45f2	0.029208157
119	0xbd8380a8	-0.064210236
120	0x3daa9af3	0.083303355
121	0x3d9068df	0.070512526
122	0xbc1388f3	-0.009004819
123	0xbd43f9f4	-0.047845796
124	0xbde709e5	-0.11281184
125	0xbc98e6c8	-0.018664733
126	0xbc4c4f77	-0.012470118
127	0xbd4301d6	-0.047609173
128	0x3cf973d3	0.030450737
129	0xbe3af9a4	-0.18259293
130	0x3dfa4c51	0.122215874
131	0xbd9a65aa	-0.07538922
132	0xbc15ed50	-0.009150818
133	0x3c0b7d00	0.008513689
134	0x3e28d7c2	0.16488555
135	0xbc762f77	-0.015025965
136	0xbb13f06a	-0.0022573718
137	0xbe0970f5	-0.13421996
138	0xbc78c558	-0.015183769
139	0xbda7eab0	-0.0819906
140	0xbe07299e	-0.1319947
141	0xbd174075	-0.036926705
142	0xbe0ed26c	-0.13947457
143	0xbe1ea63d	-0.15493102
144	0xbd47e538	-0.048802584
145	0xbd0c0cd7	-0.034191933
146	0x3e23e9dd	0.1600718
147	0x3dc8668e	0.09785186
148	0x3c090cf4	0.008364905
149	0xbd786a57	-0.06064829
150	0x3ba54f9f	0.005044892
151	0x3db6b09d	0.08920405
152	0xbe1d3f6f	-0.15356229
153	0x3c2beb0a	0.010493049
154	0x3e31be13	0.17357664
155	0x3dd9a53c	0.10627219
156	0x3d439306	0.047747634
157	0x3d10797e	0.035272114
158	0x3e4e1521	0.20125248
159	0x3ca94b04	0.020665653
160	0xbc469cef	-0.012122377
161	0x3d091057	0.03346285
162	0xbd3b3a18	-0.0457097
163	0x3d557e43	0.052122366
164	0x3d6cdd76	0.05782839
165	0xbdbe51f8	-0.09292978
166	0x3d9f0a9a	0.07765694
167	0x3c9f5553	0.019449865
168	0xbe4a21dc	-0.19739479
169	0x3d4ba684	0.04971935
170	0xbc82e6ff	-0.015979288
171	0x3be3f8ef	0.0069571654
172	0xbe1efe4e	-0.15526697
173	0x3cba9142	0.022774342
174	0x3b055c10	0.0020349063
175	0x3e204102	0.15649799
176	0x3d5d4fb5	0.054031093
177	0xbd9a36b9	-0.07529969
178	0xbd05c1ca	-0.032655515
179	0xbc3923fd	-0.011300084
180	0xbc54e82a	-0.012994805
181	0xbe583635	-0.21114428
182	0x3d6f801f	0.058471795
183	0x3dacaf30	0.08431852
184	0xbcf55994	-0.02994994
185	0x3db39f97	0.08770674
186	0x3d2c1244	0.042009607
187	0xbd75bb7f	-0.059993263
188	0xbe18ad36	-0.14909825
189	0xbdc5b674	-0.09653941
190	0xbacd0f42	-0.0015644806
191	0x3d3ae9d1	0.04563314
192	0x3dc656f0	0.09684551
193	0x3d964bd0	0.07338679
194	0x3943d252	0.00018675
195	0xbc42b46a	-0.011883834
196	0x3e00d86f	0.12582563
197	0xbcd8a6c7	-0.026446713
198	0x3dc144f2	0.094369784
199	0x3c24a32e	0.010048671
200	0x3e0f6fa9	0.14007439
201	0x3ce50f44	0.02796138
202	0xbda71ba4	-0.08159569
203	0xbb1ec453	-0.0024225905
204	0x3c2e849e	0.010651736
205	0x3e1e48f2	0.15457514
206	0xbd940429	-0.07227356
207	0x3d82811a	0.063722804
208	0xbe1a5864	-0.15072781
209	0x3d3311dd	0.043718208
210	0x3e0d32b8	0.13788879
211	0xbe3842e0	-0.17994261
212	0x3deb979d	0.11503527
213	0x3e180849	0.1484691
214	0xbdeccd19	-0.11562557
215	0xbd577a84	-0.052607074
216	0x3bd94005	0.006629946
217	0xbe1ab6e4	-0.1510883
218	0x3d9b2abd	0.07576511
219	0x3d643f58	0.05572447
220	0x3dfbcca0	0.122948885
221	0x3d281ca8	0.041042954
222	0x3dc74d8a	0.09731586
223	0x3e01b399	0.12666167
224	0xbdb72970	-0.089434505
225	0xbb1ef3ea	-0.002425427
226	0x3d8be98f	0.06831657
227	0xbe1106de	-0.14162776
228	0x3dd60771	0.10450638
229	0xbddef4b2	-0.10886516
230	0x3d89cf3a	0.067289785
231	0x3dfe0755	0.12403742
232	0xbdc1ab6f	-0.094565265
233	0xbb61c64c	-0.003445047
234	0xbd8c3898	-0.06846732
235	0x3dd553bb	0.10416361
236	0x3d3e45b1	0.04645318
237	0x3a5258dd	0.0008024106
238	0xbdda505c	-0.106598586
239	0xbd9aec78	-0.07564634
240	0x3d5c2c18	0.05375299
241	0x3bae82e2	0.005325661
242	0x3c5a4a84	0.01332343
243	0x3d3656ef	0.0445165
244	0x3d4cba4e	0.04998236
245	0x3dc4a2ea	0.09601386
246	0xbbb6d5cd	-0.0055796863
247	0x3e2f6260	0.17127371
248	0xbdff9e23	-0.12481334
249	0x3d82dd7b	0.063899
250	0x3da5baed	0.08092294
251	0x3d1d6da2	0.038434632
252	0x3e3c9135	0.18414767
253	0x3e2faa41	0.1715479
254	0x3ce9fe24	0.028563567
255	0xbe0e9595	-0.13924249

rnn.bias_ih_l0 f4 [128]
0	0xbd8ffed5	-0.07031027
1	0xbdf9bf6b	-0.12194713
2	0x3df09cac	0.11748633
3	0xbdcc6cd7	-0.09981697
4	0x3d0c89fd	0.034311283
5	0x3ddd653a	0.10810323
6	0xbd51d95c	-0.05123268
7	0x3dbde83f	0.09272813
8	0xbe27814e	-0.1635792
9	0x3e2cf794	0.16891319
10	0xbc087b60	-0.008330196
11	0xbd4b3935	-0.049615104
12	0xbcfc3f8c	-0.03079202
13	0xbdb2c3a3	-0.08728721
14	0x3e161b54	0.14658862
15	0x3e1fdb31	0.15610959
16	0xbc45b530	-0.012067124
17	0x3d809781	0.06278897
18	0x3cb15211	0.021645578
19	0xbdd3e381	-0.10346127
20	0x3d93643d	0.07196853
21	0x3cd5e0ab	0.026108107
22	0x3c20aaae	0.009806318
23	0x3d5e2709	0.054236446
24	0x3e31b354	0.17353565
25	0x3d8069e2	0.062701955
26	0xbdbcdaaf	-0.09221398
27	0x3d515500	0.051106453
28	0xbdeeb963	-0.116564535
29	0x3dedf4bb	0.11618944
30	0xbd75103d	-0.05982994
31	0xbe0b4018	-0.13598669
32	0x3e289efb	0.16466896
33	0xbe05f145	-0.13080318
34	0x3e303b20	0.17210054
35	0xbdd40ede	-0.10354398
36	0x3e7cd5bb	0.24690907
37	0xbca6cdb2	-0.020361755
38	0xbd279ffd	-0.04092406
39	0x3e425cfb	0.18980782
40	0x3e3d4a3d	0.18485351
41	0x3d71d7b3	0.059043597
42	0xbd041aa9	-0.032251988
43	0x3e695632	0.22786787
44	0x3ce33f1a	0.02774005
45	0x3da4383a	0.08018537
46	0x3e117f81	0.14208795
47	0x3d8fe52c	0.07026133
48	0x3e3f1b8c	0.18662852
49	0x3d91dfcb	0.07122763
50	0x3e4609a4	0.19339615
51	0x3dd44c2f	0.10366093
52	0x3da9563e	0.082684025
53	0x3dc4d773	0.09611406
54	0xbd7161bc	-0.058931097
55	0x3e0bf5cc	0.13667983
56	0xbdfc6825	-0.123245515
57	0xbdb5d624	-0.08878735
58	0x3df622d6	0.12018363
59	0xbd20c728	-0.03925243
60	0x3d1e58d9	0.03865895
61	0x3dd56a33	0.104206465
62	0x3e2124b8	0.15736663
63	0x3e46634d	0.19373818
64	0xbe1153ff	-0.14192198
65	0x3dfb3b13	0.12267127
66	0xbd8d5d96	-0.06902616
67	0xbde4d494	-0.111733586
68	0xbe13b067	-0.14422761
69	0x3c949e5b	0.018141916
70	0x3c9fda6c	0.019513331
71	0xbce77ea9	-0.028258638
72	0xbd205185	-0.039140243
73	0xbd8cc38a	-0.068732336
74	0xbe30e831	-0.17276074
75	0x3dfcc023	0.12341335
76	0xbc173ca4	-0.009230766
77	0x3d977e94	0.0739719
78	0xbd5dd0d2	-0.054154225
79	0x3e1c57f9	0.15267934
80	0xbde684af	-0.11255776
81	0xbe16cfb6	-0.14727673
82	0x3e267a58	0.16257608
83	0x3da6bbba	0.08141275
84	0x3e1d8230	0.15381694
85	0xbdec6b8d	-0.11543951
86	0x3cd23d54	0.02566401
87	0x3d6c0a12	0.05762679
88	0x3daaafd1	0.083343156
89	0xbd70402d	-0.058654953
90	0xbe178b83	-0.14799313
91	0xbd253c36	-0.040340625
92	0xbe34c059	-0.176515
93	0x3dae0efa	0.0849895
94	0x3c55aca6	0.013041651
95	0xbe1f3280	-0.15546608
96	0x3ddb95e6	0.1072195
97	0xbd035138	-0.032059878
98	0x3c46104c	0.012088846
99	0x3dde4ef2	0.108549014
100	0x3e3680a2	0.17822507
101	0x3d06b330	0.03288573
102	0x3e2b09b4	0.1670292
103	0xbc609fe9	-0.013710001
104	0x3e402dea	0.18767515
105	0xbd6c43d5	-0.057681877
106	0x3c543fda	0.0129546765
107	0x3dc5d02e	0.09658848
108	0x3dce25be	0.100657925
109	0x3e009bf4	0.12559491
110	0x3c236883	0.009973648
111	0xbd4d4807	-0.05011752
112	0x3e48b74b	0.1960117
113	0xbd48f5b3	-0.049062442
114	0xbdb852b1	-0.09000147
115	0xbb75f2a2	-0.0037528654
116	0x3e23dfac	0.16003293
117	0x3bf190b9	0.0073719886
118	0xbdada700	-0.08479118
119	0x3bc41ade	0.005984648
120	0x3d1b96d0	0.037985623
121	0x3d0fd5d6	0.03511604
122	0xbcce371f	-0.025172768
123	0xbd860f83	-0.065459274
124	0x3def90fc	0.116975754
125	0x3e17af4f	0.14812969
126	0x3cdb6367	0.026780797
127	0xbd4ebfd8	-0.050475925

rnn.bias_hh_l0 f4 [128]
0	0xbc0b1909	-0.008489856
1	0xbd9f7780	-0.07786465
2	0xbdc45eed	-0.09588418
3	0xbda11a00	-0.07866287
4	0xbe0c561b	-0.13704722
5	0x3db220c6	0.08697657
6	0x3cc07082	0.023491148
7	0x3e4f9ce5	0.20274694
8	0xbb9ce896	-0.0047884686
9	0x3d620888	0.055183917
10	0xbc455791	-0.012044803
11	0xbe1bf4ee	-0.15230152
12	0x3e1557b9	0.14584245
13	0xbcb5cea1	-0.022193255
14	0x3d6c20d7	0.057648506
15	0x3dd8f2fd	0.10593221
16	0x3d536cf0	0.051617563
17	0xbcdcbfd6	-0.026946943
18	0x3e254a6b	0.1614167
19	0x3db8289c	0.089921206
20	0xbccbeb16	-0.024892371
21	0x3e29375d	0.16525026
22	0x3d1ecc5e	0.03876912
23	0x3e084f9b	0.13311617
24	0x3e3c9ef7	0.18420015
25	0xbe0f7724	-0.14010292
26	0xbd09ea94	-0.033670977
27	0x3e3a3115	0.18182786
28	0xbd3d6664	-0.046240225
29	0xbe01beba	-0.12670413
30	0x3cb9dcd0	0.0226883
31	0xbb718f36	-0.0036859042
32	0xbdcd9a20	-0.10039163
33	0xbd007b0d	-0.03136735
34	0xbd99ee72	-0.07516183
35	0xbe169a89	-0.14707388
36	0x3e181c84	0.14854628
37	0x3e4b430d	0.19849797
38	0x3d8ea7ad	0.06965575
39	0xbdad192c	-0.08452067
40	0x3e20b89c	0.15695423
41	0xbd4243f4	-0.047428086
42	0x3e2acdc9	0.16680063
43	0x3c5be6f6	0.013421765
44	0x3d278a50	0.04090339
45	0x3e10039a	0.14063874
46	0x3daf8338	0.0856995
47	0x3d8b295d	0.06794999
48	0xbe14dbfa	-0.1453704
49	0xbd41cba0	-0.047313333
50	0xbcbb31ca	-0.02285089
51	0xbd688c4c	-0.056774423
52	0x3dc3989a	0.09550591
53	0xbde734d2	-0.112893716
54	0xbdc8942e	-0.09793888
55	0x3e0fe206	0.14051065
56	0xbcfbe3e8	-0.030748323
57	0x3e36c65d	0.17849107
58	0x3da2ef7b	0.079558335
59	0x3e04f8f8	0.12985599
60	0x3d834847	0.0641027
61	0xbdc60bb0	-0.09670198
62	0xbd4196be	-0.0472629
63	0x3e5628f8	0.20914066
64	0xbddef695	-0.108868755
65	0xbe243e78	-0.16039455
66	0xbc7d3590	-0.015454665
67	0x3cca6f0c	0.024711154
68	0xbda1e3aa	-0.079047516
69	0x3ca71721	0.02039677
70	0x3e0e8342	0.13917258
71	0x3e3418e7	0.17587624
72	0x3da9ec7c	0.08297059
73	0x3da37bdb	0.07982608
74	0xbafebff3	-0.0019435867
75	0xbe1efa45	-0.15525158
76	0x3c88f794	0.016719617
77	0x3d859291	0.06522096
78	0xbdf7f6d8	-0.121076286
79	0xbd93c7b0	-0.07215822
80	0xbd828ba3	-0.0637429
81	0x3abc06bd	0.001434527
82	0xbd81c112	-0.06335653
83	0xbc541cc8	-0.012946315
84	0xbe0bd629	-0.13655914
85	0x3daeeaba	0.08540864
86	0xbd4d3a58	-0.05010447
87	0xbe0edcac	-0.13951367
88	0xbd222fd2	-0.039596386
89	0xbda19851	-0.0789038
90	0xbe1119cd	-0.14169998
91	0x3e26434a	0.16236606
92	0xbdb24c3d	-0.087059475
93	0x3e1dbf45	0.15404995
94	0x3dcab07e	0.098969445
95	0x3da9d8be	0.082932934
96	0x3d47c715	0.048773844
97	0xbdf7aa81	-0.12093068
98	0x3e3ff24f	0.18744777
99	0x3cd54e8c	0.02603843
100	0xbd81a677	-0.06330579
101	0xbd85b0d5	-0.06527869
102	0xbd3119c5	-0.043237466
103	0x3d92c212	0.07165922
104	0x3e005cda	0.1253542
105	0xbe15332e	-0.14570305
106	0xbdc2c138	-0.0950951
107	0xbd06ed8e	-0.032941394
108	0x3e3308bd	0.17483802
109	0xbda4e423	-0.08051326
110	0xbdb0c1d3	-0.08630719
111	0xbdec63e0	-0.11542487
112	0x3e3031d6	0.17206511
113	0x3e5d4b0f	0.21610664
114	0xbc6fa6fc	-0.0146272145
115	0xbdd0a4b6	-0.10187666
116	0x3e326e43	0.17424874
117	0xbde46dac	-0.11153731
118	0x3dc496ad	0.095990516
119	0x3de3e4d1	0.11127628
120	0xbb76382d	-0.0037570104
121	0xbdc1db17	-0.09465616
122	0x3db82c36	0.089928076
123	0xbd95e71c	-0.07319471
124	0x3d609fb0	0.05483979
125	0x3e3ebede	0.18627498
126	0x3d366207	0.04452708
127	0x3e008165	0.1254936

rnn.weight_ih_l1 f4 [128, 32]
0	0x3d2d4e0f	0.04231077
1	0x3d493f78	0.049132794
2	0xbde330fd	-0.11093328
3	0xbcd2fb73	-0.025754666
4	0x3d9a6a6d	0.0753983
5	0xbe0508ce	-0.1299164
6	0xbcacdf8e	-0.021102693
7	0xbc9da2a2	-0.019242588
8	0x3dfccf45	0.12344221
9	0x3dd84522	0.10560061
10	0xbdb4b4ee	-0.08823572
11	0xbd1e8537	-0.038701262
12	0xbc0b11cf	-0.008488133
13	0xbd695ec6	-0.05697515
14	0x3d764121	0.060120706
15	0xbcdf5669	-0.027262883
16	0xbdc1b038	-0.09457439
17	0xbd74d746	-0.059775613
18	0x3d6e7c6b	0.058224123
19	0xbce51c76	-0.027967673
20	0xbd734329	-0.05939022
21	0x3decc45a	0.115608886
22	0xbc2fd65e	-0.010732261
23	0xbd92ed93	-0.0717422
24	0xbd2517a1	-0.040305737
25	0xbd81f547	-0.06345611
26	0xbd00fe37	-0.03149244
27	0x3d83c92f	0.06434857
28	0xbdd5564c	-0.104168504
29	0xbe074b80	-0.13212395
30	0xbdbfa0fc	-0.09356877
31	0xbdca958e	-0.098918065
32	0xbdfa063d	-0.12208221
33	0xbcb8f5aa	-0.02257808
34	0x3bdddac8	0.0067704655
35	0x3e20de22	0.15709737
36	0x3dbea813	0.09309401
37	0xbe29904e	-0.16558954
38	0x3d4a23d3	0.04935057
39	0x3d14094a	0.03614167
40	0xbb8be9b4	-0.004269803
41	0xbd33d6d9	-0.043906067
42	0xbc637aa6	-0.013884222
43	0x3cd7d4a1	0.026346507
44	0xbe045ce5	-0.12926061
45	0xbcf55e0e	-0.029952075
46	0xbd203802	-0.039115913
47	0x3dcf49aa	0.10121472
48	0x3ce12020	0.027481139
49	0x3cb1bc77	0.021696312
50	0xbd975727	-0.0738967
51	0xbd9e0cb6	-0.07717268
52	0xbd68e07e	-0.056854717
53	0xbdd645ee	-0.10462557
54	0x3c9ccca0	0.019140542
55	0xbbb088c2	-0.0053873966
56	0x3dae0936	0.084978506
57	0xbdc285ba	-0.094981626
58	0xbddd9d8a	-0.10821064
59	0x3d0e27be	0.03470587
60	0xbcd90197	-0.026490016
61	0x3d71aca5	0.059002537
62	0x3d22bb66	0.0397295
63	0xbc68c956	-0.0142081585
64	0x3e0b3ea0	0.13598108
65	0xbda48a6e	-0.08034216
66	0xbe38a03b	-0.18029873
67	0xbdad2947	-0.08455139
68	0xbe0eab93	-0.13932638
69	0xbe2ac6f3	-0.16677456
70	0xbdb450b4	-0.088044554
71	0xbddb9aee	-0.1072291
72	0x3d681d6d	0.056668688
73	0x3e4af661	0.19820549
74	0x3e034a74	0.1282137
75	0xbd909725	-0.070600785
76	0x3d306dee	0.043073587
77	0xbd7cd031	-0.061721984
78	0x3e1106da	0.1416277
79	0xbdca4292	-0.098759785
80	0xbddde932	-0.10835494
81	0xba27b6b7	-0.0006397771
82	0x3d1b42eb	0.037905615
83	0xbcc9284e	-0.024555352
84	0x3da0c816	0.07850663
85	0xbd662e20	-0.056196332
86	0xbcfd4121	-0.030914845
87	0x3d4fccdb	0.050732475
88	0x3d5b3233	0.05351467
89	0x3d9c91a9	0.0764497
90	0x3e4bbd42	0.19896415
91	0x3d2ac2f3	0.041689824
92	0xbe18a10c	-0.14905185
93	0xbe189b74	-0.1490305
94	0xbc9a8f2d	-0.0188671
95	0xbe442189	-0.19153418
96	0xbc07d93c	-0.008291539
97	0xbb465ce1	-0.0030267762
98	0x3d62cf6f	0.055373605
99	0x3b150517	0.002273863
100	0x3d3f58d6	0.04671558
101	0xbd96f9cd	-0.073718645
102	0xbcc966db	-0.024585178
103	0xbdb1b9c5	-0.08678011
104	0x3cd10c75	0.025518635
105	0x3c6d07b3	0.014467168
106	0xbd9489d4	-0.07252851
107	0xbd85f94f	-0.065416925
108	0xbd12870b	-0.03577332
109	0x3da59074	0.08084193
110	0x3e00e68b	0.12587945
111	0xbd58b5ef	-0.05290788
112	0x3af20518	0.0018464653
113	0x3d9658b9	0.07341141
114	0xbdddfe25	-0.1083949
115	0xbd72f190	-0.059312403
116	0x3be7824c	0.007065093
117	0xbbeb251d	-0.007176055
118	0x3d42b496	0.0475355
119	0x3d6e5a62	0.058191665
120	0xbb3bdb7d	-0.002866476
121	0x3d71c76d	0.059028078
122	0xbda5df01	-0.08099175
123	0x3b52dd69	0.0032175428
124	0x3d258948	0.040414125
125	0xbe259b84	-0.16172606
126	0xbdb26ef3	-0.08712568
127	0xbd8bde54	-0.06829515
128	0x3d2e81f9	0.04260442
129	0xbde0bf81	-0.109740265
130	0x3ce8adc7	0.028403176
131	0x3da65304	0.08121303
132	0xbd7c89e5	-0.061654944
133	0xbba26e7e	-0.0049570194
134	0xbdd264d5	-0.102731384
135	0x3d1cc81d	0.03827678
136	0xbc9b3061	-0.018943967
137	0x3e007ea9	0.12548317
138	0xbde7f07c	-0.11325166
139	0xbda51b06	-0.08061795
140	0x3d4195f0	0.047262132
141	0x3e140658	0.14455545
142	0x3e180a7f	0.14847754
143	0x3e23e432	0.16005018
144	0x3dd04560	0.10169482
145	0x3d1cf84b	0.038322728
146	0xbe368c34	-0.17826921
147	0x3d5f7565	0.054555316
148	0x3d9f35e9	0.077739544
149	0xbc9b7741	-0.018977763
150	0x3cc81ee8	0.0244288
151	0x3e23583b	0.15951626
152	0xbddaa9fa	-0.10676952
153	0x3d88af41	0.06674052
154	0x3d3f56bc	0.046713576
155	0x3d0199b1	0.031640712
156	0xbe345fb5	-0.17614634
157	0x3dda3b01	0.10655785
158	0xbdb3e3dc	-0.08783695
159	0xbdc0f46e	-0.09421621
160	0x3dfbf79c	0.12303087
161	0x3daed62e	0.08536945
162	0xbbbe9990	-0.005816646
163	0x39273aac	0.00015948218
164	0x3dc47c20	0.095939875
165	0xbe6416ce	-0.22274324
166	0xbd295a31	-0.04134578
167	0xbe0ccae0	-0.13749266
168	0x3b3c342f	0.0028717627
169	0xbdf9271f	-0.12165665
170	0xbd8de709	-0.06928832
171	0xbe20333d	-0.15644546
172	0xbdc408f0	-0.09572017
173	0x3dcb5e99	0.099301524
174	0x3e306f7e	0.17230031
175	0x3cd16a13	0.025563275
176	0x3d1315ed	0.035909582
177	0x3dc2de4d	0.09515057
178	0xbdf1fe5a	-0.11816092
179	0x3d739fe5	0.05947866
180	0x3e4a6ebf	0.19768809
181	0xbe18a77d	-0.14907642
182	0xbd376e4f	-0.044782933
183	0x3e1ac2e6	0.1511341
184	0xbe1f79d5	-0.15573819
185	0x3e662de7	0.22478448
186	0x3dd16145	0.10223631
187	0xbc254e12	-0.010089414
188	0xbdfcb5cc	-0.123393625
189	0x3d2d4a96	0.04230746
190	0x3cc7d47f	0.024393318
191	0xbc7661c1	-0.015037955
192	0x3d59e14b	0.05319337
193	0xbdae82bc	-0.08521029
194	0xbd69c822	-0.057075627
195	0xbcb6c030	-0.022308439
196	0xbdc5775f	-0.09641909
197	0xbe185eab	-0.14879863
198	0x3bc007d1	0.005860307
199	0x3e0a9428	0.1353308
200	0x3dcb0c9a	0.09914513
201	0x3e073a8f	0.13205932
202	0x3d34e8e0	0.0441674
203	0x3dc49f41	0.09600688
204	0xbe38117d	-0.17975421
205	0x3e5d414e	0.21606943
206	0x3e70814b	0.23486821
207	0x3cc0b202	0.02352238
208	0xbd9177b4	-0.0710291
209	0x3b6b7dae	0.0035933065
210	0xbd6b30bf	-0.057419535
211	0xbdee30ac	-0.11630377
212	0xbae4e67b	-0.0017463708
213	0xbe239e84	-0.15978438
214	0xbb58787d	-0.00330308
215	0xbcf4ec41	-0.02989781
216	0x3db556a2	0.088544145
217	0x3e1bcc4d	0.15214653
218	0xbd68f173	-0.05687089
219	0xbc6af2e0	-0.0143401325
220	0xbd47c694	-0.048773363
221	0xbd3003ec	-0.04297249
222	0xbd8ddae9	-0.069265194
223	0xbe0ca30d	-0.13734074
224	0xbcf65429	-0.030069428
225	0xbe4423f0	-0.19154334
226	0xbd5e99ec	-0.05434601
227	0x3d2e19bd	0.042505015
228	0xbe7be465	-0.24598844
229	0x3ca09e80	0.019606829
230	0xbe155c2e	-0.14585945
231	0xbda60446	-0.08106284
232	0x3e0aa708	0.1354028
233	0x3deb70aa	0.11496098
234	0xbde09a26	-0.109669015
235	0xbd45863d	-0.048223723
236	0xbda5cb2f	-0.08095395
237	0xbd8c1188	-0.06839281
238	0x3d4d0090	0.050049365
239	0x3e11ee88	0.14251149
240	0xbce701b0	-0.028199047
241	0x3cd34415	0.0257893
242	0xbd8729d2	-0.065997735
243	0xbd451b2b	-0.048121613
244	0xbd59822d	-0.05310266
245	0xbd364d1a	-0.044507124
246	0x3d168996	0.036752306
247	0xbd69fe2f	-0.057127174
248	0xbe0f8725	-0.14016397
249	0xbcae9d29	-0.021315174
250	0x3e22bd40	0.15892506
251	0x3dc827b5	0.097731985
252	0xbdf4be7c	-0.119503945
253	0xbe26e060	-0.1629653
254	0x3dce35dc	0.100688666
255	0xbe5a8bc6	-0.21342382

rnn.weight_hh_l1 f4 [128, 32]
0	0x3c40939a	0.011753941
1	0x3d6a9880	0.05727434
2	0xbd88272e	-0.06648098
3	0xbdbd4a80	-0.09242725
4	0xbde92da0	-0.113856554
5	0x3dd1663e	0.10224579
6	0xbbe2a50f	-0.006916649
7	0x3d90af4c	0.07064685
8	0xbe02f313	-0.12788038
9	0xbd9e0cbf	-0.07717275
10	0xbd61ce90	-0.055128634
11	0x3d3f30c0	0.04667735
12	0xbe125fd8	-0.14294374
13	0x3cb27d77	0.021788342
14	0xbd319ea6	-0.04336419
15	0xbd42dc25	-0.047573227
16	0xbe0ad0f2	-0.13556269
17	0x3d1e2e56	0.03861841
18	0x3dbf5fd4	0.0934445
19	0x3d249a61	0.04018629
20	0x3da600ff	0.08105659
21	0x3d00aa34	0.03141232
22	0xbe03c4e1	-0.12868072
23	0xbd8f670e	-0.07002078
24	0xbbb17975	-0.00541609
25	0xbd5c8788	-0.05384019
26	0xbe13059b	-0.14357607
27	0x3da583e8	0.080818
28	0x3d829297	0.06375616
29	0x3d99071e	0.074720606
30	0xbe0c9630	-0.13729167
31	0x3d77baf5	0.06048103
32	0xbd6686ed	-0.05628102
33	0xbe2d82aa	-0.16944376
34	0x3cda5229	0.026650505
35	0xbccdccc4	-0.025122054
36	0xbb98e86e	-0.0046663797
37	0xbd78843a	-0.060672976
38	0xbdca4e88	-0.0987826
39	0x3e3bbdcd	0.18334122
40	0xbc6693d2	-0.014073329
41	0x3de5bd60	0.11217761
42	0x3d8186db	0.0632455
43	0xbdfa6ea2	-0.12228133
44	0xbdb5941a	-0.08866139
45	0x3ddf9417	0.10916918
46	0xbe092a71	-0.13395096
47	0x3ddf14d8	0.108926475
48	0xbd88dc51	-0.06682647
49	0xbcb05c7e	-0.021528479
50	0x3e25afe8	0.16180384
51	0xbe548ffd	-0.20758052
52	0x3cc9f913	0.0246549
53	0xbdf4078c	-0.11915502
54	0xbb3875fd	-0.0028146498
55	0x3dba576e	0.09098707
56	0x3dbc9252	0.09207596
57	0xbd53a498	-0.05167064
58	0xbd8863b0	-0.06659639
59	0x3caa879d	0.020816619
60	0x3e43dcdc	0.1912722
61	0x3e19debf	0.15026377
62	0x3d36d86e	0.044639997
63	0xbe116729	-0.14199509
64	0xbc8d0bd1	-0.017217549
65	0xbd5d8fef	-0.054092344
66	0x3dd70751	0.10499442
67	0xbdb2a3d2	-0.087226525
68	0xbd3b1668	-0.045675665
69	0xbcc8e6ec	-0.024524175
70	0xbe071412	-0.1319125
71	0xbc037b03	-0.008024934
72	0x3e407258	0.18793619
73	0xbe2dbdbc	-0.16966909
74	0xbe0655aa	-0.13118616
75	0x3d9e5d4b	0.07732638
76	0x3bc52da2	0.0060174027
77	0xbd3a1999	-0.045434568
78	0xbda74cc3	-0.08168938
79	0x3d1d6b10	0.03843218
80	0x3a73953b	0.00092919514
81	0x3d9928b9	0.0747847
82	0x3d7b16b8	0.061300963
83	0xbb037e0d	-0.0020064146
84	0x3d63ab6d	0.055583406
85	0x3d460e1d	0.048353303
86	0xbdc91a4b	-0.09819468
87	0x3e13029e	0.14356467
88	0xbd455e2f	-0.048185524
89	0xbc3da5b4	-0.011575151
90	0x3e4073e2	0.18794206
91	0xbd07dfcb	-0.03317241
92	0x3e15e873	0.14639454
93	0xbe1b9ffc	-0.15197748
94	0x3d9ea77f	0.07746791
95	0xbd94c747	-0.07264572
96	0x3dd99889	0.10624797
97	0xbe0140fc	-0.12622446
98	0xbdf2d30e	-0.11856662
99	0xbc31efc7	-0.01086039
100	0xbd9a97a9	-0.07548458
101	0xbde2a899	-0.11067314
102	0xbd9e5ddd	-0.07732747
103	0x3da43730	0.08018339
104	0x3d2fb171	0.04289383
105	0x3d70baab	0.05877177
106	0x3d0cfdf0	0.03442186
107	0xbdec76f3	-0.11546125
108	0xbcc468eb	-0.02397581
109	0x3dedbea4	0.116086274
110	0xbcebfa0a	-0.028805751
111	0x3baa7c82	0.005202831
112	0xbda0a35e	-0.0784366
113	0xbae96f7f	-0.0017809718
114	0x3da77e05	0.08178333
115	0xbd99b643	-0.07505467
116	0xbe1b725b	-0.15180342
117	0xbdc7ce0f	-0.097560994
118	0xbe245476	-0.16047844
119	0x3daa971f	0.08329605
120	0x3da56792	0.08076395
121	0x3c113a89	0.0088640535
122	0xbd9a90d9	-0.07547159
123	0xbc173e65	-0.009231185
124	0x3da804d7	0.08204048
125	0x3d3049ef	0.04303926
126	0x3d00bd91	0.031430785
127	0xbd9594dc	-0.07303783
128	0x3ca60500	0.020266056
129	0xbc4363a9	-0.011925616
130	0xbdcc226d	-0.09967504
131	0xbdf84573	-0.121226214
132	0xbddf75f7	-0.10911172
133	0x3c6c93cf	0.014439537
134	0x3d3e8d95	0.046521742
135	0x3e320db3	0.17388038
136	0xbd5db1cb	-0.054124635
137	0xbc9f57c7	-0.019451035
138	0x3d1a072b	0.037604492
139	0xbe343b8d	-0.17600842
140	0xbda8e1c7	-0.082461886
141	0xbdd3f165	-0.10348777
142	0x3d15b445	0.03654887
143	0xbce02471	-0.027361127
144	0x3a0d4abd	0.000538986
145	0x3e0f0ffa	0.13970938
146	0x3c6a2879	0.014291876
147	0xbd95235e	-0.072821364
148	0xbcbd2c34	-0.023092367
149	0x3d243b42	0.040095575
150	0xbb91660d	-0.004437214
151	0x3d59734f	0.053088482
152	0xbdec1041	-0.11526538
153	0x3d58cff0	0.05293268
154	0xbdc881f8	-0.097904146
155	0x3dce236f	0.10065352
156	0x3e15d643	0.14632516
157	0x3e0b1c52	0.13585022
158	0xbd4aee0f	-0.049543437
159	0x3d4840bc	0.04888986
160	0x3d8320aa	0.064027146
161	0x3da9d497	0.082925014
162	0x3c99474d	0.018710757
163	0x3dd47f15	0.103758015
164	0xbda8a290	-0.08234131
165	0xbcd3e843	-0.025867587
166	0xbe448e3b	-0.19194882
167	0xbd885dae	-0.06658493
168	0x3d007456	0.031360947
169	0xbe0b5588	-0.13606846
170	0x3cf25328	0.029580668
171	0x3cd4d6e7	0.02598138
172	0xbc35ac3e	-0.011088429
173	0xbd932ea1	-0.07186628
174	0xbce4850a	-0.02789547
175	0xbdc44f9e	-0.09585498
176	0xbd3dd7c8	-0.046348363
177	0x3e13d10b	0.14435212
178	0x3df81abd	0.12114475
179	0xbc5a2a79	-0.01331579
180	0xbd22ffae	-0.039794616
181	0xbe07aed8	-0.13250291
182	0xbdc5e6e7	-0.09663182
183	0x3e35fabb	0.17771427
184	0xbb96a76a	-0.004597594
185	0x3e066383	0.13123898
186	0x3d9210a3	0.071320795
187	0x3de50730	0.111830115
188	0xbcbf3dfc	-0.023344986
189	0x3e005687	0.12533008
190	0x3e07562b	0.13216464
191	0xbd90f710	-0.070783734
192	0x3d7d8507	0.061894443
193	0x3dd80c9f	0.10549282
194	0xbdd0edec	-0.1020163
195	0xbdbd2490	-0.09235489
196	0x3d23ee89	0.040022407
197	0xbc933505	-0.017969618
198	0x3d1e17c7	0.038596895
199	0x3e3c6d4c	0.18401068
200	0x3d91a023	0.07110622
201	0x3dec12ad	0.115269996
202	0x3d11285f	0.03543889
203	0xbc761d88	-0.015021689
204	0xbdb75a96	-0.08952825
205	0xbde8dece	-0.113706216
206	0xbd8d339c	-0.06894609
207	0x3db44573	0.08802309
208	0x3dee8653	0.11646714
209	0x3e0bef0e	0.13665411
210	0x3e31c3d3	0.17359857
211	0xbdb8f1c8	-0.09030491
212	0xbe0172ca	-0.12641445
213	0x3d46e1d1	0.0485552
214	0x3dc11271	0.094273455
215	0x3cef9b99	0.029249
216	0xbd9f9572	-0.07792176
217	0xbb9bd5b3	-0.0047556995
218	0x3b7694ab	0.0037625234
219	0xbd676b0e	-0.05649858
220	0x3dcccedc	0.10000393
221	0x3c8df409	0.01732828
222	0xbccff079	-0.025383221
223	0xbcd72539	-0.026262866
224	0x3d89b772	0.067244425
225	0xbe3e50af	-0.18585466
226	0xbbd4fa9d	-0.006499602
227	0x3d7aecdc	0.061261043
228	0xbd3bd30f	-0.045855578
229	0xbe04d14f	-0.1297047
230	0xbdbf67c1	-0.09345961
231	0xbdd9d244	-0.10635808
232	0x3e24841e	0.16066024
233	0xbd8a2e81	-0.06747151
234	0xbca462be	-0.020066615
235	0xbcdfd037	-0.027320964
236	0x3e024dd5	0.12725003
237	0x3db62f9a	0.08895798
238	0xbd14b762	-0.0363077
239	0xbd7e7187	-0.062119987
240	0xbdc3b751	-0.09556449
241	0xbdb6189c	-0.088914126
242	0xbbefcaa9	-0.00731786
243	0xbdd24757	-0.10267513
244	0xbd4f9af7	-0.050684895
245	0xbda586e3	-0.08082368
246	0xbb352b25	-0.0027644124
247	0xbd0d8c93	-0.03455789
248	0x3e1c0826	0.15237483
249	0x3d032962	0.032021888
250	0x3dd8ab55	0.10579554
251	0x3e086f8b	0.133238
252	0x3e2ee49f	0.170794
253	0x3c84d53e	0.016214963
254	0x3dc8cb36	0.098043844
255	0xbd0abc9c	-0.03387128

rnn.bias_ih_l1 f4 [128]
0	0xbc74d5c4	-0.014943544
1	0xbd43e87b	-0.047829133
2	0xbe02a2d3	-0.12757425
3	0x3d3a191a	0.045434095
4	0x3e0ac080	0.13549995
5	0xbda60614	-0.08106628
6	0xbdaa9db7	-0.08330863
7	0x3dae46f0	0.08509624
8	0x3e0aa42e	0.13539192
9	0xbd81a44f	-0.063301675
10	0xbe026f47	-0.12737761
11	0xbe4c1d6d	-0.199331
12	0xbdab4b77	-0.08364003
13	0xbcaf25aa	-0.021380264
14	0x3deadf98	0.114684284
15	0xbd001631	-0.031271163
16	0x3df8f717	0.12156504
17	0xbc436a81	-0.011927248
18	0x3d8a5427	0.06754332
19	0x3d91e6a8	0.07124072
20	0x3de6667b	0.11250015
21	0xbe0a4d10	-0.1350596
22	0xbe09e25b	-0.13465254
23	0xbdeaee27	-0.11471205
24	0xbd8a95ea	-0.06766875
25	0xbe14fe95	-0.1455024
26	0x3e15e804	0.14639288
27	0x3d011dc9	0.031522546
28	0x3d977161	0.07394672
29	0xbcc31b02	-0.02381659
30	0xbe338f61	-0.17535163
31	0xbde91999	-0.113818355
32	0xbdaefcb6	-0.085442945
33	0xbcaa7e5d	-0.020812208
34	0xbd71d5f5	-0.059041936
35	0xbd7d6bf8	-0.061870545
36	0x3c8c8de5	0.017157504
37	0xbcfa30ea	-0.030540902
38	0x3e394c0c	0.18095416
39	0xbd67b146	-0.056565545
40	0xbb760959	-0.0037542193
41	0x3e2b0fd0	0.1670525
42	0x3d94a32e	0.072576866
43	0xbd8fda61	-0.07024074
44	0x3d34a8ad	0.044106174
45	0x3d8c1c41	0.068413265
46	0xbc9f96ef	-0.01948115
47	0x3e0693ea	0.13142362
48	0x3bbda33c	0.0057872813
49	0x3d819511	0.0632726
50	0xbda05453	-0.078285836
51	0x3d7d5503	0.06184865
52	0xbdcabf66	-0.098997876
53	0x3d398102	0.045289047
54	0x3dd1c74f	0.10243093
55	0x3dc2a126	0.09503393
56	0x3e2bc28f	0.16773437
57	0xbd66292c	-0.05619161
58	0x3b91d19d	0.0044500367
59	0xbcc995fe	-0.024607655
60	0xbd709cb6	-0.0587432
61	0x3d95d865	0.073166646
62	0xbd4af047	-0.049545553
63	0xbddeedff	-0.10885238
64	0xbb58a851	-0.0033059309
65	0x3ce94af8	0.02847813
66	0xbd9a1941	-0.07524348
67	0x3cd3c4fd	0.025850767
68	0xbe1bf912	-0.15231732
69	0xbd1ac571	-0.03778595
70	0xbd5c129d	-0.05372869
71	0x3d878ce4	0.0661867
72	0x3cf4367b	0.029811135
73	0x3d4efe68	0.05053559
74	0x3dd62275	0.10455791
75	0xbe2fa07a	-0.1715106
76	0x3d2a12e8	0.041521937
77	0x3c02b8a7	0.007978595
78	0xbdcc77d9	-0.099837966
79	0x3ce7afcd	0.02828207
80	0x3b2c1188	0.0026255567
81	0xbdbebcb4	-0.09313336
82	0x3e2924d1	0.1651795
83	0xbde6e6e5	-0.112745084
84	0xbd87eda0	-0.0663712
85	0x3dbbe444	0.091743976
86	0x3e1a758c	0.15083903
87	0x3db03153	0.08603158
88	0xbe019d98	-0.12657773
89	0x3de70b57	0.1128146
90	0xbc04e1cc	-0.008110475
91	0x3cfcec7f	0.030874489
92	0xbc2b1de2	-0.010444136
93	0x3e0f179c	0.1397385
94	0xbdd9a714	-0.10627571
95	0xbd52344b	-0.0513194
96	0x3e06cf00	0.13164902
97	0x3e0d207b	0.13781922
98	0x3d029953	0.031884503
99	0xbdf35154	-0.118807465
100	0xbc0164cc	-0.007897567
101	0x3e0a82ee	0.13526508
102	0xbdd68f67	-0.104765706
103	0xbd0e6a85	-0.034769554
104	0xbd1201e0	-0.03564632
105	0x3d7b0a81	0.061289314
106	0x3dc5aebe	0.0965247
107	0xbc909684	-0.017649896
108	0xbe0bd6ab	-0.13656108
109	0x3d9da684	0.07697776
110	0x3d93b3dd	0.072120406
111	0x3d88697b	0.06660744
112	0xbe224432	-0.15846327
113	0x3e5287ef	0.20559667
114	0x3e46afc1	0.19402982
115	0x3d421bb3	0.047389697
116	0xbd7b27d4	-0.06131728
117	0x3d818bfc	0.06325528
118	0xbdd5a612	-0.10432066
119	0xbddbfee4	-0.10741976
120	0xbcd30b11	-0.025762113
121	0x3db8bebe	0.09020756
122	0xbd35116e	-0.044206075
123	0x3d556bbb	0.052104693
124	0xbc831934	-0.016003229
125	0xbc04c772	-0.008104192
126	0xbd49c8ce	-0.049263768
127	0x3de9e4f9	0.11420626

rnn.bias_hh_l1 f4 [128]
0	0xbe130402	-0.14356998
1	0x3dfa09a9	0.12208874
2	0xbe25119b	-0.16119997
3	0xbd7e9a29	-0.062158737
4	0xbe16dfdc	-0.14733833
5	0x3d4540df	0.04815757
6	0xbe0a17f9	-0.13485707
7	0x3d2a0329	0.04150692
8	0x3e4dcae0	0.20096922
9	0xbd90ee77	-0.070767336
10	0x3d94a4a7	0.072579674
11	0xbd338281	-0.04382563
12	0x3cad6f6c	0.021171294
13	0xbe03a729	-0.12856735
14	0xbd47d72d	-0.048789192
15	0xbd5738a5	-0.052544255
16	0x3dea544d	0.1144186
17	0xbe1e716d	-0.15472956
18	0xbdd3464d	-0.10316143
19	0xbda91b25	-0.082571305
20	0x3e195086	0.14972124
21	0xbe18f2c8	-0.14936364
22	0xbd5ead38	-0.054364413
23	0xbd7fafb0	-0.062423408
24	0x3e13b6cd	0.14425202
25	0x3e05b1d7	0.13056122
26	0x3dcbaad5	0.09944693
27	0x3e2184ab	0.15773265
28	0xbd449634	-0.047994807
29	0xbc028adb	-0.007967676
30	0xbe140c65	-0.14457853
31	0xbe197741	-0.14986898
32	0xbe07babd	-0.13254829
33	0xbd91089a	-0.07081719
34	0x3da1f2ff	0.07907676
35	0x3e142503	0.14467244
36	0x3e13711c	0.14398617
37	0x3cd1a773	0.025592541
38	0x3dc9799a	0.09837647
39	0xbded3437	-0.11582225
40	0x3e6b07fd	0.22952266
41	0x3ca4bd28	0.020109728
42	0xbd4d45ea	-0.050115503
43	0xbdf591d0	-0.11990702
44	0xbdd2f3da	-0.10300417
45	0x3dfe9a79	0.12431807
46	0xbe0093d7	-0.12556396
47	0x3d8c2c2c	0.068443626
48	0xbbe72da3	-0.007055001
49	0x3cf46267	0.029832078
50	0xbdb780f8	-0.08960146
51	0xbc18278f	-0.009286775
52	0x3e32d627	0.17464505
53	0x3daa14d6	0.083047554
54	0xbe12d4e4	-0.14339024
55	0xbdb77736	-0.089582846
56	0x3da2bf88	0.07946688
57	0xbe092082	-0.13391307
58	0x3e0c94f5	0.13728698
59	0x3e4342f4	0.1906851
60	0xbc7372c0	-0.0148589015
61	0x3e3f1767	0.18661271
62	0x3cf08909	0.029362218
63	0x3de7dd56	0.11321513
64	0x3d776f5e	0.060408942
65	0xbe2b5a23	-0.16733603
66	0x3d12260b	0.03568081
67	0xbd319874	-0.04335828
68	0xbd52a55e	-0.051427238
69	0x3dd32ceb	0.10311302
70	0xbe06fca9	-0.1318232
71	0x3d9a4080	0.07531834
72	0x3ca29768	0.019847587
73	0xbde08e09	-0.10964591
74	0xbe444ed0	-0.1917069
75	0x3d8f7e39	0.07006497
76	0xbe1351ae	-0.14386627
77	0xbd85f274	-0.06540385
78	0x3ce9dd55	0.028547922
79	0x3db5a1ea	0.08868773
80	0x3da746e7	0.081678204
81	0x3e0d225b	0.13782637
82	0x3c12771c	0.008939531
83	0xbe1cbd79	-0.15306653
84	0xbd60d2ee	-0.05488866
85	0xbe0bca8a	-0.13651481
86	0xbe10617c	-0.14099687
87	0x3e09bbbe	0.13450524
88	0x3dd0f81c	0.10203573
89	0x3d5d110a	0.053971328
90	0xbdbdbc7d	-0.09264467
91	0x3b4f5c64	0.0031640762
92	0x3d531a4f	0.05153876
93	0x3db2fac4	0.08739236
94	0xbd0ba26e	-0.034090452
95	0x3b9bbef6	0.004752989
96	0xbdfd8247	-0.12378364
97	0x3dcf08ac	0.10109076
98	0x3d21cfc6	0.03950479
99	0xbd850549	-0.06495149
100	0xbdd0c336	-0.101934835
101	0xbdd40135	-0.10351793
102	0x3d91f1b3	0.071261786
103	0x3e35d3e5	0.17756613
104	0xbdbfaa82	-0.09358694
105	0xbdede0ac	-0.116151184
106	0x3d6546cf	0.05597573
107	0x3e2412e2	0.16022828
108	0xbc4ef30b	-0.012631188
109	0xbd52c6c7	-0.0514591
110	0xbe0b8749	-0.13625826
111	0xbd483c4d	-0.048885632
112	0x3dea01e1	0.114261396
113	0x3da224e5	0.07917193
114	0x3d49b990	0.04924923
115	0x3e319709	0.17342772
116	0xbdce3ac4	-0.100698024
117	0x3e2a64c8	0.16640007
118	0xbe04bfd9	-0.12963809
119	0x3d956075	0.07293788
120	0x3cf6023c	0.030030362
121	0x3d511a00	0.051050186
122	0xbe3a7cbf	-0.1821165
123	0xbcada768	-0.02119799
124	0xbc32ed9e	-0.01092091
125	0xbcf9e4d9	-0.03050463
126	0xbd3c5202	-0.045976646
127	0xbd9d8bbe	-0.07692669

decoder.weight f4 [1, 32]
0	0xbe4b8108	-0.1987344
1	0xbe50533a	-0.20344248
2	0x3e68309b	0.22674792
3	0x3e587bca	0.21140972
4	0x3e5a2e2f	0.2130668
5	0xbe5813a1	-0.21101238
6	0xbe5773bb	-0.21040241
7	0xbe57d03a	-0.21075526
8	0x3e1b3752	0.15157822
9	0x3e5c41fc	0.21509546
10	0x3e624b38	0.22099006
11	0x3e7f3763	0.24923472
12	0x3e481747	0.1954013
13	0x3e5f9452	0.21833923
14	0x3e5cbcef	0.21556447
15	0xbe508437	-0.20362936
16	0xbe55b687	-0.2087041
17	0x3e69fd78	0.22850597
18	0xbe639950	-0.22226453
19	0xbe4cb2cb	-0.19990079
20	0xbe5cf7f6	-0.21578965
21	0xbe5fe7f7	-0.21865831
22	0xbe6cb7b8	-0.23116958
23	0x3e578944	0.21048456
24	0x3e4c4715	0.1994899
25	0x3e80636e	0.2507586
26	0x3e386b9e	0.18009803
27	0x3e45ac20	0.19303942
28	0x3e5f08bd	0.21780677
29	0xbe569643	-0.20955758
30	0x3e6c46cd	0.23073883
31	0x3e5e59f1	0.21713997

exp_avg f4 [32, 1]
0	0xbb5e95f8	-0.00339639
1	0x392d869d	0.00016548713
2	0xbb7e76de	-0.0038828175
3	0xba9f17a6	-0.0012137785
4	0xbbefb2e5	-0.007315027
5	0x3bc6fa9f	0.006072357
6	0xba923ecd	-0.0011157632
7	0x3a469694	0.00075755385
8	0x3b01830d	0.001976195
9	0xb8f73764	-0.00011788195
10	0xbc31d357	-0.01085361
11	0xb83df842	-4.529232e-05
12	0x3984d3c6	0.00025334785
13	0xb8e851d0	-0.00011077861
14	0xbba69461	-0.005083606
15	0x3c55a48b	0.013039718
16	0xbbd26965	-0.0064212554
17	0xbb164e42	-0.002293483
18	0x3b61dd1d	0.003446407
19	0xb9a8d07e	-0.00032198796
20	0x3b0becb5	0.0021350805
21	0x377e4e16	1.5157761e-05
22	0x3c19f7f1	0.009397493
23	0x3c2b4d16	0.01045539
24	0xb7b7c844	-2.1908556e-05
25	0x3aab4026	0.0013065382
26	0xbc173de0	-0.009231061
27	0xbba79032	-0.005113625
28	0x3b6e473d	0.003635838
29	0xba2ef028	-0.00066733593
30	0x3b3d06ef	0.0028843244
31	0x3a903369	0.001100165

exp_avg_sq f4 [32, 1]
0	0x3bb5e193	0.005550572
1	0x38c479de	9.368708e-05
2	0x3a90a3f5	0.0011035191
3	0x393c0878	0.00017932232
4	0x3a8ca6ff	0.0010730921
5	0x3a319d2f	0.00067754363
6	0x38f0adc6	0.000114764596
7	0x39470c60	0.00018982729
8	0x390ae46a	0.00013245796
9	0x388c5770	6.692007e-05
10	0x3c968a46	0.01837648
11	0x37d3d8bb	2.5254083e-05
12	0x3994e0d8	0.0002839628
13	0x38a574dc	7.88958e-05
14	0x3a0cf23c	0.0005376672
15	0x3b940453	0.004517117
16	0x3a076dc6	0.0005166199
17	0x3b585481	0.0033009353
18	0x3c943f40	0.018096566
19	0x38226403	3.8716953e-05
20	0x39b3dc34	0.00034305605
21	0x39c9c9ce	0.00038488064
22	0x3b3707bb	0.0027928192
23	0x3b17bb51	0.002315242
24	0x37b6285d	2.1714886e-05
25	0x38e28865	0.00010801925
26	0x3c8d1945	0.017223964
27	0x3a28c32b	0.00064377737
28	0x3b3fd31d	0.002927012
29	0x38611f30	5.3673226e-05
30	0x3b61332c	0.0034362776
31	0x3a80bd0b	0.0009821964

exp_avg f4 [32]
0	0x3b728150	0.0037003346
1	0x3a8cca91	0.0010741522
2	0x3b177c18	0.0023114737
3	0x3a5d7ac6	0.00084487756
4	0x3ad08c74	0.0015910999
5	0xba736375	-0.00092845346
6	0x3aa89ef2	0.0012864752
7	0xba1e63f1	-0.0006042114
8	0xbb27d3b5	-0.0025608365
9	0x3a1554ba	0.0005696524
10	0x3c840231	0.016114326
11	0xb9851e7b	-0.00025390447
12	0xb9373150	-0.0001747061
13	0xb99271b7	-0.00027932014
14	0x38365bbe	4.3477623e-05
15	0xbc54611f	-0.012962609
16	0xbb02ae43	-0.0019940294
17	0x3b0df048	0.0021658111
18	0xbb98dc63	-0.004664944
19	0x3a9ded36	0.0012048844
20	0xbadbe502	-0.0016776624
21	0xb9c487ee	-0.0003748531
22	0xbba7aecd	-0.0051172734
23	0xbab99925	-0.001416002
24	0xba5abe0c	-0.0008344359
25	0xba4098ac	-0.00073469686
26	0x3ca63ef0	0.020293683
27	0x38d147e6	9.979289e-05
28	0xbb6d0976	-0.003616897
29	0xb997c16f	-0.00028945084
30	0xbb9b5b9d	-0.0047411458
31	0xbaaccaf3	-0.0013183042

exp_avg_sq f4 [32]
0	0x3b39858b	0.0028308358
1	0x37bf3e56	2.2798002e-05
2	0x3accc467	0.0015622497
3	0x38a96ddd	8.0790116e-05
4	0x3b28f485	0.002578051
5	0x3a96066d	0.0011446007
6	0x3956f713	0.00020500673
7	0x388f1165	6.822011e-05
8	0x3936695a	0.00017396119
9	0x37cbcdaf	2.4295265e-05
10	0x3c89e979	0.016834961
11	0x38037d01	3.1349253e-05
12	0x38f6f16d	0.00011775163
13	0x38153d02	3.5581186e-05
14	0x3a9a2693	0.0011760764
15	0x3c228625	0.009919678
16	0x3a3af57f	0.00071319187
17	0x3ac38f32	0.0014919995
18	0x3c0dab2e	0.008646769
19	0x38038867	3.135987e-05
20	0x39911eb4	0.0002767943
21	0x391f29b5	0.00015178959
22	0x3b897ce1	0.004195795
23	0x3b853e4b	0.004066264
24	0x37443974	1.1695887e-05
25	0x385c20cf	5.2482643e-05
26	0x3ca685bb	0.02032744
27	0x3a8ca95b	0.0010731624
28	0x3ad7b417	0.0016456869
29	0x38032d8d	3.1275256e-05
30	0x3b0052c8	0.0019580591
31	0x39d1b486	0.00039998087
